swarm/minimax/model_0.25_relaxation/Q-1000021.pth (torch, 338399 bytes, 10 tensors)

net.0.0.weight f4 [128, 8]
000000 a2 1d 44 bb f9 57 e6 ba 34 60 7b 39 86 08 18 bb
       -0.002992489 -0.0017573825 0.00023973064 -0.002319844
000010 20 0d db ba 5d 60 05 bb b3 67 8b ba 19 42 a0 ba
       -0.0016712286 -0.0020351626 -0.0010635763 -0.001222673
000020 eb 08 49 80 60 f4 3b 80 89 b6 33 80 6c f2 34 80
       -6.70719e-39 -5.50596e-39 -4.749092e-39 -4.86241e-39
000030 a5 64 01 80 31 60 0b 80 86 f1 3c 80 94 ca 3a 80
       -1.2794e-40 -1.044697e-39 -5.596772e-39 -5.39913e-39
000040 81 73 c6 b2 0d 05 b1 a6 96 e6 81 21 f0 08 f8 94
       -2.3102759e-08 -1.2283211e-15 8.802416e-19 -2.5045126e-26
000050 05 e2 46 1f d9 e3 35 b2 13 d9 7a 91 7a 0b 85 11
       4.211509e-20 -1.0587393e-08 -1.9788414e-28 2.0990773e-28
000060 f2 de 0d 80 84 03 0d 80 e2 b9 0d 80 21 71 0e 80
       -1.273839e-39 -1.195123e-39 -1.260544e-39 -1.32628e-39
000070 2c 9d 0b 80 0d bb 0b 80 05 dc 0c 80 d6 f4 0b 80
       -1.066573e-39 -1.077292e-39 -1.180954e-39 -1.098021e-39
000080 90 7f 2d 80 f8 17 45 80 88 a5 0c 80 94 73 2f 80
       -4.178358e-39 -6.345248e-39 -1.161407e-39 -4.35773e-39
000090 81 30 1a 00 e6 22 2a 80 87 4c 2d 80 27 79 2c 80
       2.405123e-39 -3.86961e-39 -4.16005e-39 -4.084223e-39
0000a0 6a f3 05 80 71 dc 06 80 96 b3 07 80 f1 ba 06 80
       -5.46498e-40 -6.30092e-40 -7.07272e-40 -6.18075e-40
0000b0 a9 16 06 80 4f b8 06 80 97 36 07 80 57 69 07 80
       -5.59142e-40 -6.1713e-40 -6.62432e-40 -6.80637e-40
0000c0 91 74 2a 80 29 34 07 80 c6 92 48 80 2b e8 24 80
       -3.898907e-39 -6.6156e-40 -6.664808e-39 -3.389364e-39
0000d0 5e 5a 43 80 04 54 11 00 de 8b 1b 80 5d d7 42 80
       -6.185396e-39 1.591343e-39 -2.529733e-39 -6.1384e-39
0000e0 fa c8 02 80 aa d3 02 80 b6 6b 02 80 d6 db 03 80
       -2.55768e-40 -2.59602e-40 -2.2231e-40 -3.54369e-40
0000f0 a5 6f 02 80 f7 71 02 80 8e a7 02 80 a9 f5 04 80
       -2.23722e-40 -2.24554e-40 -2.43778e-40 -4.55468e-40
000100 c7 70 10 80 c3 35 0e 80 dc 82 0e 80 6f df 0e 80
       -1.509825e-39 -1.304983e-39 -1.33264e-39 -1.36585e-39
000110 25 fd 13 80 88 76 0f 80 67 55 10 80 00 6b 11 80
       -1.835686e-39 -1.420053e-39 -1.500005e-39 -1.599588e-39
000120 4f c9 37 bb 64 bf 31 3b 14 e9 32 bb 9d 5b 41 bb
       -0.0028043573 0.0027122134 -0.002729957 -0.0029504069
000130 fe be 44 3b 40 63 47 bb 0a be 4b bb a3 6e 49 3b
       0.0030021067 -0.0030424148 -0.0031088614 0.003073611
000140 07 0c 8e ba 0e 56 7a ba 66 9e 87 ba c5 c6 85 ba
       -0.0010837325 -0.00095495663 -0.0010346889 -0.0010206333
000150 d1 ea 9a ba f3 00 7f ba aa e1 87 ba d8 ed 6a ba
       -0.0011819248 -0.00097276195 -0.0010366936 -0.0008961833
000160 53 b2 3f 80 ec 1b 35 80 e1 5a 0c 80 a9 ed 28 80
       -5.849607e-39 -4.877298e-39 -1.134627e-39 -3.758676e-39
000170 16 ce 48 80 75 8c 1f 80 c8 9f 28 80 97 29 44 80
       -6.686085e-39 -2.897287e-39 -3.730739e-39 -6.259733e-39
000180 e3 80 6f b9 e8 fb 78 b9 4e 99 94 b9 88 b5 7e b9
       -0.0002284083 -0.00023744965 -0.0002834298 -0.00024290953
000190 55 7a 8a b9 5c a7 5f b9 23 65 87 b9 4c 85 87 b9
       -0.00026412556 -0.00021329283 -0.0002582456 -0.0002584852
0001a0 f5 2d 80 b3 44 6a 66 af bf 32 7c ac 02 63 19 b5
       -5.968824e-08 -2.0956131e-10 -3.5839524e-12 -5.7141017e-07
0001b0 bd 03 e4 b3 7f 78 ff b1 9c ee 99 ab 68 18 a3 b3
       -1.0617757e-07 -7.4351756e-09 -1.0937531e-12 -7.5947185e-08
0001c0 aa bc 02 80 20 49 03 80 f2 d0 03 80 52 d2 03 80
       -2.51351e-40 -3.01739e-40 -3.50462e-40 -3.50955e-40
0001d0 eb 1b 03 80 84 4a 07 80 86 03 04 80 57 e8 02 80
       -2.85522e-40 -6.6958e-40 -3.68606e-40 -2.67019e-40
0001e0 c4 06 2a bb 88 a8 6d bb fc b7 57 bb 29 97 28 bb
       -0.0025943974 -0.0036263783 -0.003291606 -0.0025724864
0001f0 e9 c2 52 bb 94 a8 65 bb 2c e5 43 bb b6 4d 3e bb
       -0.0032159633 -0.0035043107 -0.0029891236 -0.0029038019
000200 77 59 91 ba 4b b7 97 ba 72 84 5d aa 51 2f 88 b8
       -0.0011089285 -0.0011575011 -1.9674694e-13 -6.493799e-05
000210 3f 76 a6 ba ec 60 9f b8 13 44 a2 b9 4f af b7 b9
       -0.0012700035 -7.599764e-05 -0.00030949767 -0.00035035095
000220 8f c5 26 80 e4 d2 24 80 31 dd 2a 80 4d 79 29 80
       -3.56062e-39 -3.381731e-39 -3.93644e-39 -3.80877e-39
000230 34 e4 26 80 36 69 24 80 b7 53 29 00 a3 fe 27 80
       -3.571613e-39 -3.34382e-39 3.795287e-39 -3.672931e-39
000240 35 b3 45 80 f9 80 2d 80 20 c4 2d 80 3d 1d 1b 80
       -6.400937e-39 -4.178864e-39 -4.202954e-39 -2.490047e-39
000250 f2 8e 31 80 f1 80 36 80 7f 92 3c 80 ab 0a 1c 80
       -4.551218e-39 -5.005372e-39 -5.562683e-39 -2.575221e-39
000260 30 a2 02 80 c0 bd 04 80 f3 87 00 80 b8 1c 0b 80
       -2.41853e-40 -4.35411e-40 -4.877e-41 -1.020493e-39
000270 4a c1 01 80 16 97 03 80 e1 02 00 00 5f b3 01 00
       -1.61175e-40 -3.29706e-40 1.033e-42 1.56182e-40
000280 e3 f7 2a bb fe 41 85 3a 5f cf 93 bb ce af 91 bb
       -0.0026087693 0.0010166762 -0.0045108045 -0.0044460064
000290 32 f9 67 bb ac ea d6 ba 1c 78 66 ba 68 79 37 bb
       -0.0035396335 -0.0016396842 -0.00087917014 -0.0027995948
0002a0 36 26 53 b9 24 04 9f b9 2f 86 37 39 db 2b 13 b9
       -0.00020136763 -0.00030329928 0.00017502227 -0.0001403535
0002b0 25 e3 85 38 6e a9 db b9 db 55 68 b9 d0 6c 07 39
       6.384243e-05 -0.0004189717 -0.00022157228 0.00012915139
0002c0 7b 94 ad b9 ab 3c fb b9 ea 0d 23 39 f6 f6 5d ba
       -0.00033107758 -0.00047919652 0.00015550075 -0.0008467281
0002d0 43 e4 e4 b9 9c a5 2e ba f4 f1 07 b9 da bd 94 b9
       -0.00043657617 -0.0006662251 -0.00012964738 -0.0002837021
0002e0 0b a0 47 b8 4e 29 c7 b9 43 e0 d9 b8 d7 62 7c b9
       -4.759435e-05 -0.00037987012 -0.00010389138 -0.00024069413
0002f0 c1 e4 11 b8 9f b5 40 b9 bb 58 88 b9 b1 99 8f b9
       -3.4783738e-05 -0.00018378206 -0.0002600605 -0.00027389594
000300 80 ba 0d 80 d9 88 0c 80 de 29 03 00 1a 95 08 80
       -1.260765e-39 -1.151118e-39 2.90526e-40 -7.88172e-40
000310 27 02 09 80 01 42 0a 80 88 ab 02 00 5f 1d 0b 80
       -8.27292e-40 -9.42033e-40 2.45205e-40 -1.020727e-39
000320 ef e2 50 ba b6 0a 6e ba 8c e8 19 ba e6 2f 10 ba
       -0.0007968386 -0.00090805755 -0.0005871139 -0.00055003015
000330 53 c3 66 ba cf ca 67 ba be 0c bc b9 3f 88 36 ba
       -0.0008802909 -0.00088421715 -0.00035867648 -0.0006963051
000340 95 5d 29 bf 18 c1 ff be 90 b9 58 3d 90 e6 2d 3f
       -0.6615842 -0.49952006 0.05291134 0.67929935
000350 0f e6 cc 3e b8 fa a1 3e 2d 5e 0a be 21 c0 43 bf
       0.4001927 0.31636596 -0.13512488 -0.7646504
000360 e9 8a 88 02 48 f1 0e 9b 1f 73 c2 08 81 19 44 0c
       2.0063134e-37 -1.1823927e-22 1.1703015e-33 1.5106966e-31
000370 11 f9 7a 8c bb 23 0a 00 6d 20 4d 90 6f dd 0d 15
       -1.933425e-31 9.31173e-40 -4.04541e-29 2.8649404e-26
000380 3d b8 71 b9 d7 c2 72 b9 b5 e1 59 b9 b8 af 67 b9
       -0.00023052185 -0.00023151502 -0.00020778815 -0.00022095337
000390 c8 79 80 b9 23 6d 5d b9 9c 0e 46 b9 35 a8 83 b9
       -0.00024504797 -0.00021116859 -0.00018888194 -0.0002511159
0003a0 20 d4 d2 bb e2 9a 96 ba b0 f4 42 bb dd 80 a0 bb
       -0.0064339787 -0.001149025 -0.0029747896 -0.004898174
0003b0 9c a2 9d bb e1 67 6b bb 02 d1 df ba 1d 57 b3 bb
       -0.0048106443 -0.003592007 -0.0017075839 -0.005473031
0003c0 37 85 4d b9 25 f7 a9 b9 35 35 51 b9 4c 44 f8 b7
       -0.0001959995 -0.0003241833 -0.00019951614 -2.9595707e-05
0003d0 f4 5b eb b8 26 90 7f b9 b4 9e 20 b9 c2 93 44 b9
       -0.00011222801 -0.00024372395 -0.0001531791 -0.0001874706
0003e0 2c cb 05 80 1f 9d 11 80 5b 74 06 80 21 66 06 80
       -5.32062e-40 -1.617568e-39 -5.92753e-40 -5.8765e-40
0003f0 64 ea 05 80 25 74 11 80 6b 47 06 80 95 d2 05 80
       -5.43261e-40 -1.602868e-39 -5.76633e-40 -5.3472e-40

net.0.0.bias f4 [128]
000000 fc c7 02 bb 05 d9 10 00 a9 a5 02 b5 8f 78 0e 80
       -0.0019955626 1.54722e-39 -4.866984e-07 -1.328945e-39
000010 46 96 14 00 48 73 01 80 cc 05 00 00 2b 84 05 80
       1.890618e-39 -1.3319e-40 2.08e-42 -5.0659e-40
000020 16 1e f5 9e e1 71 46 bb ce a5 26 bb 0f 5b 27 00
       -2.5952827e-20 -0.003028028 -0.0025428417 3.61425e-39
000030 15 11 e0 ba 83 3f 10 b9 82 fa 05 80 74 ac 4c bb
       -0.0017094935 -0.0001375657 -5.49043e-40 -0.003123072
000040 c6 e3 02 bb f2 42 01 00 76 a4 0e 00 9d 25 a4 a5
       -0.001997219 1.15851e-40 1.344694e-39 -2.8474953e-16
000050 24 25 10 bb 6b 00 ef b9 49 48 02 ba f3 9a d0 ba
       -0.0021994794 -0.00045585944 -0.0004969878 -0.0015915319
000060 e1 da 10 80 d5 f5 10 bb 59 98 49 bd ad 40 f0 af
       -1.547887e-39 -0.0022119184 -0.049217556 -4.37017e-10
000070 ec 56 fa ba f3 cd 89 bb f3 53 cd ba ec a3 00 80
       -0.0019099391 -0.0042054593 -0.0015665278 -5.8804e-41
000080 1a af a4 ba a3 21 32 bb 82 32 00 80 1e 53 05 80
       -0.0012564391 -0.0027180694 -1.8119e-41 -4.88994e-40
000090 96 3c 00 80 15 a3 05 80 1d 4a 24 80 98 ec dc af
       -2.1734e-41 -5.1768e-40 -3.332665e-39 -4.0185877e-10
0000a0 c3 73 06 80 93 72 55 bb 77 e5 2d ba 11 dc b0 ba
       -5.9254e-40 -0.0032569512 -0.0006633619 -0.0013493319
0000b0 b3 c7 18 80 a7 b3 a7 8c 5d 1d 8b ba 06 18 ab b6
       -2.27569e-39 -2.5838548e-31 -0.0010613609 -5.098994e-06
0000c0 d8 90 bc 3d e7 15 06 80 ec 31 bc ba 5d 92 18 bb
       0.09207314 -5.5887e-40 -0.001435814 -0.0023280599
0000d0 03 b7 1c 80 86 5b 8f b8 81 df 05 80 15 3f 37 bb
       -2.637046e-39 -6.835819e-05 -5.39356e-40 -0.0027961184
0000e0 ef 74 84 bb 2f cc 19 80 af 8c 01 3e 36 85 0d 80
       -0.00404226 -2.369135e-39 0.12651323 -1.241649e-39
0000f0 b2 c8 08 80 92 69 0d b5 18 d3 08 80 8b 82 1e 80
       -8.0668e-40 -5.268022e-07 -8.1041e-40 -2.801895e-39
000100 18 b3 ae 92 b3 d5 10 80 a3 44 f3 ba e9 c7 d5 ba
       -1.1025094e-27 -1.546029e-39 -0.0018559884 -0.0016310188
000110 dd c4 f2 ae 97 b6 74 a5 b2 98 01 00 91 95 13 80
       -1.1039856e-10 -2.122549e-16 1.46612e-40 -1.798529e-39
000120 c4 86 03 80 df 1e 84 ba 24 6f df 3b 02 47 1a 80
       -3.23851e-40 -0.0010080001 0.006818669 -2.413196e-39
000130 a2 ed 48 3c e5 4a 22 9c f4 d1 12 80 e7 61 07 00
       0.012263687 -5.3698103e-22 -1.728356e-39 6.77969e-40
000140 c8 79 ad ae 28 11 de ba f5 59 21 bb 27 ff 06 80
       -7.888762e-11 -0.0016942369 -0.002462027 -6.42544e-40
000150 a1 15 06 97 43 b7 44 bb ce 33 05 bb 96 e8 aa b6
       -4.3325035e-25 -0.003001646 -0.0020325067 -5.0934714e-06
000160 f0 df 08 80 ba 05 3b bb b1 0d 0d 00 4d be 69 ba
       -8.15018e-40 -0.002853735 1.198773e-39 -0.00089166017
000170 2e 4b 10 80 f9 f1 01 80 0f 67 39 bb c3 12 cc ba
       -1.496337e-39 -1.78639e-40 -0.0028290187 -0.0015569556
000180 38 4e 92 ba 1f b8 cb ba 05 52 5b bb 78 7b b6 ba
       -0.0011162227 -0.0015542543 -0.0033465635 -0.0013922295
000190 77 e5 45 bb c9 fc 13 00 87 94 83 ba 9c 37 f4 ba
       -0.0030196586 1.835557e-39 -0.0010038771 -0.0018632296
0001a0 43 ea 1b 80 96 56 0d 80 53 9f 8c b7 26 60 c1 b8
       -2.563596e-39 -1.224923e-39 -1.6763492e-05 -9.220866e-05
0001b0 ad 28 02 bb 00 f4 22 bb a2 af 55 b6 6a 4e 03 80
       -0.001986067 -0.0024864674 -3.1841705e-06 -3.03636e-40
0001c0 04 e9 0a bb ab c9 b9 ba 56 b8 93 b4 fd 24 2c ba
       -0.0021196017 -0.0014174482 -2.7515006e-07 -0.0006566791
0001d0 5d ef 3f ba 61 03 1a 80 4e 60 90 ab 9b f7 3c b8
       -0.00073217397 -2.388935e-39 -1.0258545e-12 -4.5053293e-05
0001e0 24 75 0d 80 98 98 01 80 16 cb 12 00 bb 11 08 80
       -1.235884e-39 -1.46576e-40 1.725892e-39 -7.41044e-40
0001f0 9e f9 08 3e ac 3c 0e b5 a7 6f 16 ba 0e 2e b7 a9
       0.13376471 -5.298741e-07 -0.00057386834 -8.134822e-14

net.1.0.weight f4 [128, 128]
000000 03 ec 4f ba 77 2e 2d 80 a8 17 d1 10 e6 bf 06 00
       -0.0007931592 -4.149266e-39 8.247241e-29 6.19853e-40
000010 c5 c3 40 00 4d 4f 06 00 6a 23 39 80 6e 99 02 80
       5.9477e-39 5.79461e-40 -5.247327e-39 -2.38711e-40
000020 85 f3 35 80 8a e9 05 00 e9 39 de 39 63 11 15 82
       -4.95464e-39 5.42956e-40 0.00042386286 -1.0951781e-37
000030 1b 0a 00 00 88 ac 0f a5 51 6c 03 00 ee ce e1 3a
       3.625e-42 -1.2461729e-16 3.14363e-40 0.0017227808
000040 d7 17 41 38 0a d6 00 00 86 90 97 81 15 e4 05 80
       4.603699e-05 7.6783e-41 -5.567602e-38 -5.40998e-40
000050 bc 24 9e b9 e2 a6 83 37 a6 b4 78 b8 8a f2 3f 00
       -0.00030163478 1.5694128e-05 -5.929605e-05 5.872643e-39
000060 a6 ab 01 00 dd cb 11 80 8a 30 10 bf 13 d2 cd 1c
       1.53411e-40 -1.634336e-39 -0.56324065 1.3620065e-21
000070 69 a6 8f 37 f3 e2 b4 b9 bf 2a 48 80 b5 87 05 00
       1.712442e-05 -0.00034501366 -6.62749e-39 5.0786e-40
000080 dd ea d7 3a ae 4b be 3a 1d 33 1f 00 60 91 01 80
       0.0016473193 0.0014518404 2.865236e-39 -1.43986e-40
000090 be c3 08 00 78 4e a2 81 88 ef 16 80 d2 2c 0b 00
       8.04903e-40 -5.9622e-38 -2.106309e-39 1.026269e-39
0000a0 2d 9e 02 00 be 69 8b 3b 17 ca 5e b6 2e 84 c2 b8
       2.40414e-40 0.004254549 -3.319821e-06 -9.275261e-05
0000b0 51 66 00 80 05 f4 19 80 70 6d 96 b9 cc ad 0b 00
       -3.6704e-41 -2.383425e-39 -0.00028691767 1.072537e-39
0000c0 c6 af 37 c0 72 e1 01 80 c7 1a 54 b7 88 38 a6 38
       -2.8701034 -1.7271e-40 -1.2642419e-05 7.9260266e-05
0000d0 66 cd 16 00 99 53 01 80 cd 13 05 80 19 d7 31 bb
       2.094064e-39 -1.21825e-40 -4.6628e-40 -0.0027136265
0000e0 dc a4 89 bb 85 ec 1a 80 2f 02 f0 bf fe 45 0e 80
       -0.004200561 -2.47257e-39 -1.8750666 -1.310805e-39
0000f0 5f 61 00 00 0b 83 fd 99 fa 1a 04 80 d9 f2 39 80
       3.493e-41 -2.6212515e-23 -3.7702e-40 -5.32174e-39
000100 12 75 2c 80 ed 51 06 80 57 e8 c3 39 9b 3f 37 39
       -4.082759e-39 -5.80402e-40 0.00037366405 0.00017475935
000110 f1 17 05 80 5a 4f 00 8f d6 de 07 80 04 08 02 80
       -4.67766e-40 -6.32617e-30 -7.22787e-40 -1.86546e-40
000120 23 f7 09 00 9b 2b 86 34 26 19 94 bf 17 4e 08 00
       9.15175e-40 2.4991172e-07 -1.1570175 7.62697e-40
000130 37 f2 65 bd f6 10 0f 00 3b ca 0c 00 49 0d 07 00
       -0.056139197 1.383617e-39 1.174573e-39 6.47614e-40
000140 d4 8b 0a 00 ae 58 15 80 91 0f 11 3b c7 18 21 00
       9.68516e-40 -1.960358e-39 0.0022134522 3.03946e-39
000150 a9 f6 09 00 1f ed 37 3b 68 39 c5 ba a6 24 f8 ba
       9.15004e-40 0.002806492 -0.0015047016 -0.001893182
000160 02 98 04 00 90 46 3b bb e9 7a 31 80 33 f5 30 2c
       4.21872e-40 -0.0028575994 -4.544031e-39 2.5147217e-12
000170 fa ee 0e 80 0c 4b 05 80 a2 6d 41 00 2d 8d 5c ba
       -1.371426e-39 -4.86099e-40 6.008636e-39 -0.0008413371
000180 40 12 e1 38 e4 74 13 b8 a8 f1 1f bb a5 f6 00 b9
       0.000107322354 -3.5156394e-05 -0.0024405513 -0.00012298913
000190 a3 b3 22 25 b7 47 11 00 87 44 01 80 58 d2 a2 23
       1.4112123e-16 1.58693e-39 -1.16418e-40 1.765316e-17
0001a0 48 65 1d 80 a2 d7 e7 01 08 f4 3d 00 8f a8 16 32
       -2.699562e-39 8.5165416e-38 5.689507e-39 8.769475e-09
0001b0 c9 19 27 ba db 74 72 bb b6 88 30 10 ab 28 1e 00
       -0.0006374387 -0.003699592 3.4815198e-29 2.769654e-39
0001c0 87 47 d0 ba 40 5c d7 b7 87 08 13 80 02 f0 41 39
       -0.0015890457 -2.5672955e-05 -1.747933e-39 0.00018495324
0001d0 da 82 03 b9 3d 19 03 00 40 91 24 00 29 df 63 24
       -0.0001254188 2.8456e-40 3.358184e-39 4.9411803e-17
0001e0 06 a2 06 80 ed 19 06 00 5d 3f 39 80 d8 40 04 80
       -6.09136e-40 5.60313e-40 -5.257354e-39 -3.90604e-40
0001f0 6b 61 27 c0 bc 44 04 00 aa 00 90 31 44 02 1a 80
       -2.615321 3.91999e-40 4.191027e-09 -2.388536e-39
000200 40 5a 3f 02 58 73 4b 02 00 76 00 80 87 46 00 80
       1.4058364e-37 1.4947187e-37 -4.233e-41 -2.53e-41
000210 e0 80 05 80 76 64 00 80 08 26 04 80 b4 f8 00 00
       -5.05409e-40 -3.6039e-41 -3.80985e-40 8.9218e-41
000220 57 f0 04 80 97 43 04 00 0d 1b 07 80 44 79 02 80
       -4.5356e-40 3.91589e-40 -6.52552e-40 -2.27173e-40
000230 b5 57 05 80 60 f7 3e 82 50 3b 00 00 60 ac 08 02
       -4.90641e-40 -1.4029989e-37 2.1277e-41 1.0041171e-37
000240 9a 6f 00 00 3e 51 01 80 8f 79 00 80 c0 6a 98 81
       4.0035e-41 -1.2098e-40 -4.3607e-41 -5.598916e-38
000250 dc 9a 27 81 70 db 02 00 f8 2e 92 81 4e 8e 01 80
       -3.0784162e-38 2.6239e-40 -5.3699327e-38 -1.42885e-40
000260 41 dd 00 00 59 c5 02 00 2b f3 43 00 68 42 00 80
       7.9371e-41 2.54466e-40 6.24021e-39 -2.3822e-41
000270 8d 89 03 80 43 0f 00 80 2f 3a 00 82 a0 6b c8 01
       -3.2485e-40 -5.475e-42 -9.420653e-38 7.362283e-38
000280 c0 d9 b7 81 d8 94 a6 80 d4 de 5d 81 78 70 00 80
       -6.753604e-38 -1.5298087e-38 -4.075116e-38 -4.0346e-41
000290 5d 42 04 00 80 ef ce 02 70 07 27 02 92 20 03 00
       3.91149e-40 3.0406446e-37 1.2271357e-37 2.8719e-40
0002a0 b1 ba 02 00 1f 13 00 00 e4 80 01 00 d2 36 02 00
       2.50643e-40 6.86e-42 1.38073e-40 2.03337e-40
0002b0 34 6f 14 80 bc b2 00 00 11 b6 07 80 f7 41 00 00
       -1.876602e-39 6.4118e-41 -7.08162e-40 2.3664e-41
0002c0 52 83 33 80 fe 08 03 00 50 03 01 00 00 ac 7f 80
       -4.730719e-39 2.78732e-40 9.3024e-41 -1.172481e-38
0002d0 87 83 00 80 68 10 33 02 27 d1 04 00 40 3f 26 02
       -4.7183e-41 1.3155551e-37 4.42372e-40 1.2213906e-37
0002e0 d2 1d 01 00 08 ae 02 80 94 23 23 01 e0 3d 01 80
       1.02533e-40 -2.46102e-40 2.9963898e-38 -1.14032e-40
0002f0 c9 f4 00 00 e9 73 00 00 81 85 07 80 66 7b 01 00
       8.7812e-41 4.1581e-41 -6.9074e-40 1.36103e-40
000300 24 4e 5d 81 5a 39 5a 82 15 a3 04 80 ea da 01 80
       -4.0647352e-38 -1.603257e-37 -4.25845e-40 -1.70367e-40
000310 88 6e 00 00 81 17 25 80 45 e7 03 80 6f 3b 01 80
       3.9651e-41 -3.406345e-39 -3.5847e-40 -1.13156e-40
000320 9e b3 01 80 68 5b 18 01 57 37 1d 80 ab 8c 04 80
       -1.5627e-40 2.7983572e-38 -2.683082e-39 -4.17804e-40
000330 26 06 03 00 86 98 01 80 57 fa 00 80 74 1d 01 00
       2.77712e-40 -1.4655e-40 -8.9805e-41 1.02401e-40
000340 cd 12 02 80 18 91 13 01 40 40 34 82 a8 38 04 00
       -1.90415e-40 2.7103736e-38 -1.324275e-37 3.87666e-40
000350 00 8a f0 00 de 89 03 00 00 95 b0 01 2f 60 06 00
       2.2090024e-38 3.24964e-40 6.4865994e-38 5.85517e-40
000360 d4 84 00 00 68 a7 96 01 24 31 01 00 cc be 05 00
       4.765e-41 5.5341514e-38 1.09464e-40 5.27623e-40
000370 74 11 01 00 92 61 01 00 88 85 26 00 be 8c 04 00
       9.8096e-41 1.26837e-40 3.537651e-39 4.17831e-40
000380 23 05 08 80 85 52 05 80 89 1a 02 00 9e 12 00 00
       -7.36527e-40 -4.8878e-40 1.9319e-40 6.679e-42
000390 0e 1b 03 00 b3 4c 01 00 a3 72 04 00 80 fb 5b 81
       2.85212e-40 1.1935e-40 4.08466e-40 -4.040439e-38
0003a0 99 80 04 00 17 f6 00 00 86 5b 04 00 17 7f 03 80
       4.13474e-40 8.828e-41 4.00174e-40 -3.21098e-40
0003b0 51 86 01 80 a0 9e 3f 02 c0 63 81 81 36 b1 01 80
       -1.40019e-40 1.4077987e-37 -4.753025e-38 -1.55407e-40
0003c0 80 38 2d 01 a4 0c 06 80 b4 81 00 00 ab 06 02 00
       3.1815618e-38 -5.55548e-40 4.6529e-41 1.86063e-40
0003d0 86 4a 01 80 bc d1 01 80 31 59 01 80 21 fb 17 00
       -1.1857e-40 -1.67074e-40 -1.23831e-40 2.202304e-39
0003e0 e7 60 02 80 31 c9 01 80 39 7f 03 00 6d b5 05 00
       -2.18433e-40 -1.6401e-40 3.21145e-40 5.24261e-40
0003f0 93 da 1f 82 00 c1 3e 02 40 09 1d 82 46 cf 01 80
       -1.1744203e-37 1.4014384e-37 -1.1537193e-37 -1.66191e-40

net.1.0.bias f4 [128]
000000 fc 2b 79 3e 61 77 05 a6 3f 06 32 b4 d5 d6 81 b2
       0.24333185 -4.6305433e-16 -1.6579814e-07 -1.511527e-08
000010 cb 82 80 bb 50 63 58 84 aa 11 fd 9f 72 3e 4b 3f
       -0.0039218417 -2.543628e-36 -1.0717889e-19 0.7939216
000020 00 61 a7 3e 71 0d cc ba d6 e8 08 b9 6f cf 2b 3f
       0.32691193 -0.0015567971 -0.00013056709 0.67113394
000030 11 30 f2 b9 d8 76 63 ba 31 a3 55 93 1e f3 26 bb
       -0.0004619365 -0.0008677072 -2.696484e-27 -0.00254745
000040 23 23 bb 3f 5c 97 75 bb 0c 5a 50 b0 dc b0 f2 ba
       1.4620098 -0.003747425 -7.5797923e-10 -0.0018515843
000050 a7 c1 71 bb 8c c5 17 bb 0d 9c 6b bb 05 96 02 bb
       -0.0036889107 -0.0023158519 -0.0035951168 -0.0019925844
000060 96 35 19 ba 56 62 82 bb 4e 47 ef b9 83 b0 80 bb
       -0.0005844472 -0.0039790077 -0.00045638758 -0.003927292
000070 65 2e dd ba b1 56 47 3f 8c 56 8a bb d2 6b b5 ab
       -0.0016874789 0.77866656 -0.004221743 -1.289075e-12
000080 b6 82 01 a6 05 96 08 b6 8a a8 87 ba 31 4d 15 bb
       -4.493301e-16 -2.0352902e-06 -0.0010349911 -0.0022781605
000090 b5 6e 69 9b 73 07 60 3f f2 d3 f9 3e 05 a4 11 bb
       -1.930908e-22 0.87511367 0.48794514 -0.0022223007
0000a0 97 26 12 bb f7 94 4f ba 9d 51 0e b9 39 ee 1e 80
       -0.0022300833 -0.0007918621 -0.00013572579 -2.840523e-39
0000b0 c0 f5 15 ba 89 fd 9c 3e bc 52 48 a9 b3 e5 43 3f
       -0.00057205185 0.30662182 -4.448068e-14 0.7652237
0000c0 ad 8d 5f bb b6 0f 8c 91 a8 9a 23 80 fe cf 87 b6
       -0.0034111545 -2.2097788e-28 -3.269723e-39 -4.047527e-06
0000d0 dd 9c 06 bb 6d 22 9a 3e f8 03 54 bb 69 e8 0d 80
       -0.0020540275 0.3010439 -0.0032350998 -1.277235e-39
0000e0 00 2a 0b bb 7c 8d c0 8f 6c 56 cf b9 aa 22 bc b7
       -0.002123475 -1.898716e-29 -0.00039546506 -2.2427488e-05
0000f0 97 d0 75 3e b5 c2 97 3e c7 af 50 bb 24 6b ea b0
       0.24005352 0.29640737 -0.0031843053 -1.7056192e-09
000100 22 fe 89 ba 68 71 62 b7 72 61 cc 3f d9 60 0c a3
       -0.0010528008 -1.3497054e-05 1.5967238 -7.6099235e-18
000110 16 c2 78 3e 2a 3e 81 ba b1 63 5c bb 60 75 a8 3e
       0.24292788 -0.0009860445 -0.0033628757 0.3290205
000120 b1 e4 87 94 c7 fa c4 b9 58 3e 95 3e 77 76 5d 3f
       -1.372172e-26 -0.00037570877 0.29149127 0.8650889
000130 4d 64 23 bb 94 4f 8d b7 85 b7 32 bb 59 30 ab ba
       -0.002493161 -1.6845566e-05 -0.002727003 -0.0013060673
000140 e3 05 38 ba b2 c6 2e 8c ba ff 69 ba be 08 92 ba
       -0.000701992 -1.3464265e-31 -0.0008926351 -0.0011141521
000150 1f f0 7e bb b4 9d bc 8c a3 16 22 bb a2 03 e1 b9
       -0.0038900448 -2.90609e-31 -0.002473273 -0.0004291805
000160 99 d2 68 3e 64 08 81 ba 5e 3c a8 b9 df de 83 3f
       0.22736587 -0.000984442 -0.00032088434 1.030239
000170 64 11 db ba db 45 33 bb 59 71 3c bb 2a 43 38 bb
       -0.0016713557 -0.002735487 -0.0028754084 -0.0028116205
000180 8e c4 5d bb 12 1e 89 ae 32 d6 7d b0 7c 37 1f 87
       -0.003383908 -6.23538e-11 -9.2345254e-10 -1.1978136e-34
000190 b7 83 6f bb 46 e4 4c bb 6c d2 08 bb 5c de 18 bb
       -0.0036547014 -0.0031263991 -0.0020877374 -0.0023325896
0001a0 68 21 28 ba 2a 96 45 3f 88 2b 55 b8 7f da 7a 99
       -0.00064136693 0.7718226 -5.08237e-05 -1.2968822e-23
0001b0 a6 77 2d b4 da 8b 67 bb f0 c9 bc b7 2f 02 69 bb
       -1.6155408e-07 -0.003533116 -2.2505381e-05 -0.003555428
0001c0 88 cd 1f af 42 bd f7 ba ed d4 2b bb 85 08 6a 3f
       -1.4533985e-10 -0.0018901008 -0.0026219443 0.9141925
0001d0 df 6a 97 3e f5 a8 19 80 a2 9e 09 ba e1 55 1f 3f
       0.29573724 -2.356498e-39 -0.00052497734 0.62240416
0001e0 d9 cf 40 9d 5a f4 ce 9a 4b 02 cc b9 39 2a 4b bb
       -2.5518443e-21 -8.5594374e-23 -0.0003891162 -0.0031000508
0001f0 8a 14 5d 93 06 3d a9 a4 5e 51 88 3e b6 bd 52 bb
       -2.7904248e-27 -7.3395445e-17 0.26624578 -0.0032156534

net.2.0.weight f4 [128, 128]
000000 a0 66 79 c0 4e 40 21 80 2c 90 68 01 2b 19 01 80
       -3.8968887 -3.05364e-39 4.2715108e-38 -1.00864e-40
000010 22 37 48 bb 85 ea 02 00 aa 3a 02 80 5f 63 c1 bd
       -0.003055044 2.67801e-40 -2.04716e-40 -0.09442782
000020 37 b7 09 c0 f4 e7 d4 3a 48 e9 0d 80 9e 78 0c bf
       -2.1518075 0.0016243444 -1.277547e-39 -0.5487155
000030 2d 06 dd 87 9f e0 09 80 10 3f 0d 00 10 e2 0e b4
       -3.3256014e-34 -9.07098e-40 1.216484e-39 -1.3307022e-07
000040 bf 57 6a 3f b4 02 5f 29 36 f8 2b 00 8c 3a 4f 3b
       0.9154014 4.951829e-14 4.037968e-39 0.003162059
000050 a0 0b 3e 02 61 dc 01 34 39 67 5a ba 7f aa b2 3a
       1.3962332e-37 1.2094235e-07 -0.00083314214 0.0013631134
000060 7d b0 42 00 72 a2 12 bb ba f0 e2 81 68 bc 33 80
       6.124455e-39 -0.0022374657 -8.3364714e-38 -4.751198e-39
000070 15 8b e7 ba 46 3f c3 3f 97 70 b3 b9 02 49 89 81
       -0.0017665351 1.5253685 -0.00034225426 -5.0430613e-38
000080 20 d2 07 00 0a fd fd 01 c3 07 bb 31 4e a2 32 82
       7.18227e-40 9.3300615e-38 5.4432987e-09 -1.3123954e-37
000090 55 0b 01 80 91 9a b4 3c 05 c6 83 bf 39 0a 3b bb
       -9.59e-41 0.02204636 -1.0294806 -0.0028540029
0000a0 9d 1e c3 b2 5e 22 17 81 b9 36 00 00 10 8f 06 80
       -2.2714909e-08 -2.7758977e-38 1.9631e-41 -6.02334e-40
0000b0 73 c0 4b 02 c4 08 ea bf dc 25 24 81 56 4d a6 be
       1.4969315e-37 -1.8283925 -3.0149206e-38 -0.32480878
0000c0 fa 9c 18 3b de c6 57 01 a0 7f 12 80 c7 45 21 82
       0.0023286925 3.9631944e-38 -1.698822e-39 -1.1848437e-37
0000d0 0b b0 3d 00 a7 ce 1f c0 d7 a9 27 80 58 48 03 80
       5.665118e-39 -2.496988 -3.642511e-39 -3.01459e-40
0000e0 85 7b 87 36 91 96 08 00 90 ed ca 00 57 55 20 02
       4.037693e-06 7.88697e-40 1.8635992e-38 1.1779435e-37
0000f0 58 92 6b c0 e4 ed 25 c0 bd 2d f5 ba e9 82 10 00
       -3.680807 -2.5926447 -0.0018705648 1.51633e-39
000100 60 c8 9d 80 77 9b 16 00 6a 44 92 3f 06 44 75 0e
       -1.4490054e-38 2.076151e-39 1.1427128 3.0231334e-30
000110 f9 e1 58 c0 7f 30 c5 2f 92 e2 8f 98 ee 5a f5 bf
       -3.3887923 3.586855e-10 -3.719341e-24 -1.9168375
000120 8e 97 44 80 eb e7 0c 23 f2 2c 28 c0 92 be 08 3e
       -6.299181e-39 7.638526e-18 -2.6277432 0.13353947
000130 b5 52 9f 38 7f 07 09 06 8d fe 48 02 f4 81 07 00
       7.597116e-05 2.5772343e-35 1.4766732e-37 6.89467e-40
000140 8d 19 18 39 48 22 9a 00 18 4c d0 af 13 00 44 36
       0.00014505368 1.4154964e-38 -3.7889047e-10 2.920632e-06
000150 77 2d 8a 81 ac 15 3c 81 97 b9 c2 27 6c c8 00 80
       -5.075843e-38 -3.4545695e-38 5.4047034e-15 -7.1898e-41
000160 2a 5c 54 c0 e6 af 45 02 ff d0 35 00 76 a0 c0 3e
       -3.3181252 1.4523755e-37 4.942255e-39 0.37622422
000170 cb 6f 14 3b b5 20 5a ba 40 13 23 00 03 08 d0 3a
       0.0022649642 -0.0008320914 3.221148e-39 0.0015871528
000180 5b 6f cd 1c 6a ed 12 00 38 9a 30 81 df 65 15 00
       1.3594547e-21 1.738207e-39 -3.243674e-38 1.96509e-39
000190 20 f4 17 bb 1a 27 3c a5 02 29 78 b1 7b 16 82 bb
       -0.0023186281 -1.6319649e-16 -3.611206e-09 -0.003969965
0001a0 62 41 02 80 c9 0c 9a be 4e 82 29 00 26 ff 02 00
       -2.07126e-40 -0.3008788 3.812e-39 2.75201e-40
0001b0 88 00 5a 02 16 ea 18 80 a9 59 0e 00 59 d3 14 80
       1.6016263e-37 -2.288026e-39 1.317861e-39 -1.912527e-39
0001c0 3c d1 01 80 ed 3a 5d b1 23 65 26 00 7d 97 a8 3d
       -1.66895e-40 -3.2193228e-09 3.52603e-39 0.08232019
0001d0 3c a2 1f c0 cc 65 0f 00 67 1b 08 80 5e 57 2f bf
       -2.494277 1.41405e-39 -7.44514e-40 -0.68492687
0001e0 be 94 14 00 68 bc 42 00 0a bb 1b 9a 17 e5 33 80
       1.890069e-39 6.12873e-39 -3.2204338e-23 -4.765792e-39
0001f0 80 1d 45 80 8e 41 9d 01 a7 1b 37 c0 9a ba 16 00
       -6.347232e-39 5.776676e-38 -2.8610628 2.087321e-39
000200 7f bc 11 80 67 ef 01 00 3b 79 05 00 92 67 01 80
       -1.628823e-39 1.77717e-40 5.02667e-40 -1.2899e-40
000210 80 3c 54 01 c0 e7 97 01 54 1e af 02 4c 61 3f 80
       3.8981657e-38 5.5801185e-38 2.5731346e-37 -5.82054e-39
000220 71 16 41 00 e0 93 0b 02 fc 87 03 00 67 11 2f 80
       5.977358e-39 1.0254545e-37 3.24288e-40 -4.322511e-39
000230 00 88 34 00 40 d9 5d 00 20 f5 10 81 c0 78 ba 81
       4.824233e-39 8.618636e-39 -2.6624491e-38 -6.8498877e-38
000240 61 c8 40 00 a9 e7 33 02 ac 8e 01 80 00 0e c7 80
       5.949354e-39 1.3217326e-37 -1.43017e-40 -1.8280286e-38
000250 f8 ca 00 80 48 97 aa 81 20 26 23 02 f8 64 bf 81
       -7.2811e-41 -6.2665215e-38 1.198629e-37 -7.03072e-38
000260 f6 11 01 00 07 d2 05 00 5f ec 04 00 80 b4 dd 02
       9.8279e-41 5.34521e-40 4.52136e-40 3.2576633e-37
000270 80 0d 73 02 9f 4b 0d 80 10 28 01 80 1f ec 02 80
       1.7856695e-37 -1.220989e-39 -1.06207e-40 -2.68375e-40
000280 f0 d2 0e 00 de 51 04 80 80 bb 5a 01 a0 f8 3e 82
       1.361367e-39 -3.9671e-40 4.01748e-38 -1.4030347e-37
000290 49 48 02 80 42 00 25 80 74 95 08 00 2c 64 01 80
       -2.09602e-40 -3.398006e-39 7.88298e-40 -1.2777e-40
0002a0 a0 76 1d 02 00 6b 46 00 00 56 01 80 80 d6 25 81
       1.1568582e-37 6.466869e-39 -1.22686e-40 -3.045961e-38
0002b0 13 65 02 00 1c 53 36 00 80 51 26 01 b2 4f 47 80
       2.1993e-40 4.988931e-39 3.0547858e-38 -6.54891e-39
0002c0 b0 29 17 00 74 db 01 00 d0 04 43 00 00 ee 59 81
       2.127171e-39 1.7056e-40 6.154705e-39 -4.0027362e-38
0002d0 00 ab 2a 82 70 48 2b 00 6d bf 05 80 b6 a3 03 80
       -1.2538702e-37 3.974912e-39 -5.27848e-40 -3.34235e-40
0002e0 e5 68 00 00 36 d9 08 80 00 30 05 80 00 fa 55 80
       3.7629e-41 -8.12605e-40 -4.76397e-40 -7.8957e-39
0002f0 78 a9 01 00 05 57 2b 00 e9 cb 06 00 00 8e 94 81
       1.5263e-40 3.980143e-39 6.24162e-40 -5.4570374e-38
000300 e9 44 00 80 b5 1e 00 80 f1 a3 02 00 71 9e 00 00
       -2.472e-41 -1.1016e-41 2.42482e-40 5.6838e-41
000310 a7 da 01 00 e0 33 02 80 00 6e a1 01 3a 67 31 00
       1.70273e-40 -2.0228e-40 5.92999e-38 4.53697e-39
000320 d8 07 00 80 b9 ef 22 82 9c 74 19 00 76 fb 2b 80
       -2.814e-42 -1.1970677e-37 2.337719e-39 -4.039134e-39
000330 d0 69 3f 02 2c 20 1e 02 00 e5 b3 81 80 12 56 81
       1.406283e-37 1.161724e-37 -6.6082814e-38 -3.9318865e-38
000340 8d a0 00 82 a0 eb 1b 02 a7 eb 0a 80 00 b3 92 81
       -9.450031e-38 1.1455223e-37 -1.002891e-39 -5.388878e-38
000350 70 85 d3 80 00 b4 e0 81 3a 84 04 00 46 c3 03 00
       -1.9425158e-38 -8.254289e-38 4.14776e-40 3.45557e-40
000360 72 74 20 80 bc 1c 87 01 20 1f 3e 82 f0 ab 08 80
       -2.980509e-39 4.96324e-38 -1.3967928e-37 -7.96364e-40
000370 dd a6 02 80 f9 1e 1c 80 cd 17 05 80 52 08 06 00
       -2.4353e-40 -2.582505e-39 -4.67716e-40 5.53998e-40
000380 4f 42 01 80 a2 53 03 00 20 8f 5c 02 fc 1d 01 00
       -1.15623e-40 3.05508e-40 1.6204122e-37 1.02592e-40
000390 75 7c 01 00 78 67 d1 01 ed 1b 77 82 db 7f 04 00
       1.36482e-40 7.6922945e-38 -1.8154708e-37 4.13208e-40
0003a0 ee 16 03 00 24 a7 3d 80 c0 da 26 82 30 df 1a 00
       2.83732e-40 -5.661924e-39 -1.2258532e-37 2.467787e-39
0003b0 68 97 00 00 20 45 18 02 a9 18 01 80 0d 1a 02 80
       5.4314e-41 1.1187034e-37 -1.00682e-40 -1.93016e-40
0003c0 00 08 00 80 50 d5 4b 02 40 80 ed 81 0f 15 1f 80
       -2.87e-42 1.4975302e-37 -8.724408e-38 -2.854455e-39
0003d0 e0 36 04 00 72 54 03 00 80 cb 51 82 5e f3 26 80
       3.87027e-40 3.058e-40 -1.5413297e-37 -3.577053e-39
0003e0 12 21 04 00 6d d8 06 00 04 04 00 00 c9 48 04 80
       3.79205e-40 6.28652e-40 1.44e-42 -3.93452e-40
0003f0 1c 0a 01 80 00 93 13 02 e6 4b 1d 00 23 09 01 00
       -9.5462e-41 1.0842041e-37 2.690457e-39 9.5113e-41

net.2.0.bias f4 [128]
000000 ef 1d 93 3f e2 85 0e 00 7b 39 1a 00 c5 f3 0f 80
       1.149351 1.333725e-39 2.408343e-39 -1.46498e-39
000010 10 d2 08 80 fe d5 96 3f 15 17 00 80 27 f9 04 00
       -8.1004e-40 1.1784055 -8.28e-42 4.56721e-40
000020 06 32 99 3f 5f 4f 06 00 97 89 94 3f dd f1 99 3f
       1.1968391 5.79486e-40 1.1604489 1.2026936
000030 95 2b 1d 80 ce 62 9a 3f f6 b6 18 80 20 26 05 00
       -2.678864e-39 1.2061403 -2.269686e-39 4.72854e-40
000040 01 9d 1f 00 9b c6 0c 80 ba 90 0e 80 88 96 0e 00
       2.903223e-39 -1.173272e-39 -1.337615e-39 1.339697e-39
000050 ae 17 20 b8 50 d1 98 3f c5 99 0d 80 cd af 20 00
       -3.8169026e-05 1.1938877 -1.249024e-39 3.001801e-39
000060 1c 40 1e 80 7f 87 13 af f3 2a 0b 80 ef d6 1e 80
       -2.778063e-39 -1.341771e-10 -1.025598e-39 -2.832169e-39
000070 5e d6 94 3f 17 95 03 00 cb 9a 1d 80 13 00 9b 3f
       1.162792 3.2899e-40 -2.718759e-39 1.2109398
000080 65 a3 89 3f 3e d4 1b 80 c1 de 16 80 b8 40 6a b9
       1.0752989 -2.555697e-39 -2.10029e-39 -0.00022340089
000090 4d 1c a4 3f 1c 6a 05 00 74 7d 90 3f c7 c7 9b 3f
       1.2821137 4.97242e-40 1.1288285 1.2170342
0000a0 8c 9a 88 ad ab ca 14 80 d5 5e 16 80 8d a1 8d 3f
       -1.5530043e-11 -1.909413e-39 -2.0544e-39 1.1064926
0000b0 fc de c4 a3 ab 32 23 bb e5 fd 18 80 36 88 a7 3f
       -2.13448e-17 -0.0024902027 -2.295132e-39 1.3088443
0000c0 55 84 07 ba 5b 66 1b b4 37 0d 0b b8 63 79 0c 00
       -0.00051695603 -1.4472737e-07 -3.315249e-05 1.145571e-39
0000d0 c3 9f 02 80 dd 85 99 3f a2 28 51 ba 00 9f 02 80
       -2.40983e-40 1.1993977 -0.0007978772 -2.4071e-40
0000e0 1d 68 16 80 51 16 01 80 51 18 04 80 de f8 a0 00
       -2.05773e-39 -9.9841e-41 -3.76065e-40 1.4782956e-38
0000f0 0e b6 00 80 b8 e2 8a 3f 78 d8 90 3f dc f8 48 00
       -6.5309e-41 1.0850439 1.1316061 6.70143e-39
000100 a7 f7 0d 00 4e f7 a0 3f 33 ad 8c 3f f3 8d a9 3f
       1.282702e-39 1.2575471 1.0990356 1.3246444
000110 e7 9a 9b 3f 17 41 91 3f c7 5f ef ba 2c 85 31 00
       1.2156647 1.1347989 -0.0018262797 4.547712e-39
000120 39 e0 02 00 a4 70 1d 80 9f 18 16 00 32 42 8f 3f
       2.64107e-40 -2.703637e-39 2.029213e-39 1.1192076
000130 24 40 9c 3f 38 91 01 80 1b db 03 80 66 f7 05 00
       1.2207074 -1.4393e-40 -3.54107e-40 5.47927e-40
000140 ad 7e 0d 80 e2 34 95 3f 70 bc 78 3f 9a b8 1a 00
       -1.239304e-39 1.1656764 0.9716253 2.453945e-39
000150 a2 82 dc 91 35 57 fd 04 51 62 a2 3f f8 6c 28 00
       -3.4790389e-28 5.95601e-36 1.2686254 3.71251e-39
000160 1f a0 04 00 93 7e 00 80 68 b7 08 ab f5 0f 72 3f
       4.24783e-40 -4.5406e-41 -4.8571433e-13 0.945556
000170 c1 95 76 ab 10 3f 0f 80 86 e3 00 00 90 d2 8d 3f
       -8.760458e-13 -1.400155e-39 8.162e-41 1.1079884
000180 98 9d 24 a0 bb d9 1f 00 c3 4a a5 3f c5 8f 45 b1
       -1.3943484e-19 2.925007e-39 1.291344 -2.8748997e-09
000190 dd ec 04 00 e0 0e 0b 00 c8 2d 1b 80 e2 a3 2e bb
       4.52313e-40 1.015527e-39 -2.495982e-39 -0.0026647975
0001a0 2b 73 15 80 e0 75 05 00 9c cb 9f 3f 6e 84 97 3f
       -1.96986e-39 5.01463e-40 1.2484012 1.1837289
0001b0 74 51 9d 3f 97 9a 98 3f d5 1e 8c 3f 4a 6f 9c 3f
       1.2290483 1.1922177 1.0946909 1.2221463
0001c0 d6 39 9a 3f c4 0a 94 3f b3 93 2a 80 17 77 0b 80
       1.20489 1.1565785 -3.910075e-39 -1.052912e-39
0001d0 33 16 8f 3f de 26 9d 3f 36 ff 99 3f fc c4 dc 9e
       1.117865 1.2277486 1.2031009 -2.3374877e-20
0001e0 f0 97 27 00 f6 4c 19 80 a9 2f 05 80 68 2a 02 80
       3.636089e-39 -2.323496e-39 -4.76275e-40 -1.98883e-40
0001f0 43 75 8c 3f c6 76 8c 3f 63 c8 98 3f 6c 42 2e 00
       1.0973285 1.0973747 1.1936153 4.24826e-39

net.3.0.weight f4 [128, 128]
000000 3e cf 1a 00 c6 62 04 80 e2 df bb 81 68 10 b3 01
       2.462067e-39 -4.02775e-40 -6.901421e-38 6.5777757e-38
000010 e8 5f b7 81 70 a8 1a 00 9a 62 12 82 e1 d8 00 80
       -6.73612e-38 2.448147e-39 -1.0754683e-37 -7.7801e-41
000020 00 36 e7 96 65 1b 30 02 65 69 1b 00 20 3c c6 97
       -3.7354142e-25 1.29383e-37 2.517367e-39 -1.2810628e-24
000030 60 42 04 80 fe e4 73 97 3d cd 03 00 b1 40 04 00
       -3.91153e-40 -7.8806563e-25 3.49132e-40 3.90549e-40
000040 d5 ef 00 80 87 2a 03 80 90 19 7f 00 0b f0 03 80
       -8.6036e-41 -2.90762e-40 1.1672278e-38 -3.61618e-40
000050 f6 44 04 80 46 65 ae 95 25 5a 06 80 60 44 3f 02
       -3.9208e-40 -7.043782e-26 -5.83351e-40 1.4052086e-37
000060 18 77 01 80 23 34 1f 80 38 9f 07 80 80 bc 66 01
       -1.34558e-40 -2.865604e-39 -6.99965e-40 4.237957e-38
000070 75 bf 1b 00 70 b9 be 82 c0 bd b2 81 e2 eb 0f 96
       2.54824e-39 -2.8024427e-37 -6.565915e-38 -1.162588e-25
000080 b6 ae 1a 00 19 9c 04 80 80 8c 55 02 40 9d ab 81
       2.450397e-39 -4.23339e-40 1.568909e-37 -6.304112e-38
000090 ae b5 b3 97 29 c9 01 00 3a 2c 11 00 3c 59 29 96
       -1.1613466e-24 1.63998e-40 1.577069e-39 -1.3679869e-25
0000a0 dd 4f 18 02 1b 19 03 00 fd 97 00 80 ae 07 17 00
       1.1190116e-37 2.84513e-40 -5.4523e-41 2.114971e-39
0000b0 20 ec 3d 02 9d b0 05 80 f4 2f 01 80 e2 c5 c1 97
       1.3953292e-37 -5.22534e-40 -1.09038e-40 -1.2522285e-24
0000c0 80 f9 01 80 80 79 2e 81 48 72 67 00 b2 41 06 00
       -1.81339e-40 -3.2045925e-38 9.500052e-39 5.7458e-40
0000d0 77 0a 07 80 e6 f7 8d 96 34 a9 d9 01 92 6f 06 00
       -6.46603e-40 -2.2936224e-25 7.9956005e-38 5.91037e-40
0000e0 96 32 01 80 e0 f6 44 80 69 e4 04 80 c8 44 9a 01
       -1.09982e-40 -6.333376e-39 -4.4928e-40 5.666936e-38
0000f0 f9 e8 00 80 11 12 1c 00 8c 92 a4 97 60 32 b7 01
       -8.3575e-41 2.577875e-39 -1.0635245e-24 6.729587e-38
000100 40 a4 2c 02 4b e7 5b 97 ed 3a d4 97 10 0d 47 98
       1.2683702e-37 -7.105465e-25 -1.3715054e-24 -2.5726742e-24
000110 fe 3d be 96 a0 b4 13 00 fc 95 6e 01 dc 35 8f 01
       -3.0735278e-25 1.80967e-39 4.3821305e-38 5.260719e-38
000120 e0 f9 11 82 2b 66 29 02 1f d9 05 00 89 f1 23 00
       -1.0724628e-37 1.244548e-37 5.37066e-40 3.300889e-39
000130 fa 38 fb 97 1c 6b 00 80 50 63 01 00 b0 30 cd 01
       -1.6234878e-24 -3.8424e-41 1.27462e-40 7.537497e-38
000140 4c fb 3b 80 b5 7c 15 00 c8 a8 0f 00 20 18 13 82
       -5.508443e-39 1.973282e-39 1.43808e-39 -1.0806778e-37
000150 f3 57 01 00 35 f7 00 80 58 bc 18 97 00 4a 43 00
       1.23386e-40 -8.8681e-41 -4.935157e-25 6.179524e-39
000160 32 ae 30 80 23 6e 01 80 16 a8 01 80 fa 9d 5b 91
       -4.470593e-39 -1.31345e-40 -1.52133e-40 -1.7324734e-28
000170 18 8e ab 00 9e 29 02 80 18 03 c4 80 b1 7b 54 97
       1.5754843e-38 -1.986e-40 -1.8000867e-38 -6.8657015e-25
000180 60 4e 0c 82 60 5a 13 82 6a a0 13 97 80 ef 77 01
       -1.0308068e-37 -1.0825791e-37 -4.7700733e-25 4.5538568e-38
000190 5f d5 06 80 63 12 01 80 e6 da 00 00 88 c8 c8 81
       -6.27556e-40 -9.8431e-41 7.8526e-41 -7.3756145e-38
0001a0 f8 ea 49 82 6f 70 1a 80 ba d3 95 97 ee 66 2d 97
       -1.483458e-37 -2.428056e-39 -9.682347e-25 -5.602923e-25
0001b0 15 56 72 97 ec 86 4a 97 e9 5a 19 00 44 25 a3 96
       -7.830307e-25 -6.5440016e-25 2.3285e-39 -2.6357588e-25
0001c0 b7 f4 42 96 50 b3 d4 97 20 b1 15 02 f5 11 00 00
       -1.5748414e-25 -1.3745444e-24 1.0997624e-37 6.442e-42
0001d0 ae 7e 14 97 f5 a2 c1 97 f2 5f 3b 00 13 51 12 80
       -4.798127e-25 -1.2513469e-24 5.452713e-39 -1.682123e-39
0001e0 15 7f 01 00 0b 87 06 80 3c 5b 01 00 ac 90 00 80
       1.37424e-40 -5.99457e-40 1.24564e-40 -5.1898e-41
0001f0 ed 80 12 00 8d dc 1a 00 0d 3a 20 00 f4 45 02 80
       1.699289e-39 2.466842e-39 2.95956e-39 -2.08765e-40
000200 70 03 74 c0 27 b8 04 00 20 46 20 00 7c 1b 01 00
       -3.8127098 4.33403e-40 2.963892e-39 1.01695e-40
000210 4f b1 02 80 dd d6 7a c0 e6 2b 02 80 a3 b2 09 00
       -2.47277e-40 -3.9193642 -1.99419e-40 8.90602e-40
000220 ad 07 71 3f f9 66 03 00 ba 21 7c c0 fc 50 70 3f
       0.9415234 3.12446e-40 -3.9395585 0.9387357
000230 1f 41 41 80 fb 2f 62 3f a4 25 1d 80 9c e0 05 00
       -5.992668e-39 0.8835446 -2.676732e-39 5.39752e-40
000240 81 19 0f 00 86 5e 16 00 69 7c 09 00 f3 8c 45 00
       1.386682e-39 2.05429e-39 8.7115e-40 6.387212e-39
000250 7c a4 8c b5 58 46 5f 3f fb 26 04 80 c6 12 37 00
       -1.0478684e-06 0.8721671 -3.81326e-40 5.057687e-39
000260 f6 a5 03 80 93 8c 38 00 13 6d 0c 00 49 13 03 00
       -3.35042e-40 5.193216e-39 1.141154e-39 2.82425e-40
000270 b7 dc 6f c0 e3 5b 1e 00 4e 7b 13 80 27 3f 6e 3f
       -3.7478464 2.788028e-39 -1.789108e-39 0.9306511
000280 9a 9d 63 c0 d5 48 08 80 7b 4e 31 00 eb dc 9c 32
       -3.5564942 -7.60811e-40 4.528093e-39 1.8261252e-08
000290 39 41 5f 3f 00 b9 05 80 ce 99 7b c0 63 71 6e 3f
       0.87208897 -5.25543e-40 -3.9312625 0.93141764
0002a0 a1 c5 12 00 01 35 11 80 55 d8 0f 80 b0 a1 6c c0
       1.723935e-39 -1.580218e-39 -1.455138e-39 -3.6973686
0002b0 ce a3 04 00 db c3 28 bb e2 06 0c 80 7d 3e 5a 3f
       4.26104e-40 -0.0025751505 -1.104495e-39 0.852516
0002c0 32 2e d3 b9 b6 36 96 1c fc 23 25 30 4d e9 42 80
       -0.00040279474 9.94031e-22 6.0077787e-10 -6.144835e-39
0002d0 23 1f 00 80 85 4c 6f 3f 33 4e c5 b9 aa 5c 03 80
       -1.117e-41 0.93476135 -0.0003763303 -3.08748e-40
0002e0 e5 9c 14 00 df 7e 10 80 23 a4 02 00 22 28 02 80
       1.892993e-39 -1.514881e-39 2.42552e-40 -1.98068e-40
0002f0 7f 1f 31 00 f8 df 74 c0 db b1 73 3f e4 ee 36 80
       4.511238e-39 -3.82617 0.9519326 -5.044815e-39
000300 c8 40 17 00 63 e4 57 3f 69 5a 74 3f 5b 45 5e 3f
       2.135456e-39 0.84332865 0.95450455 0.8682458
000310 24 a7 55 3f ba 0a 80 c0 f1 f6 e1 b7 cf 04 47 80
       0.8345816 -4.0013094 -2.6937081e-05 -6.522045e-39
000320 1e 74 09 00 13 9c 02 00 15 6d 28 00 a1 01 6c c0
       8.68174e-40 2.3966e-40 3.712551e-39 -3.6875994
000330 59 5c 69 3f fa dd 14 80 95 44 19 80 6c af 06 80
       0.91156536 -1.91634e-39 -2.32049e-39 -6.13942e-40
000340 a8 3e 09 80 a6 d1 79 c0 3e 61 6b c0 35 8a 3a 00
       -8.48996e-40 -3.903421 -3.6778102 5.376038e-39
000350 62 8b 27 10 fb 4d 01 80 97 dd 4c 3f e7 21 18 80
       3.304232e-29 -1.1981e-40 0.8002562 -2.216214e-39
000360 ed de 41 80 e3 b7 0c 00 1e 8b 03 80 92 f0 61 3f
       -6.049278e-39 1.167992e-39 -3.25412e-40 0.88257706
000370 b6 68 26 29 d0 be 05 80 f4 d9 34 80 f3 b8 72 3f
       3.6950227e-14 -5.27628e-40 -4.853633e-39 0.9481346
000380 08 2d 0c 00 f1 6a 0b 80 e8 de 69 3f ef a0 14 33
       1.11818e-39 -1.048554e-39 0.9135575 3.4605304e-08
000390 0b 21 17 00 61 fd 0c 80 5b 46 06 00 66 ea a6 ba
       2.12407e-39 -1.192921e-39 5.76252e-40 -0.0012734651
0003a0 07 30 14 80 9f 5c 21 00 07 db 61 3f 22 8d 71 3f
       -1.853939e-39 3.063798e-39 0.88224834 0.94355977
0003b0 77 1c 71 3f 74 95 6f 3f 7a 06 6d c0 51 64 62 3f
       0.9418406 0.9358742 -3.7035203 0.8843432
0003c0 41 f7 4b 3f 14 bb 72 3f 04 a8 7f 01 3d 1f 08 80
       0.79674155 0.9481671 4.6956648e-38 -7.4589e-40
0003d0 17 93 75 3f b7 61 4e 3f 34 55 50 c0 29 fc 03 00
       0.95927566 0.8061785 -3.2552004 3.65965e-40
0003e0 1a 33 04 80 f2 26 0e 80 67 37 0a 00 85 31 09 00
       -3.85674e-40 -1.299668e-39 9.3823e-40 8.44284e-40
0003f0 9a 58 73 c0 99 a0 77 c0 9f 1d 64 c0 84 e6 1a 00
       -3.8022828 -3.869177 -3.564308 2.470416e-39

net.3.0.bias f4 [128]
000000 a4 b7 0d 80 d5 4d 46 3f 95 ac a7 3f 64 a9 44 3f
       -1.259739e-39 0.7746251 1.3099543 0.7682097
000010 4f a4 0f 3f 4d 28 9d 3f 51 07 0f 80 94 e3 08 80
       0.5611009 1.2277924 -1.380157e-39 -8.16324e-40
000020 d6 db de a5 7f 77 9a b6 8c d8 2e ba 8e 28 9f 3f
       -3.8659828e-16 -4.603469e-06 -0.0006669841 1.2434251
000030 70 96 7c 3f 3e b4 a7 3f 21 e1 81 3e b5 ec 48 b8
       0.9866705 1.310188 0.25367072 -4.7904166e-05
000040 45 8a 49 b7 98 2d 58 b6 07 ee 3a ad 6e 92 d0 ba
       -1.2012727e-05 -3.2213047e-06 -1.0625729e-11 -0.001591278
000050 95 14 6c a9 07 63 55 b5 64 ca 8b bb a5 ff 06 80
       -5.242038e-14 -7.9492787e-07 -0.00426607 -6.42721e-40
000060 a6 69 95 3e a0 ad 0b 80 55 1b 0f 80 e8 6f 1e ae
       0.29182166 -1.072475e-39 -1.387337e-39 -3.6024433e-11
000070 75 7f 88 b7 57 eb 11 80 af e6 12 bb cd 51 0e 80
       -1.6271815e-05 -1.645627e-39 -0.002241533 -1.315042e-39
000080 8f 68 61 9f cc 5a 9d 3f a8 08 99 3f c9 45 de b7
       -4.7732092e-20 1.2293334 1.1955767 -2.6496959e-05
000090 15 62 05 80 9b 14 a3 3e e5 f6 03 80 6d 5b 88 bb
       -4.94363e-40 0.31851658 -3.64076e-40 -0.0041612894
0000a0 ca 9b 99 3f 14 a9 86 9e a6 11 46 80 c1 5c 3d bb
       1.2000668 -1.4257731e-20 -6.434816e-39 -0.0028894397
0000b0 13 e0 91 3f bd ca a5 3f fe 2a 97 3f 3e e8 96 3f
       1.1396507 1.2952496 1.1809995 1.1789625
0000c0 98 2e 9c 3f bf d8 02 b8 34 03 92 3f ee 00 09 80
       1.2201719 -3.1196276e-05 1.1407228 -8.26853e-40
0000d0 54 fb bb b7 83 b8 30 80 f4 ac 82 bb 83 e3 70 bb
       -2.2409171e-05 -4.474294e-39 -0.003987903 -0.0036756701
0000e0 b4 0b 0d 80 38 0a 1c 80 a3 ea 06 80 f6 a5 2a 26
       -1.19806e-39 -2.57506e-39 -6.35185e-40 5.9205517e-16
0000f0 3d ba 7f 3f 02 3b 44 3f 01 2f ad bb 01 5f a4 3f
       0.9989355 0.7665254 -0.0052851443 1.2841493
000100 a8 77 9a 3f f1 0d 59 3f 3d ef a9 3f b1 1d 17 80
       1.2067766 0.847869 1.3276135 -2.122868e-39
000110 a8 a0 59 ba 5b 09 0e 80 1a 15 99 3f 54 ec a9 ba
       -0.0008301833 -1.289053e-39 1.1959565 -0.0012964108
000120 cc 1f 59 3f 4c 34 ae 3e 57 cf 3a 3f 9c 63 0f 80
       0.84814143 0.34024274 0.72972625 -1.413266e-39
000130 3a 63 a7 ba 48 ea 04 00 ab 61 6b ba ba 0e ad 3f
       -0.0012770661 4.51386e-40 -0.0008979092 1.3520119
000140 25 d9 9d a0 fc 7f 8a ba 3e e5 b3 b9 fe 87 10 80
       -2.674053e-19 -0.0010566707 -0.0003431234 -1.518153e-39
000150 f3 fc 94 9d 48 a5 4b 02 e5 ad 10 80 a9 38 4b bb
       -3.9436817e-21 1.4961518e-37 -1.53175e-39 -0.0031009114
000160 2c 0c 38 3f 2d 05 42 3f 19 7d 02 00 a3 1c c2 b6
       0.7189357 0.7578915 2.28548e-40 -5.7849843e-06
000170 b4 69 8a 3f f6 1f 3a 3f c4 b9 06 b8 b0 b7 a9 bb
       1.0813508 0.7270502 -3.2121097e-05 -0.005179368
000180 5f 56 16 3f 1f 28 06 80 28 70 78 ba 4c 57 0e 80
       0.5872554 -5.65406e-40 -0.0009477162 -1.317013e-39
000190 7b 3f 9a 3f c4 ad 43 3f c6 9c a0 8f ab 18 7a 3f
       1.2050623 0.7643702 -1.5837605e-29 0.9769389
0001a0 5a 4d a6 3f 4f b8 0a 80 23 24 a0 3f 93 30 02 00
       1.2992356 -9.84472e-40 1.2511028 2.01096e-40
0001b0 86 89 39 80 3d 6c 9f 3f f0 f2 98 3e 2a 8a 14 80
       -5.283957e-39 1.2454907 0.29872847 -1.886274e-39
0001c0 c7 6e a4 3f e6 dd c9 bb 05 38 0a 80 4d c2 ae 3f
       1.2846307 -0.0061604856 -9.38451e-40 1.3653046
0001d0 6c 49 9f 3e e7 18 a3 3f d5 3c a5 3f 02 1c 0e a0
       0.31110704 1.2741975 1.290919 -1.2037135e-19
0001e0 a1 57 04 80 58 30 1d b6 f6 8e 4b 3e 68 8b 49 3f
       -3.98777e-40 -2.3422963e-06 0.19878754 0.7872834
0001f0 e0 4d 67 a0 80 4d 99 3f f0 81 7e b6 bb 9e ad 3f
       -1.9592228e-19 1.1976776 -3.7924583e-06 1.3564066
