swarm/minimax/model_0.25_relaxation/Q-100046.pth (torch, 338387 bytes, 10 tensors)

net.0.0.weight f4 [128, 8]
-5.944745e-39 6.78235e-40 2.144029e-39 -5.58547e-39 -5.503743e-39 -1.06281e-40 -2.565632e-39 5.03442e-40
-4.37471e-40 1.18995e-40 6.66947e-40 -1.45308e-40 1.486001e-39 1.280383e-39 9.0999e-41 -1.710182e-39
-3.598837e-39 5.049171e-39 1.267714e-39 -5.413081e-39 -2.791593e-39 2.913382e-39 2.155292e-39 -8.24974e-40
0.1079151 0.18195595 0.1569657 0.17315009 0.14423923 0.07791581 0.15135874 0.1308047
-3.508658e-39 -1.008283e-39 4.322772e-39 -6.183395e-39 -6.83681e-39 4.410552e-39 -6.436373e-39 4.47906e-39
0.16583134 0.15501752 0.08232978 0.1391301 0.19137385 0.14525127 0.105899915 0.13466427
0.09633467 0.123130776 0.16158353 0.07629937 0.1319899 0.16667163 0.16459082 0.08627609
0.11739826 0.09724313 0.09723252 0.067310646 0.1309539 0.112976454 0.11907967 0.11593004
-5.051439e-39 -6.437862e-39 -4.459264e-39 -3.300537e-39 -3.668923e-39 -5.757633e-39 -6.514108e-39 -2.663734e-39
-2.297506e-39 1.51323e-39 -2.075512e-39 -5.793652e-39 -1.644813e-39 -4.04409e-40 -2.81506e-39 2.069474e-39
-6.241252e-39 -1.930127e-39 -6.237125e-39 -6.56157e-40 -2.44569e-39 3.363129e-39 2.72875e-40 -1.444889e-39
0.079566844 0.08424373 0.08312863 0.07923719 0.07814521 0.0795099 0.084096275 0.08199953
2.91222e-40 4.749546e-39 -2.578629e-39 4.501442e-39 -5.69252e-39 2.4853e-41 -2.507675e-39 -2.625155e-39
-5.313079e-39 -5.274968e-39 -2.181855e-39 1.728443e-39 -7.18037e-40 -5.319692e-39 3.791709e-39 3.057301e-39
-1.84956e-40 -6.638155e-39 -4.88902e-40 2.053962e-39 -6.622147e-39 -6.272335e-39 1.386979e-39 -4.63601e-39
0.079478815 0.09224039 0.09294473 0.15709636 0.12202275 0.12177543 0.1550246 0.07934232
-2.629005e-39 3.671622e-39 1.631413e-39 2.610045e-39 2.750233e-39 -3.12396e-40 5.50462e-40 -3.740054e-39
0.1064966 0.15361576 0.12662916 0.11151602 0.13645823 0.091156185 0.17170809 0.08778074
1.345535e-39 3.781038e-39 -4.12408e-40 1.678275e-39 3.493148e-39 5.15718e-40 -1.953844e-39 2.092857e-39
-2.028263e-39 3.19867e-40 1.04774e-40 -4.60652e-39 2.837893e-39 -6.010042e-39 1.266447e-39 -1.603048e-39
0.14936124 0.08149772 0.17989181 0.19258393 0.08137826 0.061261103 0.14765108 0.19246721
0.06598924 0.06676659 0.06965023 0.06384548 0.06564939 0.06629857 0.06769413 0.065784946
0.14206405 0.1978426 0.102643564 0.16651003 0.15499245 0.12983747 0.12970899 0.07902651
0.1562832 0.10265526 0.2124241 0.15427944 0.15956058 0.20082909 0.13759863 0.11008077
-4.946897e-39 -4.67267e-39 -1.96184e-39 -4.532629e-39 -6.294043e-39 -3.360611e-39 1.18477e-40 -6.167775e-39
0.07970421 0.09486422 0.11829948 0.096955754 0.0821683 0.10940131 0.082992435 0.11199501
0.07882467 0.10742603 0.120968774 0.11585529 0.10151511 0.10461995 0.090008296 0.08704898
-5.904476e-39 1.00573e-39 -4.968636e-39 -3.237608e-39 -8.10675e-40 -1.726771e-39 1.225273e-39 4.716385e-39
0.10661048 0.156269 0.16339116 0.060027502 0.11152889 0.18145047 0.14966224 0.09566889
0.1785705 0.07744454 0.14650507 0.13774158 0.13485889 0.18634851 0.15163516 0.092986465
-6.050043e-39 5.749724e-39 -2.586479e-39 -7.32208e-40 -1.653059e-39 -6.674711e-39 -5.316482e-39 2.032984e-39
0.06942267 0.07301938 0.069979616 0.06780905 0.06642986 0.07243734 0.06931301 0.06613863
00000000: 88bb 4080 a562 0700 ae58 1700 05d2 3c80
00000010: 32ee 3b80 4528 0180 f0ef 1b80 647b 0500
00000020: 7ec3 0480 b64b 0100 2d43 0700 0f95 0180
00000030: 5e2e 1000 30f1 0d00 abfd 0000 4b9f 1280
00000040: 1830 2780 09fb 3600 dfcd 0d00 78f1 3a80
00000050: d365 1e80 53b9 1f00 1478 1700 b1fb 0880
00000060: 9802 dd3d a952 3a3e 9ebb 203e 424e 313e
00000070: 73b3 133e 5392 9f3d c9fd 1a3e abf1 053e
00000080: b634 2680 affa 0a80 2112 2f00 ca54 4380
00000090: 3f72 4a80 d306 3000 fd15 4680 ccc5 3000
000000a0: b1cf 293e eabc 1e3e 849c a83d 1f78 0e3e
000000b0: 82f7 433e c0bc 143e 0ee2 d83d 6ee5 093e
000000c0: 1d4b c53d fd2b fc3d 2776 253e d842 9c3d
000000d0: 5c28 073e f8ab 2a3e 7f8a 283e 85b1 b03d
000000e0: 806e f03d 6827 c73d d821 c73d 2ada 893d
000000f0: c718 063e 3360 e73d 0be0 f33d bb6c ed3d
00000100: 5b01 3780 241a 4680 9d8e 3080 8ef0 2380
00000110: 77f3 2780 f0b1 3e80 afee 4680 6801 1d80
00000120: 8304 1980 457a 1000 af99 1680 5816 3f80
00000130: 12e9 1180 5467 0480 3ea7 1e80 da88 1600
00000140: 12f6 4380 6904 1580 91ea 4380 1925 0780
00000150: 97a1 1a80 099f 2400 aaf8 0200 c3bb 0f80
00000160: f1f3 a23d fa87 ac3d 583f aa3d 1c47 a23d
00000170: 990a a03d 16d6 a23d ab3a ac3d 5fef a73d
00000180: cf2b 0300 cdb7 3300 2b14 1c80 3004 3100
00000190: 6efc 3d80 4845 0000 614e 1b80 dd95 1c80
000001a0: b4da 3980 7770 3980 20c2 1780 32d2 1200
000001b0: 98d1 0780 23ed 3980 be49 2900 834a 2100
000001c0: 9503 0280 7a48 4880 dc52 0580 9c5d 1600
000001d0: da1b 4880 b84c 4480 551a 0f00 4f7b 3280
000001e0: cac5 a23d 88e8 bc3d ce59 be3d dedd 203e
000001f0: 10e7 f93d 6665 f93d c5be 1e3e 3a7e a23d
00000200: 99a0 1c80 fdfa 2700 b7c3 1100 be6b 1c00
00000210: 88f2 1d00 d566 0380 77fe 0500 c0b9 2880
00000220: e41a da3d 734d 1d3e 13ab 013e 8362 e43d
00000230: b5bb 0b3e 18b0 ba3d 3fd4 2f3e 63c6 b33d
00000240: cea6 0e00 ff2b 2900 a07d 0480 5946 1200
00000250: 7a09 2600 9d9d 0500 8646 1580 09ca 1600
00000260: f915 1680 a97b 0300 1124 0100 1b29 3280
00000270: e4e6 1e00 8d71 4180 57ca 0d00 a574 1180
00000280: 27f2 183e 47e8 a63d 8f35 383e b934 453e
00000290: a5a9 a63d ecec 7a3d d831 173e 2016 453e
000002a0: 5e25 873d ecbc 883d c8a4 8e3d 6bc1 823d
000002b0: 3073 863d 8bc7 873d 38a3 8a3d 42ba 863d
000002c0: 3d79 113e 4097 4a3e ca36 d23d 9b81 2a3e
000002d0: 57b6 1e3e 1df4 043e 6fd2 043e a7d8 a13d
000002e0: b408 203e ec3c d23d b485 593e 6efb 1d3e
000002f0: d963 233e 24a6 4d3e a8e6 0c3e 0772 e13d
00000300: f0dd 3580 81e1 3280 d05c 1580 205b 3180
00000310: 3b89 4480 0498 2480 444a 0100 3f29 4380
00000320: f63b a33d 2c48 c23d ff46 f23d bd90 c63d
00000330: db47 a83d cb0d e03d f0f7 a93d a45d e53d
00000340: d46e a13d 2e02 dc3d 7abe f73d 8a45 ed3d
00000350: 27e7 cf3d fc42 d63d 4556 b83d bc46 b23d
00000360: 474b 4080 91f3 0a00 891a 3680 2241 2380
00000370: d5d3 0880 89cd 1280 9057 0d00 5d5b 3300
00000380: 9856 da3d fb04 203e 0350 273e 66df 753d
00000390: 4269 e43d 27ce 393e 0f41 193e 0dee c33d
000003a0: 2fdb 363e 3e9b 9e3d 6d05 163e 210c 0d3e
000003b0: 7318 0a3e 25d2 3e3e 3f46 1b3e b06f be3d
000003c0: 0fe1 4180 e49b 3e00 0d2a 1c80 19f9 0780
000003d0: 0e00 1280 61ae 4880 30e4 3980 2223 1600
000003e0: 792d 8e3d 2f8b 953d 7951 8f3d 79df 8a3d
000003f0: 610c 883d 075a 943d fbf3 8d3d b173 873d

net.0.0.bias f4 [128]
-4.950563e-39 -4.559705e-39 -4.251605e-39 0.3152725 -3.375798e-39 0.39912015 0.4151646 0.21545093
-4.6106e-41 -4.354975e-39 -2.629786e-39 0.19124562 -6.95861e-40 -2.654285e-39 -7.22612e-40 0.35119706
-4.095712e-39 0.42304364 -4.861777e-39 -4.279358e-39 0.35140556 0.14878353 0.41581762 0.33249336
-4.842534e-39 0.2879773 0.14913756 1.784788e-39 0.3807334 0.4040211 -9.7788e-41 0.14757517
0.44896054 0.29885674 0.4619639 -1.0789824e-38 -2.252357e-39 0.43691194 0.273755 0.47548723
-1.021262e-39 -1.582142e-39 0.18015845 -4.0303e-41 0.3051073 0.42081723 0.17995109 1.588415e-39
0.28093937 7.7754e-40 0.47972733 -4.807314e-39 -7.65914e-39 -3.304639e-39 0.4547239 0.2430399
0.28212118 -5.426804e-39 0.22643341 -1.346781e-39 0.32421514 0.36109197 0.1681468 0.17681894
2.23186e-40 -1.536466e-39 -1.147612e-39 0.38794297 -9.51007e-39 0.38340485 -1.0564213e-38 -1.0498154e-38
-4.833907e-39 1.81961e-40 0.19400658 0.17527743 0.14963731 9.66462e-40 0.4535358 0.3873067
-4.233411e-39 0.31074908 -1.34835e-39 -7.86413e-40 0.306083 0.14698465 -9.89198e-40 -1.0037563e-38
-3.302555e-39 0.29921994 -4.970498e-39 -2.742232e-39 0.22517523 -2.536489e-39 -2.036005e-39 -1.468653e-39
-8.48598e-40 -2.54501e-39 -8.531321e-39 0.21535337 -1.0628698e-38 3.656607e-39 -2.888551e-39 1.375467e-39
0.32445928 -4.797397e-39 -1.405878e-39 0.37580532 0.21725181 0.4695429 -7.355702e-39 -1.145012e-39
0.15244314 0.21258229 0.4084194 -7.1242e-40 0.18017574 0.33103606 -4.969088e-39 -1.0544132e-38
0.35676548 -4.317077e-39 0.13462973 -7.66292e-40 0.27316925 -5.075752e-39 0.3516553 -5.007749e-39
00000000: 28e8 3580 9aa6 3180 bf4b 2e80 666b a13e
00000010: 5ac2 2480 7a59 cc3e 7490 d43e 2b9f 5c3e
00000020: 8680 0080 e66b 2f80 c6a2 1c80 e4d5 433e
00000030: c793 0780 11e7 1c80 59de 0780 1ad0 b33e
00000040: 2e99 2c80 2d99 d83e a8f0 3480 1c99 2e80
00000050: 6eeb b33e b65a 183e 0ce6 d43e 923c aa3e
00000060: 04bb 3480 c371 933e 84b7 183e 436f 1300
00000070: 7def c23e dbdb ce3e 9810 0180 f21d 173e
00000080: 28de e53e c003 993e 8886 ec3e a47d 7580
00000090: a886 1880 ecb2 df3e 9e29 8c3e 1073 f33e
000000a0: dd1e 0b80 5e3a 1180 757b 383e 5970 0080
000000b0: 0637 9c3e 5b75 d73e 1945 383e db4b 1100
000000c0: 49d7 8f3e 7777 0800 d29e f53e d658 3480
000000d0: 9166 5380 fdfb 2380 92d1 e83e 74df 783e
000000e0: 3072 903e b917 3b80 29de 673e 47aa 0e80
000000f0: 87ff a53e 0ce1 b83e ad2e 2c3e 0610 353e
00000100: 276e 0200 0bbb 1080 137f 0c80 76a0 c63e
00000110: 358e 6780 a44d c43e ba08 7380 9550 7280
00000120: f7a2 3480 3cfb 0100 a9a9 463e ed7b 333e
00000130: 863a 193e 1a86 0a00 d835 e83e 104d c63e
00000140: 0719 2e80 811a 9f3e a7ae 0e80 3390 0880
00000150: e9b6 9c3e 2583 163e 7bc5 0a80 a44c 6d80
00000160: 2ef6 2380 5b33 993e ba1f 3680 3adc 1d80
00000170: 5694 663e b39e 1b80 8e2b 1680 02fe 0f80
00000180: 8c3d 0980 74b6 1b80 dae5 5c80 9885 5c3e
00000190: 7cbc 7380 22d1 2700 1b74 1f80 3efa 0e00
000001a0: 871f a63e 313d 3480 044f 0f80 8e69 c03e
000001b0: 4277 5e3e ed67 f03e b418 5080 d477 0c80
000001c0: 0e1a 1c3e 2caf 593e 591c d13e f0c1 0780
000001d0: fd7f 383e 8f7d a93e cc1b 3680 c0d0 7280
000001e0: f7a9 b63e 4102 2f80 60dc 093e 1c58 0880
000001f0: d7dc 8b3e 2245 3780 2a0c b43e 9187 3680

net.1.0.weight f4 [128, 128]
-2.6575155e-38 2.161038e-39 -3.69625e-39 1.5528e-39 5.486773e-39 -1.336257e-39 -2.864237e-39 3.117176e-39
-1.335023e-39 5.49147e-39 4.378644e-39 4.83773e-40 6.109067e-39 3.42978e-40 -3.180852e-39 4.082246e-39
1.198617e-39 -4.88786e-40 1.536206e-39 -2.34771e-40 2.759616e-39 3.009214e-39 -5.971144e-39 -6.231131e-39
-3.411165e-39 -5.55612e-40 3.580476e-39 -3.947468e-38 1.51522e-39 -1.980693e-39 -2.866392e-39 -1.433799e-39
4.5975e-39 3.909152e-39 -2.668575e-39 -5.816365e-39 1.7380944e-38 2.587198e-39 6.369992e-39 -2.28108e-39
-5.89771e-38 4.88019e-39 5.18775e-39 -9.32336e-40 1.533637e-39 -6.483937e-39 2.962244e-39 1.409e-40
-1.464264e-39 -4.915133e-39 4.521786e-39 1.223004e-39 1.758271e-39 4.272014e-39 4.551692e-39 1.036051e-39
-2.282686e-39 3.335372e-39 -4.010094e-39 -2.106848e-39 -2.260611e-39 -4.24112e-39 -2.609868e-39 -4.558124e-39
-2.786998e-39 6.21448e-40 -6.57426e-40 1.057525e-39 -1.87638e-39 3.808265e-39 2.427537e-39 -5.333185e-39
-4.301983e-39 4.528058e-39 2.944414e-39 2.485619e-39 3.63123e-40 -3.904913e-39 -1.64559e-39 -5.189388e-39
1.123016e-39 -1.198545e-39 3.185468e-39 -1.944428e-39 -3.641458e-39 8.558e-42 -2.07374e-40 3.844134e-39
-2.279331e-39 -2.029936e-39 -3.798987e-39 -2.797898e-39 -2.94053e-40 3.555555e-39 1.096788e-39 6.277275e-39
-6.77769e-40 -6.097682e-39 -6.2218e-41 9.3876e-41 4.732682e-39 9.1809e-40 5.228013e-39 2.428065e-39
-4.037385e-39 -2.148228e-39 -6.074371e-39 3.81076e-39 4.832715e-39 -2.007167e-39 1.460138e-39 -3.699818e-39
3.395158e-39 -4.767643e-39 3.324114e-39 6.1296e-40 2.484543e-39 2.983481e-39 -2.396157e-39 1.87328e-39
2.237564e-39 -1.703212e-39 -2.6645e-40 5.07941e-39 -3.857196e-39 -4.722599e-38 -4.979007e-39 -2.254213e-39
-3.403692e-39 -3.410759e-39 -4.000772e-39 0.07550244 -2.602442e-39 0.0801793 0.079494245 0.061997123
6.73943e-39 5.425748e-39 -5.015619e-39 0.050032455 3.06613e-40 3.016017e-39 -1.836026e-39 0.08373181
-3.177605e-39 0.10626212 -5.474143e-39 -6.275711e-39 0.08404717 0.04029395 0.088788114 0.10039462
5.38744e-39 0.06680466 0.050903946 -3.462663e-39 0.07788722 0.08052473 2.690115e-39 0.041004475
0.09703488 0.06672648 0.10960773 -3.61302e-40 3.537295e-39 0.078469075 0.0638761 0.09949495
6.150359e-39 2.001105e-39 0.0622243 9.127688e-39 0.07527031 0.11971899 0.047504086 1.032681e-39
0.068841256 -9.6374e-41 0.112188086 -3.227178e-39 -6.032361e-39 3.939472e-39 0.111249655 0.08119897
0.071408994 -8.40691e-40 0.05601481 -1.894567e-39 0.090073615 0.078655384 0.0448848 0.05520132
-3.959959e-39 -5.05737e-39 3.747686e-39 0.09665794 4.844209e-39 0.08233439 -1.586442e-39 8.0637e-40
4.552527e-39 1.284027e-39 0.055082463 0.057766058 0.04484361 4.077543e-39 0.104794785 0.10144595
2.095617e-39 0.078053296 -3.794896e-39 -1.492104e-39 0.09878557 0.04027655 -3.02309e-39 1.3607075e-38
-7.5063e-41 0.08238598 2.32904e-40 -4.027441e-39 0.060889203 -3.943552e-39 6.203316e-39 3.186533e-39
-4.381514e-39 -9.97607e-40 -3.855468e-39 0.06279862 -8.827187e-39 4.048483e-39 -2.276538e-39 -3.873494e-39
0.09111428 -5.887375e-39 -4.077452e-39 0.0956537 0.055259816 0.10328025 -1.166253e-39 -3.615892e-39
0.046254877 0.06376084 0.07546308 1.568333e-39 0.051444437 0.07563934 1.051767e-39 2.966836e-39
0.0947013 6.377972e-39 0.036719836 -3.960041e-39 0.0645972 2.791748e-39 0.07639182 -2.959167e-39
00000000: 5cb0 1081 1888 1700 a43f 2880 93e8 1000
00000010: e4be 3b00 f18c 0e80 5430 1f80 6bf1 2100
00000020: 8089 0e80 fccb 3b00 e1ad 2f00 9044 0500
00000030: 9885 4200 15bc 0300 eca2 2280 a473 2c00
00000040: 420d 0d00 8952 0580 51ba 1000 728e 0280
00000050: b00c 1e00 77c4 2000 1f05 4180 dcd9 4380
00000060: f124 2580 d20c 0680 e9fc 2600 aceb 5681
00000070: d17f 1000 5e91 1580 5636 1f80 d99c 0f80
00000080: f60f 3200 2091 2a00 e70e 1d80 a955 3f80
00000090: 0043 bd00 0e2c 1c00 f25c 4500 b9d6 1880
000000a0: 0a8d a081 fc23 3500 567d 3800 f926 0a80
000000b0: 28b3 1000 949a 4680 8841 2000 c688 0100
000000c0: c6f1 0f80 6485 3580 e63c 3100 3d51 0d00
000000d0: 5825 1300 a384 2e00 4490 3100 1748 0b00
000000e0: 33db 1880 a951 2400 83aa 2b80 09f1 1680
000000f0: aa9d 1880 842e 2e80 406b 1c80 32a2 3180
00000100: 0459 1e80 58c4 0600 a328 0780 f383 0b00
00000110: 966e 1480 e577 2900 fc6e 1a00 c012 3a80
00000120: 2ed8 2e80 624e 3100 d40f 2000 e510 1b00
00000130: 3df4 0300 4f85 2a80 3ceb 1180 e781 3880
00000140: 833a 0c00 0e0d 0d80 caaf 2200 462c 1580
00000150: e7a6 2780 db17 0000 1342 0280 e2db 2900
00000160: d9d1 1880 a31a 1680 085e 2980 6777 1e80
00000170: b333 0380 71b7 2600 66f1 0b00 7d5a 4400
00000180: 5861 0780 db65 4280 70ad 0080 b005 0100
00000190: cb88 3300 43ff 0900 93ed 3800 7570 1a00
000001a0: 96f6 2b80 6364 1780 e024 4280 d97e 2900
000001b0: a59f 3400 2adb 1580 45e6 0f00 9649 2880
000001c0: 52f8 2400 40ea 3380 4732 2400 afac 0600
000001d0: e50d 1b00 bb7c 2000 8317 1a80 f165 1400
000001e0: 6b5d 1800 dd8b 1280 c1e6 0280 544f 3700
000001f0: 4b00 2a80 b68f 8081 7237 3680 d48b 1880
00000200: 1c10 2580 cf23 2580 8690 2b80 06a1 9a3d
00000210: 8d56 1c80 0b35 a43d e1cd a23d b2f0 7d3d
00000220: ca62 4900 c714 3b00 819d 3680 d5ee 4c3d
00000230: b656 0300 6ed7 2000 18fe 1380 957b ab3d
00000240: df99 2280 f49f d93d af9b 3b80 2156 4480
00000250: ec20 ac3d 450b 253d 8bd6 b53d b29b cd3d
00000260: fea9 3a00 e2d0 883d a880 503d 7fb4 2580
00000270: 5683 9f3d 26ea a43d f24a 1d00 4ff4 273d
00000280: 39ba c63d e5a7 883d 047a e03d 2aef 0380
00000290: 8a84 2600 65b4 a03d 79d1 823d 02c4 cb3d
000002a0: b3f8 4200 44ca 1500 e8de 7e3d 4864 6300
000002b0: 5227 9a3d 3b2f f53d a593 423d b23e 0b00
000002c0: a5fc 8c3d a70c 0180 dec2 e53d 0f24 2380
000002d0: c5af 4180 a5e5 2a00 dcd6 e33d a54b a63d
000002e0: e13e 923d 8127 0980 c96f 653d 48a1 1480
000002f0: 8478 b83d 1316 a13d 20d9 373d c81a 623d
00000300: c11e 2b80 e411 3780 06cf 2800 99f4 c53d
00000310: afbf 3400 ef9e a83d 5b46 1180 d5c7 0800
00000320: 9892 3100 58fb 0d00 269e 613d 1a9c 6c3d
00000330: efad 373d 8866 2c00 a69e d63d e5c2 cf3d
00000340: bad1 1600 68da 9f3d a052 2980 613f 1080
00000350: 1750 ca3d 06f9 243d 25eb 2080 fd2a 9400
00000360: 3fd1 0080 fbb9 a83d 3e89 0200 deda 2b80
00000370: f566 793d 05f1 2a80 528c 4300 c2b2 2200
00000380: e1b5 2f80 ecdc 0a80 7afb 2980 909c 803d
00000390: 9b1e 6080 8615 2c00 10ca 1880 ba2d 2a80
000003a0: 209a ba3d 9b1b 4080 4766 2c80 16e6 c33d
000003b0: 1e58 623d 9984 d33d 0ab3 0c80 a35f 2780
000003c0: c175 3d3d 0b95 823d 638c 9a3d e013 1100
000003d0: 67b7 523d cce8 9a3d e673 0b00 554e 2000
000003e0: c1f2 c13d 3173 4500 8a67 163d fc1e 2b80
000003f0: 894b 843d 4266 1e00 5173 9c3d f438 2080

net.1.0.bias f4 [128]
-2.301362e-39 0.14616156 0.14397612 -4.18514e-39 0.1199761 1.026792e-39 -5.462921e-39 0.15025683
0.14746471 0.14925165 -1.508799e-39 0.16881236 2.815054e-39 -2.216615e-39 0.10514576 0.14301571
0.14685981 4.032203e-39 0.14833973 0.13846076 0.13184065 0.12601307 0.11116242 3.159509e-39
0.1324301 0.15935889 2.021728e-39 4.54527e-39 0.13608742 -2.0335153e-38 0.11037268 0.12109297
0.1325881 0.14633872 0.12204682 0.08145203 0.12354447 0.13936603 0.12549129 -1.565675e-39
0.11450725 -3.942108e-39 8.877698e-39 0.089956656 9.0808e-40 0.095732 0.13088861 0.15264173
0.1161971 0.13383195 3.541207e-39 -5.6568e-41 3.491578e-39 -2.484463e-39 0.13240471 -5.260332e-39
0.11757323 4.57129e-40 0.11622153 0.11762685 3.945021e-39 0.1523905 -9.34275e-40 0.112559475
0.095992245 2.721083e-39 0.12490841 -1.429592e-39 -1.884235e-39 0.1624646 0.13815282 0.09092164
-3.135055e-39 1.606938e-39 -5.718398e-39 0.14496551 0.10773979 -1.365055e-39 0.09398153 0.10850294
0.084655076 0.1450691 2.44298e-39 -3.46226e-39 5.97384e-39 1.994647e-39 -1.972877e-39 0.15425704
-1.924263e-39 -4.685656e-39 0.12487655 -1.2958512e-38 4.00703e-39 3.610203e-39 0.114691265 -1.371042e-39
0.17315409 -2.16525e-39 0.17456187 0.12275177 3.371188e-39 0.1623446 -2.404126e-39 -2.66178e-39
3.013687e-39 0.116399795 0.12924765 -2.265706e-39 -2.4753046e-38 0.12736303 0.13661507 0.148842
0.11369918 -5.727645e-39 -2.681889e-39 -1.5475198e-38 0.156929 5.1713e-40 0.08481042 0.17715678
0.15916038 0.15765497 0.15892081 0.14233989 8.56266e-40 -2.312542e-39 0.12569407 -1.7713553e-38
00000000: 430f 1980 60ab 153e 7a6e 133e 7892 2d80
00000010: 08b6 f53d 472e 0b00 677c 3b80 eddc 193e
00000020: fd00 173e 6dd5 183e eb6d 1080 26dd 2c3e
00000030: 3aa7 1e00 0523 1880 a956 d73d b672 123e
00000040: 6b62 163e 24e8 2b00 5fe6 173e a8c8 0d3e
00000050: 3c01 073e 9209 013e 1fa9 e33d 6d67 2200
00000060: c29b 073e fa2e 233e c103 1600 5d7e 3100
00000070: 805a 0b3e 226e dd80 120b e23d 97ff f73d
00000080: 2dc5 073e d1d9 153e aff3 f93d 52d0 a63d
00000090: e204 fd3d f8b5 0e3e ca80 003e 770c 1180
000000a0: c782 ea3d feec 2a80 69ab 6000 323b b83d
000000b0: 5ce3 0900 240f c43d aa07 063e 1d4e 1c3e
000000c0: bff8 ed3d 3e0b 093e 728f 2600 b09d 0080
000000d0: 1905 2600 ac0d 1b80 1a95 073e aa47 3980
000000e0: 3cca f03d 4afa 0400 8e05 ee3d 59e6 f03d
000000f0: 1df5 2a00 410c 1c3e 612c 0a80 9585 e63d
00000100: 9597 c43d 46a1 1d00 fbcf ff3d 1f91 0f80
00000110: 7b84 1480 1f5d 263e ef77 0d3e 2035 ba3d
00000120: 4223 2280 7d7f 1100 9144 3e80 d771 143e
00000130: aea6 dc3d 38dd 0e80 6379 c03d ca36 de3d
00000140: a45f ad3d ff8c 143e 099a 1a00 5fb3 2580
00000150: a30c 4100 44b8 1500 947b 1580 8ff5 1d3e
00000160: 10f4 1480 b405 3380 47bf ff3d 0f1b 8d80
00000170: f8a1 2b00 c74f 2700 41e3 ea3d e8ed 0e80
00000180: 4e4f 313e d693 1780 59c0 323e 4865 fb3d
00000190: 80b5 2400 aa3d 263e ba2d 1a80 f6fb 1c80
000001a0: efd0 2000 0463 ee3d 7f59 043e deab 1880
000001b0: b6c4 0681 746b 023e d2e4 0b3e 0a6a 183e
000001c0: 1edb e83d 585e 3e80 0434 1d80 8e82 a880
000001d0: ffb1 203e 8ca1 0500 16b1 ad3d 9668 353e
000001e0: f0fa 223e 4e70 213e 23bc 223e 8cc1 113e
000001f0: ec52 0900 6d2e 1980 f2b5 003e 2ee2 c080

net.2.0.weight f4 [128, 128]
1.822759e-39 0.085200764 0.08759485 -3.036398e-39 0.0826394 -4.340631e-39 -2.821017e-39 0.07621041
0.07756427 0.09621468 -3.361264e-39 0.07559217 -1.124365e-39 3.483387e-39 0.08131059 0.085044354
0.08558603 -3.379764e-39 0.071805604 0.07487811 0.08677949 0.080445915 0.07524209 -1.779244e-39
0.0729143 0.07918941 2.005667e-39 -4.86486e-40 0.08527953 1.1836712e-38 0.07618378 0.07990469
0.07685331 0.089274555 0.095495276 0.0497694 0.07505538 0.06796424 0.063413344 1.934072e-39
0.07046661 -2.540159e-39 1.504711e-39 0.05496035 -2.518038e-39 0.056211405 0.0736878 0.07405716
0.0717884 0.10019644 -2.0943424e-38 -2.052919e-39 2.421304e-39 -1.74826e-39 0.06628215 4.476784e-39
0.07043937 -4.50999e-39 0.08609611 0.07238525 4.09312e-40 0.09505249 -5.292868e-39 0.09690538
0.060162727 -9.80269e-40 0.09212007 3.46438e-39 -5.381964e-39 0.076673284 0.084600575 0.052688543
1.2425491e-38 6.422919e-39 6.690871e-39 0.08296226 0.067592695 1.331603e-39 0.06309234 0.07442326
0.05256673 0.08041065 1.574865e-39 -1.2693778e-38 -9.469429e-39 6.861004e-39 7.93027e-40 0.07799992
-1.29651e-40 -3.223068e-39 0.08196764 -2.1480738e-38 2.12637e-39 1.2199119e-38 0.061160196 -4.709637e-39
0.093413614 2.909676e-39 0.083865605 0.100998394 -2.308924e-39 0.086911924 1.2110016e-38 -1.097389e-39
-7.12266e-40 0.058942117 0.07141645 3.504841e-39 7.1697296e-38 0.07107121 0.07052064 0.087879285
0.07429205 3.76748e-39 1.47987e-39 7.412258e-39 0.07688228 2.136446e-39 0.05199707 0.08571934
0.09017115 0.077756464 0.09370293 0.07798303 -8.347835e-39 6.063657e-39 0.081184454 1.22849e-40
-6.16131e-39 0.07302048 0.07393711 -2.541007e-39 0.086449414 -5.838582e-39 -3.121258e-39 0.08454904
0.087915376 0.08744758 -4.299245e-39 0.093743406 -6.928377e-39 1.877102e-39 0.085597746 0.081677146
0.09296383 -1.951806e-39 0.07896714 0.07761955 0.08650752 0.072079964 0.07763347 2.726087e-39
0.07127129 0.08466053 4.81343e-39 -1.458589e-39 0.0796662 1.5836784e-38 0.07151086 0.07969212
0.07121559 0.10066147 0.07844192 0.04973583 0.08216494 0.07485815 0.06697054 2.402266e-39
0.07188746 -2.299286e-39 4.155716e-39 0.05554507 -7.92119e-40 0.057446837 0.08318941 0.0728259
0.06883626 0.09760842 -3.2970905e-38 2.076946e-39 -1.086469e-39 2.1317e-41 0.07179748 6.56082e-40
0.07499479 5.564623e-39 0.07674306 0.07115467 6.52585e-39 0.079293616 -5.23221e-39 0.08104996
0.05965494 1.36692e-39 0.09879589 -2.214702e-39 -2.759733e-39 0.084523365 0.068733454 0.052604917
6.542873e-39 -1.310674e-39 3.863224e-39 0.07504784 0.06478004 1.110665e-39 0.06625389 0.07416432
0.052511998 0.07197239 1.386673e-39 -6.842853e-39 1.51776e-39 8.526935e-39 5.480101e-39 0.07679386
2.437074e-39 -2.568022e-39 0.07982826 -1.9127332e-38 -2.423948e-39 1.0693583e-38 0.062254746 -1.693241e-39
0.09343706 -3.365187e-39 0.109097295 0.0958511 -2.406828e-39 0.0870083 1.2307775e-38 -6.694224e-39
2.725715e-39 0.05981528 0.0741919 -2.141753e-39 6.575489e-38 0.06437083 0.07709256 0.08118478
0.06890671 -4.971387e-39 4.862077e-39 1.0466629e-38 0.08953365 -3.750217e-39 0.051463068 0.093493514
0.07471254 0.070314914 0.084738865 0.07585509 -4.6385e-39 4.933467e-39 0.077140115 2.511544e-38
00000000: 1cd9 1300 bd7d ae3d ee64 b33d 3e10 2180
00000010: d93e a93d ea43 2f80 d9b7 1e80 3414 9c3d
00000020: 04da 9e3d 340c c53d d699 2480 11d0 9a3d
00000030: 463e 0c80 44ee 2500 2b86 a63d bc2b ae3d
00000040: ba47 af3d 68cd 2480 d10e 933d b259 993d
00000050: 72b9 b13d d4c0 a43d 8618 9a3d cf5f 1380
00000060: 1854 953d 0f2e a23d fcd6 1500 204c 0580
00000070: 09a7 ae3d f0e3 8000 3e06 9c3d 12a5 a33d
00000080: 4565 9d3d 94d5 b63d 0793 c33d 00db 4b3d
00000090: a3b6 993d d630 8b3d dbde 813d 680f 1500
000000a0: cc50 903d eea8 1b80 8662 1000 1b1e 613d
000000b0: 446b 1b80 ee3d 663d a1e9 963d 48ab 973d
000000c0: cc05 933d cb33 cd3d bf0d e480 b45a 1680
000000d0: 9c5d 1a00 7009 1380 f0be 873d 74bf 3000
000000e0: 8442 903d 041c 3180 2853 b03d b83e 943d
000000f0: ff74 0400 e1aa c23d 5da2 3980 5476 c63d
00000100: 316d 763d 97ac 0a80 72a9 bc3d 48b9 2500
00000110: ba9a 3a80 e206 9d3d 1143 ad3d f1cf 573d
00000120: 374d 8700 7cf0 4500 6ddb 4800 1ee8 a93d
00000130: 0a6e 8a3d f87f 0e00 8f36 813d 396b 983d
00000140: 3650 573d 57ae a43d 1526 1100 1739 8a80
00000150: ea1c 6780 b0b5 4a00 a3a2 0800 6cbe 9f3d
00000160: 6a69 0180 9a18 2380 a6de a73d 8fe7 e980
00000170: 7427 1700 2ed6 8400 1d83 7a3d 8d48 3380
00000180: a34f bf3d feae 1f00 bbc1 ab3d 3fd8 ce3d
00000190: 5724 1980 e1fe b13d ccdd 8300 13f3 0b80
000001a0: 82c1 0780 4a6d 713d ca42 923d 122a 2600
000001b0: b92d c301 c88d 913d 206d 903d 0efa b33d
000001c0: 6e26 983d 3406 2900 471d 1000 5cb6 5000
000001d0: 7574 9d3d 8b43 1700 e1fa 543d 9f8d af3d
000001e0: a7ab b83d c83e 9f3d 52e7 bf3d 91b5 9f3d
000001f0: 5ee6 5a80 0207 4200 0944 a63d 7456 0100
00000200: 3a17 4380 c38b 953d 576c 973d 4bab 1b80
00000210: 640c b13d 9793 3f80 ccfc 2180 0c28 ad3d
00000220: fa0c b43d b817 b33d 8cd0 2e80 8bfc bf3d
00000230: 7f71 4b80 9970 1400 df4d af3d 5946 a73d
00000240: d263 be3d d740 1580 86b9 a13d 00f7 9e3d
00000250: db2a b13d a99e 933d 4cfe 9e3d 39af 1d00
00000260: aff6 913d 8062 ad3d e269 3400 f4e1 0f80
00000270: 0828 a33d 8372 ac00 4974 923d 9f35 a33d
00000280: 7bd9 913d 9a27 ce3d 28a6 a03d ccb7 4b3d
00000290: 1846 a83d 3b4f 993d da27 893d 8a28 1a00
000002a0: bc39 933d 7909 1980 7240 2d00 3a83 633d
000002b0: 1ba0 0880 604d 6b3d 365f aa3d bf25 953d
000002c0: 06fa 8c3d ece6 c73d bc82 3381 ae9d 1600
000002d0: a2d4 0b80 6c3b 0000 8f0a 933d e424 0700
000002e0: de96 993d e897 3c00 772b 9d3d 8ab9 913d
000002f0: 6a0f 4700 b164 a23d 46f9 3880 85fd a53d
00000300: bd58 743d 6be2 0e00 8055 ca3d b01d 1880
00000310: 030d 1e80 961a ad3d 20c4 8c3d 4178 573d
00000320: de3e 4700 a045 0e80 1911 2a00 afb2 993d
00000330: 66ab 843d 1518 0c00 1fb0 873d 77e3 973d
00000340: d216 573d 4366 933d 7b19 0f00 1783 4a80
00000350: e686 1000 a0d9 5c00 4bac 3b00 1946 9d3d
00000360: 9289 1a00 9af6 1b80 007d a33d 3847 d080
00000370: fb64 1a80 5c71 7400 d5fe 7e3d 1170 1280
00000380: ee5b bf3d c6a4 2480 676e df3d 954d c43d
00000390: 4235 1a80 6831 b23d 1205 8600 c6e4 4880
000003a0: 2fae 1d00 de00 753d ecf1 973d 5652 1780
000003b0: 7800 b301 dbd4 833d b4e2 9d3d 3544 a63d
000003c0: f61e 8d3d 3422 3680 7ef1 3400 b4f8 7100
000003d0: 6b5d b73d 14d6 2880 f0ca 523d 8779 bf3d
000003e0: e302 993d 4401 903d 928b ad3d ea59 9b3d
000003f0: 4082 3280 80b8 3500 a3fb 9d3d d0bd 0801

net.2.0.bias f4 [128]
0.044486742 0.044018865 -1.0405418e-37 4.1278273e-38 0.052686766 0.055413533 0.06286061 -6.53595e-40
-1.079854e-38 6.419536e-39 0.037453983 -4.570607e-39 0.045147825 6.58666e-39 -3.422553e-17 -1.4735236e-38
0.045486264 0.039815012 9.484212e-39 -2.203983e-39 0.043915216 -2.7240183e-38 -5.859915e-39 5.308065e-39
0.020467738 0.03817006 -4.106532e-39 -1.9055552e-38 -4.260114e-14 0.042456005 -6.102915e-39 0.049867433
0.04920607 -3.941187e-39 0.017755823 -8.368364e-39 0.03472546 0.036408946 0.031284124 0.044398293
0.043381743 1.8362827e-14 0.03295963 0.02475106 2.4835902e-38 0.040296286 -6.388761e-39 -1.6934525e-38
-3.267579e-39 0.025748348 -6.07394e-39 -7.11187e-40 0.04201678 0.048401304 -8.436042e-39 -5.447598e-39
0.04312853 -3.152505e-38 0.054029092 -5.774873e-39 5.8707e-41 0.047798287 3.69332e-40 0.040907256
-2.4949612e-38 0.03976647 0.040138945 0.025764143 0.051134575 -1.295064e-38 0.053782776 -6.048199e-39
0.03359581 -8.849643e-11 -5.693226e-39 0.047144245 4.9314626e-24 0.031430304 1.7792034e-38 0.04808527
2.752603e-39 0.02188221 0.037380554 -4.4853006e-09 0.053512704 0.039282102 8.89313e-39 0.04404584
1.326791e-38 0.040215533 -1.779234e-39 0.028341489 1.981963e-39 0.03642123 0.049085 0.03720011
-9.521551e-38 0.05839028 0.025786214 1.1341804e-38 0.042619877 0.042201016 2.795815e-19 0.037921462
8.360655e-39 0.05262126 0.023719149 0.031504326 0.048765715 4.215635e-39 -2.3506961e-38 -1.4548792e-38
0.032225236 1.8866072e-38 -2.024172e-38 -3.27623e-38 0.037726615 0.04291804 0.046540804 -5.663529e-39
-7.93621e-40 0.039107494 9.68973e-39 -8.693908e-39 0.05348582 3.1189854e-06 0.03440533 0.030193806
00000000: bb37 363d 204d 343d 97a1 0d82 84bd 6001
00000010: 14ce 573d 4df9 623d 10bd 803d f51d 0780
00000020: f095 7580 0ee7 4500 5969 193d fec4 3180
00000030: edec 383d eeb8 4700 60d6 1da4 d873 a080
00000040: ce4f 3a3d 1115 233d 2046 6700 cfff 1780
00000050: 71e0 333d 464f 1481 0fcf 3f80 bacc 3900
00000060: f5ab a73c 3558 1c3d 57b7 2c80 207f cf80
00000070: c5db 3fa9 59e6 2d3d 7274 4280 cb41 4c3d
00000080: 4e8c 493d 6dea 2a80 a974 913c 981f 5b80
00000090: 493c 0e3d 8c21 153d c823 003d fcda 353d
000000a0: 0eb1 313d cc65 a528 ad00 073d bcc2 ca3c
000000b0: 3238 0701 b80d 253d 4491 4580 9166 b880
000000c0: ae94 2380 33ee d23c ac23 4280 80be 0780
000000d0: c919 2c3d 7240 463d 41dc 5b80 b051 3b80
000000e0: 8ba7 303d 82a3 2b81 9c4d 5d3d ffe1 3e80
000000f0: a7a3 0000 23c8 433d 8c05 0400 5e8e 273d
00000100: afd6 0781 2be2 223d bc68 243d 530f d33c
00000110: 7d72 513d 1e05 8d80 544b 5c3d ebdb 4180
00000120: c39b 093d 109b c2ae 66fe 3d80 531a 413d
00000130: d7c6 be18 10bd 003d f4bc c100 0ff5 443d
00000140: 23f9 1d00 5242 b33c 5a1c 193d 1f1d 9ab1
00000150: 2330 5b3d 45e6 203d 6ed6 6000 6969 343d
00000160: 8979 9000 0bb9 243d c85f 1380 692c e83c
00000170: e894 1500 6d2e 153d 5a0d 493d 245f 183d
00000180: c399 0182 a52a 6f3d 9c3d d33c 5680 7b00
00000190: 2e92 2e3d f9da 2c3d 2909 a520 8953 1b3d
000001a0: 1b0a 5b00 6489 573d a94e c23c ae0a 013d
000001b0: 8fbe 473d 7ae7 2d00 d8f7 ff80 1d6c 9e80
000001c0: 9cfe 033d ef6e cd00 ae69 dc80 fb5f 3281
000001d0: 3987 1a3d d4ca 2f3d 92a1 3e3d 9dab 3d80
000001e0: 4ba4 0880 2e2f 203d 0683 6900 14ab 5e80
000001f0: f213 5b3d c34f 5136 9aec 0c3d 0059 f73c

net.3.0.weight f4 [128, 128]
0.10113581 0.09729666 1.3355542e-38 -7.400654e-39 0.14176592 0.10247673 0.13782448 -3.08934e-39
9.148792e-39 -1.4198917e-38 0.05501874 5.031798e-39 0.12087965 -7.016642e-39 -3.536233e-16 1.3508782e-38
0.12726404 0.0918947 1.5702094e-38 -1.1270089e-38 0.07098431 -1.7629358e-38 6.048164e-39 -1.0821103e-38
0.04390787 0.06974567 1.978072e-39 8.597747e-38 1.3977602e-14 0.09423343 -2.98202e-39 0.11741498
0.0666149 3.283462e-39 0.038204223 -1.1691983e-38 0.083473876 0.07721181 0.06591994 0.067003444
0.11540631 6.310179e-13 0.065745294 0.05395122 -1.2595987e-38 0.05565768 -6.92505e-40 5.862545e-39
2.004779e-39 0.05328776 -3.780654e-39 -1.369552e-39 0.103639424 0.07474615 1.1286851e-38 -1.025336e-39
0.08017569 -3.7032787e-38 0.11954013 -9.18447e-40 2.482592e-39 0.07448616 -5.652795e-39 0.08567379
3.9389466e-38 0.057926 0.09642333 0.054149374 0.11183048 -2.0460959e-38 0.12128972 -9.90878e-40
0.057048947 -1.7119135e-10 6.698292e-39 0.12729642 -6.2675024e-23 0.080476455 3.719087e-38 0.076913156
-3.461478e-39 0.046962503 0.076667584 1.0064674e-08 0.06351107 0.09623034 7.350166e-39 0.10637846
8.037273e-39 0.07698915 6.284501e-39 0.060908414 1.064752e-38 0.08256125 0.0542716 0.07142163
7.603023e-38 0.13473408 0.05278858 1.0180799e-38 0.110447496 0.07514587 1.6786427e-19 0.07881148
9.183054e-39 0.1260353 0.051420644 0.07248188 0.075637735 1.004993e-38 -8.5060476e-38 1.6332676e-38
0.061517324 1.3863262e-38 -2.517254e-38 2.8143667e-38 0.059084374 0.061713 0.123085 8.880313e-39
-4.968263e-39 0.06837859 1.3436245e-38 -1.153993e-38 0.07666703 -6.393254e-06 0.07134084 0.07175659
0.07974456 0.049760602 -3.5178354e-38 -2.8278234e-38 0.08703884 0.07223463 0.102439426 -1.902029e-39
-1.0539949e-38 -4.913459e-38 0.04535509 -2.568645e-39 0.05669037 -2.0200518e-38 -1.6466722e-16 -3.744449e-39
0.06516704 0.04432261 1.7013252e-38 -1.35476e-40 0.05961781 -1.8792986e-38 -2.104833e-39 1.0596759e-38
0.036276814 0.05136373 -3.3966e-39 9.043838e-38 -1.2701506e-13 0.06916033 5.590155e-39 0.08484703
0.101544015 3.405804e-39 0.03174272 -2.4718272e-38 0.06057008 0.06973577 0.04980612 0.07980393
0.07089062 5.091002e-13 0.06157525 0.04317016 -1.798809e-38 0.0716096 5.709578e-39 -1.3706835e-38
-2.21389e-39 0.045025367 -2.293523e-39 -1.13396e-40 0.055166602 0.08078674 7.156497e-39 1.292475e-39
0.071565144 -1.1554551e-38 0.100412205 4.055763e-39 3.933777e-39 0.08697505 -1.755345e-38 0.048642665
3.140042e-38 0.055780817 0.07760098 0.044616412 0.041252863 3.54794e-39 0.103165895 -3.948405e-39
0.046034373 -1.6324085e-10 3.189563e-39 0.08476162 -4.2073565e-23 0.055677515 4.68063e-38 0.06565171
-3.933665e-39 0.03905726 0.06371669 -5.095739e-09 0.09636993 0.06457259 -4.478484e-39 0.046780728
-2.992242e-39 0.06969369 1.234344e-39 0.049209084 8.227071e-39 0.06493568 0.1021601 0.06521195
2.200024e-38 0.08681872 0.04365484 1.6557574e-38 0.05902012 0.07801037 8.844387e-20 0.06628182
-9.989478e-39 0.1168049 0.04162516 0.059395272 0.09563319 -1.5527268e-38 -3.6107344e-38 -1.4965013e-38
0.044465493 2.391125e-39 -1.6888851e-38 3.0887096e-38 0.06558449 0.05099638 0.061223477 -4.24488e-39
3.136402e-39 0.06574907 -7.74883e-39 -1.1129047e-38 0.10804295 -9.491974e-06 0.06304092 0.051556036
00000000: 4b20 cf3d 7943 c73d d16d 9100 0396 5080
00000010: 162b 113e 52df d13d dc21 0d3e d3a3 2180
00000020: 1c9f 6300 ce9c 9a80 555b 613d 9bca 3600
00000030: c08f f73d 8b67 4c80 97d9 cba5 fd18 9300
00000040: 8151 023e 4a33 bc3d 0dfb aa00 6cb8 7a80
00000050: 3960 913d 7af7 bf80 d2db 4100 d5d4 7580
00000060: bdd8 333d d1d6 8e3d 0f8a 1500 8d0d ea01
00000070: 50cc 7b28 75fd c03d a978 2080 4477 f03d
00000080: 656d 883d f5c0 2300 087c 1c3d 7e50 7f80
00000090: 5af4 aa3d 3a21 9e3d 0901 873d 1a39 893d
000000a0: 255a ec3d a29d 312b 78a5 863d f4fb 5c3d
000000b0: 7d28 8980 4ff9 633d 6c8a 0780 64d6 3f00
000000c0: 82d4 1500 4444 5a3d ed2a 2980 c1e9 0e80
000000d0: e840 d43d 8214 993d 26e7 7a00 382a 0b80
000000e0: 2733 a43d 2ca0 4981 75d1 f43d 4200 0a80
000000f0: 7508 1b00 338c 983d b18d 3d80 bd75 af3d
00000100: e774 5601 d043 6d3d 9879 c53d bccb 5d3d
00000110: 6107 e53d d4cc de80 bf66 f83d 2aca 0a80
00000120: 28ac 693d 153a 3caf 1df0 4800 fe59 023e
00000130: f689 979a d7d0 a43d 827c 4a01 a584 9d3d
00000140: 31b1 2580 c15b 403d e503 9d3d e8e8 2c32
00000150: 1812 823d 6a14 c53d 4609 5000 f3dc d93d
00000160: a684 5700 7dac 9d3d a26e 4400 1a7b 793d
00000170: f4f0 7300 df15 a93d e64b 5e3d 8145 923d
00000180: 56f9 ce01 bbf7 093e d738 583d eddb 6e00
00000190: 4c32 e23d 14e6 993d dd2d 4620 ea67 a13d
000001a0: 9efe 6300 660f 013e 749e 523d 6171 943d
000001b0: f5e7 9a3d 1e6f 6d00 808e e781 dbd8 b100
000001c0: 97f9 7b3d 22f5 9600 660d 0981 8c3a 1901
000001d0: 7502 723d c5c6 7c3d fd13 fc3d b3b2 6000
000001e0: 7f19 3680 130a 8c3d c94e 9200 a1a8 7d80
000001f0: 9b03 9d3d a285 d6b6 251b 923d 1ef5 923d
00000200: 1e51 a33d c6d1 4b3d 7887 3f81 1bf6 1981
00000210: 6b41 b23d c0ef 933d c3cb d13d 15b6 1480
00000220: 17c5 7280 d0c1 8581 42c6 393d 56f8 1b80
00000230: 2934 683d d3f6 db80 2fd9 3da5 00c6 2880
00000240: 4c76 853d a08b 353d 0642 b900 a779 0180
00000250: ce31 743d 33a3 cc80 6beb 1680 7463 7300
00000260: ff96 143d c662 523d 57fc 2480 5a32 f601
00000270: 9901 0faa eea3 8d3d 14df 3c00 48c4 ad3d
00000280: 4ff6 cf3d ff15 2500 a804 023d 3e94 0681
00000290: 5518 783d a1d1 8e3d 8101 4c3d 3e70 a33d
000002a0: 1a2f 913d 894c 0f2b 5436 7c3d 32d3 303d
000002b0: 7adf c380 0ea8 923d fb2b 3e00 1441 9580
000002c0: 6d1b 1880 856c 383d 69f9 1880 1a3c 0180
000002d0: 60f6 613d 8573 a53d 67ed 4d00 e512 0e00
000002e0: bf90 923d 63d1 7d80 eaa4 cd3d d129 2c00
000002f0: c5d5 2a00 fa1f b23d e123 bf80 883d 473d
00000300: ccf5 2a01 6d7a 643d 43ed 9e3d b3bf 363d
00000310: c3f8 283d 37a2 2600 a448 d33d 8cfe 2a80
00000320: 8a8e 3c3d 377c 33af 34bb 2200 8097 ad3d
00000330: 8d74 4b9a 1b0e 643d 76d6 7e01 6774 863d
00000340: 75d5 2a80 81fa 1f3d e57d 823d 9816 afb1
00000350: 995d c53d a23e 843d 31c4 3080 269d 3f3d
00000360: 2795 2080 91bb 8e3d d970 0d00 778f 493d
00000370: ba95 5900 fffc 843d 5139 d13d d88d 853d
00000380: b88f ef00 03ce b13d 6bcf 323d c84b b400
00000390: 15bf 713d e7c3 9f3d 0ad5 d01f c3be 873d
000003a0: 9ac6 6c80 6837 ef3d 257f 2a3d 7548 733d
000003b0: 55db c33d b513 a980 4b96 4481 5ef4 a280
000003c0: 7321 363d 7c09 1a00 3fe7 b780 542a 2801
000003d0: 2951 863d 95e1 503d 78c5 7a3d 0039 2e80
000003e0: 0327 2200 73a7 863d 9660 5480 412f 7980
000003f0: 9f45 dd3d b83f 1fb7 991b 813d 6c2c 533d

net.3.0.bias f4 [128]
0.010353909 0.008215633 -5.7668725e-10 0.009829026 0.006927741 0.0072417166 0.0072682025 0.007310855
1.3885014e-08 -1.6843423e-08 0.010555035 0.008935994 -6.613197e-08 0.006098946 0.010770526 0.009345155
0.009698852 -9.0005337e-11 0.0077954037 0.0053599733 0.0075726355 0.0055961963 0.009389757 0.00975068
0.005514528 0.0096292 0.0066791074 -3.7966466e-09 -1.39025e-05 0.007259036 0.010755396 1.5001875e-08
0.009734759 0.0072304416 3.8917722e-07 0.0063179648 0.00758367 -2.2188251e-11 5.100915e-09 0.005127795
-7.209728e-08 -2.1123877e-05 0.010826785 4.1502602e-07 0.0073474194 0.0060090916 0.009072611 0.0068989825
0.009358658 -2.6995034e-08 -4.3034967e-09 0.007889337 2.1392762e-13 8.1282264e-10 0.006959122 -1.4802107e-06
0.00876966 5.6479564e-07 3.05812e-09 0.010851797 0.0067551066 -8.812184e-08 0.006918384 0.008775018
0.007398861 0.009784445 -1.6261898e-08 0.010783422 0.0070996787 0.010631801 5.5955534e-09 0.004774404
-1.7549495e-10 0.007925046 -5.8832498e-08 0.010555655 0.005753219 0.006763722 -1.3717362e-09 1.4193549e-06
-3.0258473e-08 0.0056042 0.008249025 0.010009899 -1.936403e-08 6.4211525e-10 0.009713256 1.2278956e-11
9.6690755e-08 1.9918887e-09 3.421519e-07 0.010467539 0.008123932 0.008012006 0.006667446 -4.0596543e-08
0.01005527 0.009746658 -2.1705087e-11 0.005742132 0.0077748615 7.274756e-08 0.00882549 0.008393949
0.009058405 0.0062987474 9.172221e-11 -1.1940912e-09 0.0065061073 -4.162939e-08 0.010951307 1.8701753e-08
4.5028044e-09 0.010304093 -4.501932e-09 0.009840498 3.3853573e-11 -1.772611e-05 -3.3532275e-09 -5.1464646e-08
5.5336592e-08 0.007968573 -6.4013005e-12 0.01049407 0.0033792579 0.008921273 1.3280031e-07 -1.5527594e-07
00000000: 71a3 293c dd9a 063c c284 1eb0 ec09 213c
00000010: 1b02 e33b ec4b ed3b 1a2a ee3b e68f ef3b
00000020: f08a 6e32 14af 90b2 07ef 2c3c 4668 123c
00000030: 6f04 8eb3 abd9 c73b dc76 303c 6c1c 193c
00000040: efe7 1e3c 80ec c5ae 9670 ff3b b7a2 af3b
00000050: df23 f83b 4c60 b73b 7fd7 193c 51c1 1f3c
00000060: 37b3 b43b cbc3 1d3c 6adc da3b a873 82b1
00000070: c83e 69b7 35dd ed3b 6737 303c 79dd 8032
00000080: 8a7e 1f3c 57ed ec3b 1cf0 d034 ee06 cf3b
00000090: 6f80 f83b 802b c3ad 1f44 af31 1007 a83b
000000a0: e6d3 9ab3 2e33 b1b7 d462 313c bed0 de34
000000b0: 9fc2 f03b eae7 c43b 4aa5 143c dc10 e23b
000000c0: 0f55 193c b5e2 e7b2 f5dd 93b1 4742 013c
000000d0: 70dc 702a 4f6d 5f30 5909 e43b a7ab c6b5
000000e0: 9fae 0f3c 769c 1735 0427 5231 bccb 313c
000000f0: f159 dd3b 7e3d bdb3 9db3 e23b 18c5 0f3c
00000100: 2572 f23b f04e 203c 4bb0 8bb2 f3ac 303c
00000110: 6ca4 e83b 0131 2e3c 0243 c031 9b72 9c3b
00000120: 70f5 40af 0dd8 013c 04af 7cb3 a0f1 2c3c
00000130: 8085 bc3b 36a2 dd3b ad87 bcb0 aa80 be35
00000140: 8bf5 01b3 70a3 b73b eb26 073c 8f00 243c
00000150: f455 a6b2 d880 3030 5924 1f3c 8003 582d
00000160: 4ea4 cf33 ade1 0831 00b1 b734 0a80 2b3c
00000170: 3e1a 053c ca44 033c 977a da3b 5f5c 2eb3
00000180: dcbe 243c 72b0 1f3c 83eb bead 7f28 bc3b
00000190: 44c4 fe3b 6539 9c33 ca98 103c c686 093c
000001a0: b469 143c b965 ce3b 04b3 c92e 591d a4b0
000001b0: 2f31 d53b 00cc 32b3 1c6d 333c 97a5 a032
000001c0: 16b7 9a31 80d2 283c 6aaf 9ab1 0a3a 213c
000001d0: bce3 142e 88b2 94b7 9a6e 66b1 fa09 5db3
000001e0: 3aab 6d33 9e8e 023c ca39 e1ac 52ef 2b3c
000001f0: 8a76 5d3b 882a 123c df97 0e34 edb9 26b4

net.4.0.weight f4 [256, 128]
0.013555016 0.042613562 -2.0353076e-08 0.0043455763 0.05195505 0.06051186 -0.0069822217 0.041581426
3.2770292e-10 -7.4828215e-08 0.07224351 0.041009173 -1.9745819e-07 0.008948243 0.112914026 0.049274784
0.09572603 5.73837e-10 -0.0034903078 0.020626022 0.018391276 0.012988175 -0.00255991 0.045884833
0.025966447 0.057257283 0.01994305 0.0001024504 -1.0921742e-05 0.024626607 0.0041481424 1.9476315e-06
-0.025254438 0.016446631 3.4946828e-09 0.0017472997 0.02667873 2.9870578e-11 -7.2078377e-10 0.0042152675
-7.496599e-09 -2.1956928e-05 0.09888618 -5.4074622e-05 0.0529085 0.012429494 0.05879454 0.07841062
0.024530955 -5.1544143e-06 2.654624e-08 0.04122544 4.3645198e-13 5.4629787e-08 0.036239393 -4.4210722e-07
0.059552643 1.0889565e-06 -6.6174537e-09 0.03637433 0.014492619 -2.3926011e-08 0.026047291 0.08202874
0.03645131 -0.021590017 5.2754683e-07 -0.026852157 0.003011259 0.06655073 2.6698752e-09 0.008327633
-1.07312804e-10 0.021873282 -2.1475581e-07 0.05123747 0.0014526983 0.002852751 -5.2181304e-09 6.424565e-05
2.0493092e-06 0.003399416 -0.0033282063 0.09075069 1.1764792e-07 2.9452724e-10 0.021959051 2.7272826e-11
-1.2688017e-05 2.368065e-10 7.8981815e-05 0.10729439 -0.017568476 0.069327004 0.05498936 -3.423722e-08
-0.03518077 -0.006742719 -4.812037e-12 0.009603845 0.03191875 -1.0853799e-05 0.07855797 0.06987322
-0.0072420835 0.07484645 9.229461e-12 -2.0058443e-12 0.021329118 -1.0105668e-06 0.004814653 1.4227868e-06
2.4673434e-09 -0.030666523 -2.774418e-09 -0.005820799 3.469238e-10 -2.16672e-06 1.6127424e-09 -8.470601e-09
-7.990013e-07 -0.027302979 -1.0960094e-11 0.009550781 0.012675219 0.010726288 -1.2650278e-07 4.221737e-06
0.09880528 -0.00038459277 -5.2071467e-08 0.012630727 0.01740121 0.073283434 -0.024119943 0.057087086
-2.4795206e-09 -2.0135704e-07 0.10236406 0.02912976 3.8284162e-07 0.013887848 -0.005683959 0.062678695
-0.015607475 -1.7839701e-08 0.045495734 0.015995037 0.044664588 0.022671686 0.006205751 0.026642114
0.036358364 0.0129839815 0.020382881 2.8045186e-05 -2.161437e-05 0.026977954 0.03609619 9.738689e-09
0.010320131 0.043023 -1.7485771e-08 0.037801307 -0.005658539 -1.4165379e-10 8.305197e-10 0.02620341
4.008372e-08 -2.3163237e-05 -0.0041817673 3.73788e-05 0.02192367 0.007456491 0.03798535 0.048622448
0.08031593 -7.161039e-08 1.1218837e-08 0.006965905 -3.1995896e-13 5.360669e-10 0.027558435 2.3605266e-07
0.08872966 -8.362869e-07 -1.9680222e-08 -0.03436411 0.05243628 -1.1685629e-07 -0.009028095 0.05419418
0.04550246 -0.040900342 -1.1662331e-07 0.10141638 -0.0075520645 -0.0072399783 -3.68978e-10 0.012975089
-3.7467838e-09 0.04471248 -1.584346e-06 0.011248161 0.02086891 0.04811788 -1.0794945e-09 2.8889388e-05
1.3385694e-07 0.0051509626 -0.0010026603 0.10557037 2.8779306e-07 9.339596e-06 0.08438471 -2.032078e-09
-6.551607e-06 2.856423e-08 -2.3265318e-05 -0.032178387 0.017755028 0.050885655 0.0010743649 -1.7641241e-07
0.009111698 0.03984159 -4.1703793e-12 0.018106522 0.040918544 -1.4354391e-06 -0.015072497 0.046869628
0.04875826 -0.014671662 -4.033578e-10 6.87192e-11 0.020656394 6.4068995e-10 0.051345896 -1.5787309e-07
-4.0828887e-09 0.10567773 -2.0996728e-07 0.023877708 -7.659025e-10 9.2898736e-05 -2.6657537e-08 -6.022531e-08
-2.639109e-08 0.042448074 -1.4284027e-10 0.04908681 0.01188893 -0.0024561456 1.6604065e-07 8.6920346e-07
00000000: dc15 5e3c 8f8b 2e3d e3d4 aeb2 5665 8e3b
00000010: d2ce 543d 49db 773d 1fcb e4bb 4951 2a3d
00000020: 1628 b42f 3fb1 a0b3 68f4 933d 3cf9 273d
00000030: e504 54b4 a79b 123c 783f e73d 5bd4 493d
00000040: 020c c43d 30bc 1d30 a6bd 64bb e7f7 a83c
00000050: 4da9 963c 5bcc 543c 2ac4 27bb bcf1 3b3d
00000060: 96b7 d43c 9d86 6a3d 9b5f a33c a4da d638
00000070: 863c 37b7 bdbd c93c 24ed 873b 0eb4 0236
00000080: 65e2 cebc 16bb 863c 1c27 7031 a605 e53a
00000090: 5a8d da3c 485f 032e a620 46b0 3a20 8a3b
000000a0: 64ca 00b2 2530 b8b7 d684 ca3d 2fce 62b8
000000b0: 95b6 583d 14a5 4b3c 8bd2 703d bf95 a03d
000000c0: 24f5 c83c 15f4 acb6 cd07 e432 02dc 283d
000000d0: 5cb3 f52a 16a2 6a33 c26f 143d c15a edb4
000000e0: 79ed 733d 4328 9235 bd5f e3b1 40fd 143d
000000f0: 7372 6d3c db85 cdb2 2161 d53c affe a73d
00000100: f84d 153d 8cdd b0bc be9c 0d35 0ef9 dbbc
00000110: 8b58 453b c04b 883d f178 3731 a070 083c
00000120: bdfb ebae 992f b33c a197 66b4 62de 513d
00000130: 7768 be3a 38f5 3a3b 294b b3b1 9fbb 8638
00000140: dd86 0936 bdc8 5e3b 091e 5abb 7fdb b93d
00000150: a1a5 fc33 06eb a12f 78e3 b33c f2e4 ef2d
00000160: 9ede 54b7 8d2f 822f 0aa3 a538 29bd db3d
00000170: c4eb 8fbc 51fb 8d3d 863c 613d 390c 13b3
00000180: b619 10bd 07f2 dcbb fa4e a9ac 7259 1d3c
00000190: 3cbd 023d b618 36b7 00e3 a03d b119 8f3d
000001a0: 004f edbb 1849 993d cc5d 222d 1426 0dac
000001b0: 67ba ae3c d0a2 87b5 3dc4 9d3b 95f6 be35
000001c0: f78d 2931 5c38 fbbc 14a8 3eb1 67bc bebb
000001d0: 2fb9 be2f f767 11b6 54a7 dd30 1986 11b2
000001e0: f47a 56b5 7faa dfbc e0cf 40ad e17a 1c3c
000001f0: b9ab 4f3c 50bd 2f3c d2d4 07b4 72a8 8d36
00000200: 6c5a ca3d 2ba3 c9b9 2fa5 5fb3 1cf1 4e3c
00000210: fb8c 8e3c a015 963d 3097 c5bc 26d4 693d
00000220: 3064 2ab1 9a34 58b4 40a4 d13d 89a1 ee3c
00000230: 5a89 cd34 db89 633c 8140 babb b05d 803d
00000240: 7fb6 7fbc eb3d 99b2 bc59 3a3d 0608 833c
00000250: 37f2 363d f9b9 b93c 9d59 cb3b 9040 da3c
00000260: 82ec 143d c4ba 543c 00fa a63c 9442 eb37
00000270: 8250 b5b7 df00 dd3c 99d9 133d 354f 2732
00000280: c415 293c e338 303d 9e33 96b2 8bd5 1a3d
00000290: 446b b9bb ffbf 1baf a14a 6430 89a8 d63c
000002a0: 8428 2c33 ac4e c2b7 3507 89bb 2ec7 1c38
000002b0: 4599 b33c 9455 f43b 8796 1b3d 5528 473d
000002c0: ae7c a43d 3ac8 99b3 f8bc 4032 3f42 e43b
000002d0: f21e b4aa 5b5a 1330 3ac2 e13c a975 7d34
000002e0: e5b7 b53d 337d 60b5 440d a9b2 62c1 0cbd
000002f0: 6dc7 563d 6df2 fab3 93ea 13bc b7fa 5d3d
00000300: ca60 3a3d 1e87 27bd 5872 fab3 64b3 cf3d
00000310: 4f77 f7bb 573d edbb 09d9 caaf 7895 543c
00000320: 0fbd 80b1 6f24 373d b7a5 d4b5 354a 383c
00000330: 47f5 aa3c 4117 453d 565d 94b0 7d57 f237
00000340: 51ba 0f34 68c9 a83b b26b 83ba 4735 d83d
00000350: fa81 9a34 42b1 1c37 e4d1 ac3d b2a4 0bb1
00000360: e0d5 dbb6 685d f532 e429 c3b7 7ccd 03bd
00000370: fe72 913c 7a6d 503d b4d1 8c3a e06b 3db4
00000380: 3b49 153c ef30 233d 70bb 92ac 2154 943c
00000390: 349a 273d 50a9 c0b5 a2f2 76bc 5efa 3f3d
000003a0: beb6 473d 6961 70bc 90bf ddaf 781d 972e
000003b0: 9937 a93c 8c1c 3030 1350 523d d383 29b4
000003c0: 7849 8cb1 916d d83d 5e73 61b4 2f9b c33c
000003d0: 9987 52b0 a1d2 c238 8bfc e4b2 3755 81b3
000003e0: 9fb2 e2b2 08de 2d3d f60d 1daf 400f 493d
000003f0: c9c9 423c 49f7 20bb e848 3234 3553 6935
