swarm/minimax/model_0.25_relaxation/Q-1400000.pth (torch, 338399 bytes, 10 tensors)

net.0.0.weight f4 [128, 8]
0.6164234 -0.46233624 -0.49233526 -0.4159628 -0.82544684 0.23957974 0.2667442 0.19373576
-2.012848e-39 -1.957768e-39 -2.094117e-39 -1.966903e-39 -2.02797e-39 -2.03223e-39 -1.837367e-39 -1.995563e-39
-0.0032345878 -0.0031950267 -0.0031612616 -0.0033025164 -0.0032808944 -0.0032167023 -0.0031551563 -0.0032626775
-0.42602 0.61245173 -0.30007747 -0.32093906 0.18341023 -0.79586905 0.07038479 0.059413888
-3.078066e-39 -6.555535e-39 -3.204355e-39 3.582761e-39 -6.404654e-39 -4.354497e-39 -1.66705e-40 -5.724299e-39
-2.911851e-09 -6.1075794e-10 3.242169e-10 3.9448195e-11 -6.416829e-10 2.161656e-10 -1.2046328e-10 -1.0815566e-09
-1.0576e-41 1.72243e-40 2.6812e-41 1.50254e-40 3.27048e-40 9.9002e-41 -2.4632e-41 2.44304e-40
-4.2312646e-18 -3.972109e-05 -2.910657e-06 -1.2764824e-11 -7.464359e-09 -4.5597517e-05 -2.408916e-08 -1.6552367e-16
-2.663099e-39 -6.6798e-40 -3.19294e-40 -5.25718e-40 -6.96423e-40 -4.61031e-40 -8.50427e-40 -2.361607e-39
-1.0103699e-05 -4.9585033e-06 -1.5151328e-05 -0.0004458922 -7.6729666e-05 -0.000101949765 -3.09751e-05 -4.3838154e-05
-0.3764084 -0.41808534 -0.32812533 0.5852997 0.20168972 0.22252321 0.13298884 -0.78220904
-8.126964e-05 -7.7735975e-05 -6.53376e-05 -5.017647e-05 -6.998594e-05 -7.245882e-05 -6.2499574e-05 -5.299104e-05
-0.00046063663 -0.00037633535 -0.0006553903 -0.000212922 -0.0007926638 -0.00057164836 -2.5037917e-07 -0.0005436651
-0.36629346 -0.37885416 0.6904846 -0.38909245 0.22352703 0.20028855 -0.825146 0.22693212
-5.91523e-39 -6.279743e-39 -6.240498e-39 -4.487577e-39 -1.510478e-39 -3.159115e-39 -3.153317e-39 -5.262185e-39
-0.2810933 -0.66305125 0.05685345 -0.52244353 0.1155605 -0.45999858 0.41789436 -0.89153385
-1.813817e-39 7.4985e-41 8.86655e-40 -1.438995e-39 -1.67737e-40 -2.295253e-39 -1.523438e-39 -6.11848e-40
-4.515288e-39 -4.63675e-39 -5.306199e-39 -2.11683e-40 -4.198795e-39 -3.528202e-39 -5.843005e-39 -4.963623e-39
-2.159566e-39 -6.874703e-39 -5.629242e-39 -5.323481e-39 -5.528442e-39 -5.658575e-39 -1.633181e-39 -5.76067e-39
-4.3106584e-11 -4.5055516e-26 -4.095684e-26 7.252634e-26 -2.0394323e-11 -3.11897e-26 1.2851032e-26 -2.8905185e-17
-4.034413e-39 -5.92472e-40 -1.222661e-39 -6.670028e-39 -6.141559e-39 -6.063427e-39 -6.22576e-39 -1.573619e-39
0.42414814 -0.5202483 0.40526754 -0.25785977 -0.14666392 0.30194756 -0.35839075 0.2579699
-0.003493486 -0.0028764731 -0.002943464 -0.003533841 -0.0035242888 -0.0028835754 -0.0029769219 -0.00299124
-0.000105237064 -9.557971e-05 -6.224969e-05 -7.072607e-05 -8.070754e-05 -8.9916575e-05 -8.309155e-05 -7.4840114e-05
-5.640991e-39 -4.556699e-39 -4.822419e-39 -5.765128e-39 -6.859884e-39 -5.963963e-39 -5.351835e-39 -3.669006e-39
-0.45022926 -0.44829518 0.5672507 -0.43365717 0.1257452 0.12641956 -0.8746287 0.07200325
-0.38075352 -0.13899371 0.38817868 0.40613866 0.4709091 0.42199054 -0.22560792 -0.3403714
-0.0018230587 -0.0013890777 -0.0018587407 -0.0013841834 9.9179604e-05 -0.0016981881 -0.0020995508 -0.001591833
-1.430836e-39 -4.124017e-39 -4.39997e-39 -6.601241e-39 -6.711232e-39 -4.775545e-39 -2.618388e-39 -6.771357e-39
-4.890906e-39 -5.883675e-39 -2.822654e-39 -2.271003e-39 -3.361632e-39 -6.589899e-39 -4.59809e-39 -3.421719e-39
-3.25056e-40 1.035996e-36 -1.80182e-40 -3.6888097e-32 2.469508e-36 -1.435726e-29 2.81312e-40 -1.98862e-40
-2.8748e-39 4.52774e-40 -4.505779e-39 -2.697316e-39 -4.864585e-39 -3.936889e-39 -3.295e-41 -4.725251e-39
00000000: edcd 1d3f 56b7 ecbe 5e13 fcbe 13f9 d4be
00000010: 7c50 53bf 6454 753e b292 883e ab62 463e
00000020: 00eb 1580 7651 1580 8ccd 1680 ed6a 1580
00000030: 2815 1680 0821 1680 d501 1480 d1ba 1580
00000040: 61fb 53bb a763 51bb 2b2d 4fbb 086f 58bb
00000050: 4604 57bb 4fcf 52bb bdc6 4ebb a5d2 55bb
00000060: 4b1f dabe a3c9 1c3f c1a3 99be 2052 a4be
00000070: e4cf 3b3e 13be 4bbf e725 903d fa5b 733d
00000080: 6584 2180 2a62 4780 70e4 2280 4803 2700
00000090: 92bd 4580 916a 2f80 b5d0 0180 0455 3e80
000000a0: d319 48b1 45e2 27b0 793d b22f b87e 2d2e
000000b0: 6b62 30b0 35ad 6d2f 6673 04af e4a5 94b0
000000c0: 7b1d 0080 25e0 0100 be4a 0000 d9a2 0100
000000d0: ad8f 0300 fa13 0100 aa44 0080 05a9 0200
000000e0: 2a1b 9ca2 329a 26b8 b554 43b6 a88f 60ad
000000f0: 993c 00b2 f63f 3fb8 9fec ceb2 f7d5 3ea5
00000100: a3ff 1c80 0e46 0780 107a 0380 7db9 0580
00000110: 5895 0780 2b05 0580 a542 0980 33b7 1980
00000120: 0f83 29b7 3861 a6b6 7532 7eb7 a3c6 e9b9
00000130: ede9 a0b8 ddcd d5b8 43eb 01b8 dcde 37b8
00000140: 9ab8 c0be 480f d6be 0b00 a8be 33d6 153f
00000150: c087 4e3e 20dd 633e 3a2e 083e da3e 48bf
00000160: 4e6f aab8 2f06 a3b8 db05 89b8 9374 52b8
00000170: 6ac5 92b8 08f5 97b8 3412 83b8 b242 5eb8
00000180: 9a81 f1b9 e04e c5b9 80ce 2bba d043 5fb9
00000190: c4ca 4fba acda 15ba da6b 86b4 bf84 0eba
000001a0: d18a bbbe 2cf9 c1be 99c3 303f 2037 c7be
000001b0: 45e4 643e 7118 4d3e c53c 53bf e560 683e
000001c0: 4169 4080 5e61 4480 f8f3 4380 8add 3080
000001d0: 9972 1080 5466 2280 2a56 2280 d54c 3980
000001e0: 76eb 8fbe babd 29bf 2adf 683d dcbe 05bf
000001f0: fcaa ec3d ef84 ebbe 40f6 d53e 903b 64bf
00000200: 2fc0 1380 07d1 0000 a2a7 0900 55ab 0f80
00000210: 95d3 0180 3bfe 1880 ba96 1080 95a9 0680
00000220: c92a 3180 5f7d 3280 86c7 3980 164e 0280
00000230: 88b8 2d80 316b 2680 ec9f 3f80 900c 3680
00000240: fe83 1780 e0db 4a80 094c 3d80 b3f7 3980
00000250: 0c33 3c80 ce9d 3d80 a5c8 1180 67ba 3e80
00000260: b395 3dae a71a 5f95 f6ce 4a95 0791 b315
00000270: ef63 b3ad a471 1a95 798a 7e14 384d 05a4
00000280: 4dee 2b80 9273 0680 4850 0d80 53a1 4880
00000290: 2be0 4280 5e06 4280 e3ca 4380 9c22 1180
000002a0: f229 d93e fe2e 05bf 3a7f cf3e 3206 84be
000002b0: 112f 16be df98 9a3e fe7e b7be a114 843e
000002c0: f8f2 64bb 3683 3cbb 22e7 40bb 0498 67bb
000002d0: c1f7 66bb 5efa 3cbb 7618 43bb ae08 44bb
000002e0: b8b2 dcb8 f771 c8b8 0c8c 82b8 c552 94b8
000002f0: 8841 a9b8 9891 bcb8 7041 aeb8 7bf3 9cb8
00000300: ca6c 3d80 399e 3180 f182 3480 d5c6 3e80
00000310: 91b2 4a80 1af1 4080 bd46 3a80 b2f3 2780
00000320: 7384 e6be f286 e5be 5837 113f 5008 debe
00000330: 5ac3 003e 2174 013e abe7 5fbf 7176 933d
00000340: 20f2 c2be 5e54 0ebe 5bbf c63e 68f1 cf3e
00000350: ff1a f13e 250f d83e c305 67be 2945 aebe
00000360: b3f3 eeba b711 b6ba fda0 f3ba 7d6d b5ba
00000370: a5fe cf38 bd95 deba 9e98 09bb 0da5 d0ba
00000380: 9794 0f80 15e8 2c80 54e9 2f80 93e1 4780
00000390: 2f14 4980 4700 3480 0083 1c80 cabb 4980
000003a0: db41 3580 4b11 4080 69bc 1e80 a2ba 1880
000003b0: dd9a 2480 f5c1 4780 9b11 3280 5c42 2580
000003c0: 208a 0380 fd43 b003 46f6 0180 b188 3f8b
000003d0: 1f15 5204 9499 918f 2f10 0300 592a 0280
000003e0: c64d 1f80 26ee 0400 4710 3180 055f 1d80
000003f0: 7cf8 3480 72de 2a80 da5b 0080 1474 3380

net.0.0.bias f4 [128]
-0.024194643 -2.900434e-39 -0.0032289275 0.046661828 -1.72511e-40 -8.9058e-06 -3.0466451e-21 -0.00041274788
-2.531451e-39 -0.0011209409 -0.014818594 -0.0008746858 -0.0018768276 -0.08456621 1.279355e-39 0.07560735
-3.397347e-39 2.577242e-39 6.5191e-40 -4.087568e-07 8.65578e-40 0.14508288 -0.002991767 -0.0014858155
1.518681e-39 0.10757234 0.012994953 -0.0020127348 5.74277e-40 1.91815e-39 -9.270307e-10 2.752517e-39
-0.0009595821 -7.12587e-40 -1.352668e-39 -0.058763884 -4.5718795e-10 1.885767e-39 -6.52225e-40 -4.1640125e-12
5.036146e-39 -0.002233774 -0.00012564693 -7.39305e-40 -0.0028694633 8.9071e-41 -1.218749e-39 -8.957546e-25
0.33172867 -0.00070903345 -0.0029104496 1.933734e-39 1.07114e-40 -1.061628e-39 0.05161568 -2.3228256e-05
-0.00022303371 -7.41056e-40 0.0668705 -0.051156335 1.796913e-39 -1.196197e-39 -1.760116e-39 -6.7402e-41
3.359603e-39 -0.0007578193 -7.34252e-40 0.09287361 -7.54179e-40 -0.001576532 -0.00035124322 1.82776e-39
-0.0007327153 -1.235288e-39 0.08573925 -3.103694e-39 4.3869e-41 6.80319e-40 2.364991e-39 -2.911681e-39
-3.11716e-39 -1.393984e-39 6.84382e-40 -2.039112e-39 -0.0027615381 -1.295894e-39 -0.0034738153 -0.000113164366
-0.0021543095 0.027620127 -1.821255e-39 4.97666e-40 -0.00391492 2.166395e-39 -2.675103e-39 -0.00014921468
1.91951e-39 -5.17226e-40 -0.0013589176 -6.41478e-40 -0.0031249183 -9.20835e-40 -2.331241e-39 -3.4950464e-08
1.810873e-39 1.790621e-39 -0.0026096872 -1.186708e-39 -8.13085e-40 2.795746e-39 -0.0018863035 -1.6377129e-08
-2.091553e-39 -0.056531142 -0.0031696493 -0.0031420994 0.019343758 -0.0024845668 -0.0015483875 -2.27505e-40
-0.0017849648 -0.0028179567 0.042426467 2.020518e-39 0.10421224 -0.0025007485 -0.0028490957 2.35826e-39
00000000: d833 c6bc 3b95 1f80 6a9c 53bb 7920 3f3d
00000010: e4e0 0180 1f6a 15b7 b032 669d 1566 d8b9
00000020: a890 1b80 89ec 92ba b0c9 72bc 2c4b 65ba
00000030: e2ff f5ba 0d31 adbd 52ee 0d00 07d8 9a3d
00000040: 6cfe 2480 4d10 1c00 4319 0700 1b73 dbb4
00000050: e16c 0900 9b90 143e 8511 44bb b2bf c2ba
00000060: 7789 1000 e34e dc3d c9e8 543c 16e8 03bb
00000070: da40 0600 06e3 1400 fcd1 7eb0 e6f8 1d00
00000080: 778c 7bba 67c2 0780 b0ba 0e80 66b2 70bd
00000090: 7c57 fbaf c088 1400 231a 0780 1782 92ac
000000a0: bad6 3600 8264 12bb 17c0 03b9 e20c 0880
000000b0: 9b0d 3cbb 4bf8 0000 6045 0d80 7f9c 8a97
000000c0: 57d8 a93e 6ede 39ba 3ebd 3ebb 770e 1500
000000d0: 972a 0100 638f 0b80 f76a 533d 4dda c2b7
000000e0: 28de 69b9 c311 0880 67f3 883d 4e89 51bd
000000f0: 1091 1300 8306 0d80 7d2a 1380 e4bb 0080
00000100: 3595 2400 64a8 46ba ccfe 0780 8534 be3d
00000110: 5836 0880 a3a3 ceba 1127 b8b9 0de7 1300
00000120: b113 40ba 7b73 0d80 0f98 af3d d6cb 2180
00000130: 4a7a 0000 7468 0700 a2c0 1900 95b4 1f80
00000140: 60f1 2180 dc2d 0f80 c773 0700 3734 1680
00000150: ecfa 34bb 6d1c 0e80 f3a8 63bb a852 edb8
00000160: 512f 0dbb 9b43 e23c ebd4 1380 4a6b 0500
00000170: bb48 80bb 0797 1700 1921 1d80 8376 1cb9
00000180: d0e6 1400 d1a1 0580 b51d b2ba 2efc 0680
00000190: 6ecb 4cbb ea06 0a80 8d62 1980 711c 16b3
000001a0: fab7 1300 867f 1300 4907 2bbb 0fec 0c80
000001b0: 8dda 0880 6771 1e00 d83d f7ba b0ad 8cb2
000001c0: 66c6 1680 338d 67bd e4b9 4fbb aeeb 4dbb
000001d0: cd76 9e3c 1dd4 22bb 43f3 caba 317a 0280
000001e0: 7bf5 e9ba 78ad 38bb 60c7 2d3d 6200 1600
000001f0: 3a6d d53d 99e3 23bb e5b7 3abb dfad 1900

net.1.0.weight f4 [128, 128]
-7.36452e-40 1.38445e-40 -3.468324e-39 -1.255719e-39 3.849127e-38 1.36946e-40 5.3842147e-38 -8.318547e-38
-3.52027e-40 5.439101e-39 -3.319718e-39 8.1101864e-38 4.034596e-38 -3.289706e-39 4.1533e-41 -1.541882e-39
-5.60982e-40 -1.6731599e-37 1.23554e-40 5.83299e-40 2.06245e-39 -4.191196e-10 1.209778e-38 8.5865875e-38
5.45586e-39 -4.960285e-39 -1.7500548e-16 5.1563557e-38 5.3522135e-38 -6.38011e-40 5.138268e-38 5.492552e-38
9.1793883e-38 1.03092e-40 4.34614e-40 -7.06718e-40 1.6512e-40 -1.8568061e-37 5.03047e-40 8.531255e-38
7.9768074e-38 1.3492751e-37 5.286239e-38 2.80498e-40 -7.4515896e-38 -1.81324e-40 1.52642e-40 1.2395101e-37
-6.3414205e-05 -1.5654365e-38 2.57243e-40 -3.6313764e-38 -5.87964e-40 8.1571e-41 -8.51401e-40 1.1996657e-37
-1.0276607e-38 -3.01226e-40 -9.81764e-40 -6.7872e-40 5.89367e-40 1.0595e-40 3.36834e-40 -9.442e-41
2.88375e-40 -8.58447e-40 5.9996e-40 6.988912e-39 2.25619e-40 -6.641464e-38 -3.97576e-40 6.1414966e-38
-1.006006e-39 2.7743e-41 -1.9332796e-16 2.03312e-40 -1.66069e-40 -6.33942e-40 1.3725e-40 1.130359e-39
4.56865e-40 -5.926394e-38 -9.0474107e-38 1.02925e-40 -1.655568e-37 -4.18083e-40 1.475e-40 2.1773622e-38
-5.7144234e-38 -8.9176e-40 6.172e-40 -6.35339e-40 1.1846922e-37 -3.873393e-38 2.7588e-40 7.7314395e-38
-6.7256e-40 -2.59771e-40 7.478138e-38 9.3307e-41 1.0448799e-37 6.57467e-40 -2.11122e-40 -1.3960466e-37
-5.096906e-38 1.3996629e-37 1.3247019e-37 -2.61286e-40 -4.4819e-41 -1.649027e-39 -5.685055e-39 4.3366e-40
-1.88496e-40 -4.29907e-40 5.573658e-38 7.848967e-38 4.4668208e-13 6.5527855e-38 4.82561e-40 -6.10993e-40
2.00764e-40 6.7217e-41 1.58363e-39 -3.69472e-40 -3.2953e-40 3.2293943e-38 -2.5301038e-38 5.658286e-39
-2.4295564 8.50588e-40 -0.0033080515 -0.5374485 1.600473e-39 1.30835254e-20 9.0918064e-07 3.5121704e-15
-6.52275e-40 4.7614152e-11 -0.6869058 5.8661535e-05 -0.00019010736 -2.818603 5.250855e-39 -0.01281563
-6.43965e-40 -3.662571e-39 5.259951e-38 2.1880719e-29 -1.6299016e-37 -0.15727368 -0.0029729153 6.177383e-08
4.178102e-39 -1.3646809 -0.052022852 -0.0011990176 6.644722e-39 -2.418927e-39 7.97e-42 3.482682e-39
0.0003382936 2.1708e-40 -2.020939e-39 -1.3541322 -1.401387e-39 -5.135487e-39 1.99336e-40 7.3868515e-15
-2.590597e-39 0.0015313005 -0.0022264437 5.6206e-41 -0.0028976467 -5.77384e-40 -1.082066e-39 -4.156049e-28
0.058845785 -1.0561849e-06 -0.0041098767 3.5309e-39 -1.85697e-40 5.21346e-40 0.3593951 2.3256e-41
4.768205e-39 6.86842e-40 -2.006751 -1.4065526 2.728827e-39 6.12237e-40 -9.2923e-40 -2.288035e-39
-8.67946e-40 3.805931e-39 -1.93522e-40 -1.688581 -2.63625e-40 0.0004884694 -7.46869e-16 -1.63949e-40
-2.6689215 -6.74366e-40 -0.14514844 2.622369e-39 5.188402e-38 -4.83151e-40 -5.48195e-40 -7.00663e-40
-1.9981e-39 -1.307622e-39 8.39463e-40 1.627256e-39 0.0024593712 -5.71168e-40 -0.002475394 -1.6583135e-17
-0.0001990806 -0.4116259 -1.4047764e-37 -1.000048e-39 -0.0029224465 6.640022e-39 -2.603838e-39 1.5765e-14
8.6486e-40 -3.27493e-40 0.0004502096 -1.65713e-40 -0.0003861023 9.08217e-40 -2.04039e-40 -7.30465e-40
2.101663e-39 -1.75785e-39 -0.0027225227 6.45515e-40 5.5039e-40 2.465858e-39 -0.0028318458 -0.0014187971
-1.370136e-39 -1.6508881 4.804939e-06 0.003164224 -0.19727427 -0.0011730675 7.072662e-06 -1.12755e-40
0.0001715202 -0.0024448715 -0.9219317 2.322013e-39 -0.94577485 -0.00026468615 0.0020583023 -9.65958e-40
00000000: ee04 0880 ee81 0100 47c4 2580 6fac 0d80
00000010: 0091 5101 c07d 0100 8092 9201 d073 e281
00000020: 4fd5 0380 003a 3b00 0626 2480 c0c7 dc01
00000030: 10aa 5b01 5dd2 2380 c773 0000 24ca 1080
00000040: ca1b 0680 1dbd 6382 6b58 0100 005a 0600
00000050: 4675 1600 d769 e6af b0bb 8300 c8bf e901
00000060: b868 3b00 4203 3680 80c4 49a5 8e5e 8c01
00000070: 7cb3 9101 84f2 0680 80e0 8b01 8085 9501
00000080: 00e3 f901 611f 0100 87bb 0400 0bb2 0780
00000090: 4acc 0100 40bc 7c82 4a7a 0500 2c3e e801
000000a0: 3c26 d901 60a7 3702 b6e7 8f01 ea0d 0300
000000b0: 00da ca81 75f9 0180 81a9 0100 a0b6 2802
000000c0: 3efd 84b8 0076 aa80 17cd 0200 00b6 4581
000000d0: 0167 0680 63e3 0000 5c45 0980 404a 2302
000000e0: 00e7 6f80 b247 0380 c2b0 0a80 ff63 0780
000000f0: ea6a 0600 5827 0100 f5aa 0300 3407 0180
00000100: df23 0300 0059 0980 7288 0600 3e1a 4c00
00000110: ef74 0200 40cc b481 4854 0480 fc2f a701
00000120: 56f4 0a80 564d 0000 58e4 5ea5 c036 0200
00000130: efce 0180 2ce7 0680 997e 0100 fb4e 0c00
00000140: 8ef9 0400 f054 a181 404b f681 ea1e 0100
00000150: 2058 6182 728d 0480 2c9b 0100 0018 ed00
00000160: b88f 9b81 ddb5 0980 81b8 0600 11eb 0680
00000170: 8040 2102 38e3 5281 0b01 0300 4578 d201
00000180: d352 0780 23d4 0280 0493 cb01 1a04 0100
00000190: c038 0e02 c028 0700 864c 0280 2005 3e82
000001a0: 40c0 8a81 2283 3e02 204f 3402 5cd8 0280
000001b0: f07c 0080 d1f4 1180 9fe7 3d80 deb8 0400
000001c0: 730d 0280 68ae 0480 baba 9701 51ab d501
000001d0: ac75 fb2a 4062 b201 2f41 0500 33a7 0680
000001e0: a62f 0200 60bb 0000 843e 1100 f005 0480
000001f0: 9896 0380 30d3 2f01 80c0 0981 009d 3d00
00000200: da7d 1bc0 1843 0900 e5cb 58bb 3a96 09bf
00000210: 786d 1100 0c24 771e 6b0e 7435 1c14 7d27
00000220: 471a 0780 c568 512e 0fd9 2fbf 580b 7638
00000230: 8e57 47b9 fe63 34c0 3f2d 3900 a6f8 51bc
00000240: 1d03 0780 c2e1 2780 8230 8f01 98e5 dd0f
00000250: c8d9 5d82 5a0c 21be 3ed5 42bb 86a8 8433
00000260: d97e 2d00 ddad aebf ea15 55bd 5b28 9dba
00000270: c85a 4800 fc56 1a80 3816 0000 4dec 2500
00000280: 005d b139 215d 0200 8e01 1680 3454 adbf
00000290: 7f42 0f80 a6eb 3780 ab2b 0200 d711 0528
000002a0: 8835 1c80 ebb5 c83a 87e9 11bb ae9c 0000
000002b0: 72e6 3dbb 8349 0680 5cc8 0b80 e0b5 0392
000002c0: 4708 713d 3dc2 8db5 25ac 86bb b672 2600
000002d0: a605 0280 4dad 0500 a202 b83e d440 0000
000002e0: d1eb 3300 a37a 0700 9c6e 00c0 ea09 b4bf
000002f0: dcb6 1d00 abaa 0600 511e 0a80 1cea 1880
00000300: 7b73 0980 6371 2900 761b 0280 6c23 d8bf
00000310: e1de 0280 a00c 003a 3545 57a6 06c9 0180
00000320: 9ccf 2ac0 dc57 0780 cba1 14be 198e 1c00
00000330: e23d 8d01 d442 0580 25f8 0580 2aa1 0780
00000340: e4c1 1580 1e3d 0e80 1524 0900 21b8 1100
00000350: 672d 213b 2f38 0680 383a 22bb d2f3 98a3
00000360: 4bc0 50b9 a1c0 d2be 5035 3f82 bae3 0a80
00000370: 8486 3fbb ae4d 4800 715a 1c80 9dff 8d28
00000380: e16a 0900 eb90 0380 1c0a ec39 f1cd 0180
00000390: c66d cab9 bde3 0900 c738 0280 3df4 0780
000003a0: 95e2 1600 2c24 1380 5a6c 32bb 6f07 0700
000003b0: 43fe 0500 cfd9 1a00 7d96 39bb eef6 b9ba
000003c0: 62eb 0e80 4d50 d3bf 1d3a a136 df5e 4f3b
000003d0: 4402 4abe 9dc1 99ba b451 ed36 513a 0180
000003e0: 1ada 3339 233a 20bb b703 6cbf d448 1900
000003f0: 4d1e 72bf 93c5 8ab9 95e4 063b b384 0a80

net.1.0.bias f4 [128]
-0.00014302891 0.30557978 0.449994 -0.004162678 -0.0026595364 -2.3357389e-08 -2.6278724e-07 -1.478374e-39
0.0919657 1.2401447 -0.0031825204 0.35157424 -0.0017258106 -7.488425e-05 0.20514742 0.2685049
0.30252004 -0.0031413082 0.51469547 -0.0020065524 -6.608273e-05 -0.0015819117 -0.0017447161 -2.989073e-39
-8.337822e-09 0.27703273 -0.0008336995 -0.0019212798 0.99361527 0.1844411 0.37612903 0.22170813
-0.0018953487 -0.002200251 -3.1433765e-30 -1.9372796e-20 0.038432743 -3.0149273e-08 1.0904841 -1.953683e-08
-0.0014749423 -0.0027292822 0.25156975 -0.00019906959 -2.373732e-32 0.29561254 0.34403253 -1.342992e-39
-1.4828772e-11 0.044262327 -1.4401712e-14 -0.00216055 -0.0028424491 -3.579243e-07 0.7720668 -3.3816016e-07
0.231176 -0.0036687779 -9.0563044e-05 -0.0008448447 -0.001495773 -0.003841964 -7.0824655e-34 -0.0026289825
0.20732616 0.49615774 0.17541867 -0.0019161745 -0.0011665246 0.6222204 0.58906704 0.30824912
-0.002190479 -0.0010546307 -0.0040403306 0.24174087 -0.0024508648 -0.0009142104 0.1938855 -2.484611e-15
-5.647171e-20 -0.0003530553 -0.0015224181 -0.0013317093 -7.603295e-09 -1.571573e-39 -0.0029162765 0.09446453
0.14743829 -0.00021809565 0.46554723 -0.00020919355 -5.7316092e-06 -1.1533735e-07 0.78978807 -0.0011297071
-1.2977784e-05 -0.0009390616 0.111341454 -0.002920872 -2.5035183e-06 -5.03625e-40 -0.0029387765 -0.0024451583
-0.0030919872 -2.3505493e-23 -2.9886136e-19 0.18280673 -0.0006317192 0.84207493 -0.00051841163 0.5812199
-0.0036265037 -0.0019008635 -0.00014918737 -0.0011778754 -0.0002557838 -1.5533844e-08 0.33280373 -1.771538e-39
-0.0023197613 0.10626477 0.7322597 -0.001093515 -0.00293114 -2.2682691e-09 -0.086192496 -1.5417792e-10
00000000: 08fa 15b9 f474 9c3e 9d65 e63e 1367 88bb
00000010: 9e4b 2ebb 71a3 c8b2 3415 8db4 1b19 1080
00000020: 8358 bc3d 10bd 9e3f d591 50bb 8a01 b43e
00000030: 9834 e2ba 2d0b 9db8 2a12 523e 7979 893e
00000040: e8e3 9a3e 68de 4dbb 15c3 033f 5d80 03bb
00000050: e595 8ab8 2658 cfba f5ae e4ba 528c 2080
00000060: 213e 0fb2 3cd7 8d3e a08c 5aba 74d3 fbba
00000070: 925d 7e3f 21de 3c3e fc93 c03e 7507 633e
00000080: 596d f8ba 1632 10bb 6005 7f8e 8cf8 b69e
00000090: a76b 1d3d 7a7d 01b3 fc94 8b3f f2d1 a7b2
000000a0: da52 c1ba c2dd 32bb c0cd 803e 56bd 50b9
000000b0: 9f80 f68a 875a 973e 0825 b03e b79f 0e80
000000c0: 6d6f 82ad 6a4c 353d 16b8 81a8 0498 0dbb
000000d0: 6248 3abb be28 c0b4 2ba6 453f 618c b5b4
000000e0: 67b9 6c3e e16f 70bb aaec bdb8 9178 5dba
000000f0: d00d c4ba 76c9 7bbb f45a 6b88 024b 2cbb
00000100: 4f4d 543e 6308 fe3e f4a0 333e 2628 fbba
00000110: 12e6 98ba d649 1f3f 19cd 163f d4d2 9d3e
00000120: 248e 0fbb 893b 8aba c064 84bb eb8a 773e
00000130: b09e 20bb 9fa7 6fba ec89 463e fc08 33a7
00000140: 0e57 859f 481a b9b9 e08b c7ba c08c aeba
00000150: a59f 02b2 e81c 1180 001f 3fbb 9f76 c13d
00000160: 10fa 163e 9bb0 64b9 355c ee3e f75a 5bb9
00000170: 2652 c0b6 61af f7b3 8d2f 4a3f ae12 94ba
00000180: 28bb 59b7 5b2b 76ba fd06 e43d 1a6c 3fbb
00000190: 1e02 28b6 e77b 0580 7d98 40bb f33e 20bb
000001a0: f0a2 4abb c854 e399 a76a b0a0 b031 3b3e
000001b0: f599 25ba 3992 573f 04e6 07ba d4ca 143f
000001c0: a3aa 6dbb 6526 f9ba 2e6f 1cb9 f162 9aba
000001d0: b81a 86b9 496f 85b2 4065 aa3e 544a 1380
000001e0: 2307 18bb 58a1 d93d 5f75 3b3f 4654 8fba
000001f0: 5e18 40bb d0df 1bb1 b185 b0bd 3a85 29af

net.2.0.weight f4 [128, 128]
3.993195e-38 -1.6316348 -0.6909513 0.0011982343 0.002580986 5.550201e-39 -5.924286e-39 -4.53408e-40
0.9465678 0.5715533 -0.00024531595 -1.4496546 -0.0039293347 1.480012e-39 -1.5372325 -1.6770297
-1.3798248 -2.3468823e-23 0.88339484 1.46692e-40 -1.491301e-39 3.039636e-16 1.0178942e-12 -1.22148e-39
3.570568e-38 -1.8181088 0.0028923075 1.6088164e-08 0.25844315 -1.7108483 1.1114517 -2.0678754
-2.484777e-08 1.7114772e-08 -2.475231e-39 2.5129053e-37 1.0537537 -2.157896e-39 0.14887503 -5.1074717e-38
-0.00040900172 0.0002038852 -1.5225644 -1.59798e-39 -1.456134e-39 -1.3353674 -1.3755686 -1.395113e-39
-1.7584595e-23 0.72692174 1.71733e-40 -5.318938e-07 -6.253135e-39 -5.56727e-39 -0.052426066 -1.529775e-39
-1.7471782 0.002251017 2.929061e-38 -1.90003e-39 -5.8652027e-08 -1.4681305e-08 7.448936e-38 1.9014783e-22
-1.758423 -0.37730843 -2.0574613 0.0001072425 -7.268936e-09 -0.41469607 -0.20502275 -1.6022174
5.8279397e-06 -0.0017053942 9.896146e-05 -2.170377 1.7570865e-06 -4.556795e-38 -1.7555906 4.487238e-39
-1.369367e-39 -5.247558e-34 8.559764e-08 0.003690025 2.5607377e-37 -5.284435e-39 -1.8900777e-25 0.98058325
0.7739183 -1.693986e-39 0.8982727 2.094138e-39 5.799382e-39 1.6579285e-37 -0.059397418 8.657428e-14
7.708188e-27 2.1179662e-12 1.0505286 4.3030232e-24 4.0072316e-38 -4.017419e-39 -3.6446595e-06 2.648939e-39
0.0018636375 -4.206903e-39 -3.699214e-39 -1.6553195 -7.4515425e-38 0.1248754 -2.838048e-39 -0.3281017
0.0009946183 6.529319e-06 -6.7626277e-38 -9.03361e-40 4.08384e-39 -1.362956e-39 -0.79427475 -6.50187e-40
1.5399317e-15 1.0452504 -0.041072655 5.6830224e-10 -7.1148555e-05 -3.443398e-39 0.8688941 9.6273e-40
1.238416e-37 -0.0036659518 -0.003776286 6.058237e-38 -1.1599003e-37 1.6166814e-37 -2.0362369e-38 -1.6012e-40
-0.0042651673 -0.0038702975 -5.5625764e-38 -0.0036455926 -1.4028132e-37 1.4932572e-37 -0.0036911515 -0.0036282833
-0.0036947154 -2.7951398e-37 -0.003830184 7.622059e-38 -9.2194e-41 -1.1029766e-37 1.3875267e-37 -2.87611e-40
1.2234323e-37 -0.0036776976 1.860171e-38 -7.461957e-38 -0.0038459732 -0.0036757265 -0.0037316463 -0.003627703
1.4024267e-37 1.4727113e-37 -6.5575925e-38 -9.439677e-38 -0.0034746928 -1.7331798e-38 -0.003852731 1.1832035e-37
-5.225883e-39 1.128034e-38 -0.0036377674 -7.573128e-38 1.9657448e-38 -0.00367945 -0.0036422776 1.927189e-38
-1.4242035e-38 -0.0017620235 1.8945129e-38 -8.4016923e-38 -2.8002616e-37 1.4079816e-37 -0.0038029947 -3.082372e-39
-0.0036755619 1.1056348e-37 -4.26634e-40 8.9418716e-38 4.0566537e-38 4.18463e-40 -9.846672e-38 -4.578891e-39
-0.0036598498 -0.0037700026 -0.0036786902 1.21877e-40 1.0264948e-37 -0.0037836519 -0.0037982394 -0.0036529768
-3.6341386e-38 5.8769337e-38 -1.2917165e-37 -0.003648699 3.4249562e-38 4.1373135e-38 -0.003607953 -1.314614e-37
-1.278881e-37 -1.4554778e-37 9.56481e-38 -4.4403e-41 1.7721022e-38 -1.40085e-39 1.2189046e-37 0.0045029335
-0.0039197435 -2.7739055e-37 -0.0038898382 -2.5892e-40 4.3752798e-38 8.0550133e-38 -0.0038021842 1.8964066e-37
-3.59825e-40 -5.1975304e-38 -0.0034453596 -1.828735e-39 6.03639e-39 5.669622e-38 2.8198233e-37 1.0534177e-38
8.127585e-38 3.9621636e-38 4.247894e-38 -0.0036040253 -5.1951986e-38 -0.0038079985 -1.69142e-40 -0.003789153
1.1086961e-38 3.470736e-38 -3.242654e-38 -8.48438e-39 -1.676715e-39 -1.4965619e-37 -0.0037553315 1.69261e-40
-1.1590429e-37 -0.003623117 -0.0037981127 2.8225236e-37 3.926972e-38 -1.9276127e-38 0.0041998457 -9.366577e-38
00000000: 0469 5901 69d9 d0bf 2fe2 30bf 120e 9d3a
00000010: c225 293b b46f 3c00 8082 4080 ebef 0480
00000020: 4452 723f 5151 123f c09d 80b9 488e b9bf
00000030: a6c1 80bb ac1d 1000 09c4 c4bf e9a8 d6bf
00000040: 199e b0bf fef9 e299 2a26 623f eb98 0100
00000050: 243d 1080 1c39 af25 8141 8f2b fd4c 0d80
00000060: 7466 4201 cab7 e8bf de8c 3d3b 3f32 8a32
00000070: a952 843e 14fd dabf 0d44 8e3f 1258 04c0
00000080: d370 d5b2 c803 9332 f0f3 1a80 fc04 ab02
00000090: 67e1 863f 567f 1780 b272 183e e209 8b81
000000a0: 486f d6b9 04ca 5539 64e3 c2bf 8566 1180
000000b0: 1cdb 0f80 52ed aabf a212 b0bf 0231 0f80
000000c0: 5911 aa99 8b17 3a3f b9de 0100 77c7 0eb5
000000d0: 3217 4480 499f 3c80 b7bc 56bd 64a8 1080
000000e0: 89a3 dfbf cc85 133b 2779 1f01 83b0 1480
000000f0: 96e8 7bb3 1039 7cb2 82c7 ca01 e7df 651b
00000100: 0114 e1bf 922e c1be 72ad 03c0 61e7 e038
00000110: 3dc2 f9b1 0b53 d4be 7cf1 51be 7615 cdbf
00000120: 9f8d c336 8987 dfba 8789 cf38 75e7 0ac0
00000130: 08d5 eb35 7418 7881 31b7 e0bf 98dc 3000
00000140: 3de9 0e80 4961 2e88 cdd1 b733 59d4 713b
00000150: 5846 ae02 db8a 3980 f4fa 6996 8107 7b3f
00000160: 821f 463f 2572 1280 33f5 653f 9bcd 1600
00000170: 5126 3f00 60aa 6102 b54a 73bd adf2 c229
00000180: 28ad 1814 e309 152c b977 863f 1477 a618
00000190: a82c 5a01 eebe 2b80 c696 74b6 2ad8 1c00
000001a0: 4c45 f43a 22cf 2d80 e747 2880 82e1 d3bf
000001b0: acd9 ca81 acbe ff3d 53e7 1e80 f2fc a7be
000001c0: da5d 823a 6c16 db36 a318 b881 34d6 0980
000001d0: 1678 2c00 5ed7 0e80 9755 4bbf 7514 0780
000001e0: 74ed dd26 c4ca 853f cd3b 28bd b736 1c30
000001f0: 9735 95b8 cb7e 2580 d86f 5e3f b37b 0a00
00000200: 8090 2802 7740 70bb 917b 77bb c0eb a401
00000210: a0e0 1d82 200d 5c02 00ba dd80 59be 0180
00000220: d1c2 8bbb d1a4 7dbb 806d 9781 e5ea 6ebb
00000230: e8f0 3e82 6b40 4b02 3fe7 71bb 7ec8 6dbb
00000240: 0a23 72bb 343a be82 d303 7bbb 007e cf01
00000250: 0001 0180 2021 1682 40dc 3c02 be21 0380
00000260: 6586 2602 8705 71bb 008e ca00 4022 cb81
00000270: b90c 7cbb 75e4 70bb a38e 74bb c2be 6dbb
00000280: 70e3 3e02 8074 4802 c083 b281 797c 0082
00000290: acb7 63bb 00ba bc80 1a7e 7cbb a00c 2102
000002a0: a3e7 3880 00d5 7a00 9c67 6ebb 0029 ce81
000002b0: f80c d600 ed22 71bb 47b3 6ebb 30da d100
000002c0: 0015 9b80 b3f3 e6ba 504b ce00 40b7 e481
000002d0: 7093 be82 00a5 3f02 aa3b 79bb 6690 2180
000002e0: b2e1 70bb c07d 1602 48a5 0480 c06b f301
000002f0: 80dd 5c01 818e 0400 a506 0682 16dc 3180
00000300: 17da 6fbb 2612 77bb 2e16 71bb be53 0100
00000310: 20b8 0b02 25f7 77bb e2eb 78bb c866 6fbb
00000320: 80dc 4581 40fc 9f01 c0d1 2f82 031f 6fbb
00000330: ec78 3a01 bc41 6101 6873 6cbb 9def 3282
00000340: 8012 2e82 001c 4682 8030 0202 c77b 0080
00000350: 00f7 c000 0041 0f80 a0e8 2502 588d 933b
00000360: 3171 80bb 40c8 bc82 a8ec 7ebb c3d1 0280
00000370: 8036 6e01 4047 db01 112e 79bb 1010 8102
00000380: 0ceb 0380 807d 8d81 8bcb 61bb c5e9 1380
00000390: 00bb 4100 8057 9a01 40e8 bf02 00b5 7200
000003a0: 0041 dd01 80b8 5701 0047 6701 8331 6cbb
000003b0: 406d 8d81 9d8f 79bb 80d7 0180 7053 78bb
000003c0: f0b9 7800 00f7 3c01 008c 3081 0063 5c80
000003d0: 0042 1280 92b3 4b82 021c 76bb d5d7 0100
000003e0: c0c2 1d82 d171 6dbb c2e9 78bb 4c17 c002
000003f0: 00ce 5501 00e6 d180 dc9e 893b 84fb fe81

net.2.0.bias f4 [128]
0.5876723 -0.0038016906 1.1281912 -6.000312e-39 0.4807182 0.5582159 0.5694632 3.548e-40
1.2041041 -0.00026872425 0.54886645 1.1259593 1.0653504 1.094948 0.6102729 5.3084737e-10
-0.0035305887 -0.0029243059 1.0761981 0.53478473 -3.107434e-39 -0.0029510546 1.1030582 -9.367567e-08
-4.76675e-39 1.1248574 -4.523369e-09 1.1073254 1.2189988 -1.4838163e-12 -8.7886e-40 1.1699008
-5.787556e-39 -5.6221307e-08 -5.974219e-39 0.46735469 1.1641378 -2.18494e-39 1.113166 1.1699498
-0.00062796124 1.367257e-39 0.48568097 -9.7048e-40 -0.0012195808 -1.6716228e-28 -3.655853e-39 1.1897643
0.54348785 0.5415575 -0.0005288141 -2.1918e-41 -5.5523535e-05 0.54494566 0.51513153 -1.9196186e-13
-3.3450777e-20 -6.4134434e-07 -5.3448e-41 -0.0004609216 1.0936751 -2.566934e-39 -2.7919292e-05 -2.0698939e-22
-4.98821e-39 -0.0021759167 1.0531073 1.2083415 0.4434087 0.518911 0.5294478 -0.0023019207
0.50468886 -1.494008e-39 1.1104923 -0.0024374824 -1.939533e-39 -0.00016192284 0.5824492 0.57326716
-1.065871e-39 0.5767743 0.55303425 -3.364065e-39 -3.0077096e-18 1.0703815 1.1318063 0.50495166
-2.035535e-39 -1.004271e-39 -0.0011371608 -1.58152e-39 -1.858608e-39 -5.211162e-07 -1.876039e-39 0.5301183
1.2052577 -1.7446495e-14 1.1721419 -1.4227729e-10 -0.00062510505 0.565425 0.508836 -2.9815412e-27
-5.475324e-39 -0.0028156606 1.14734 -1.386728e-39 0.43683314 0.48652396 0.48674616 0.5598841
-8.24647e-16 -2.753183e-39 -2.824332e-39 -4.6293597e-05 1.1432338 0.4300349 0.5391731 0.55556136
-4.816578e-39 -1.603059e-39 -3.08772e-39 3.881472e-18 1.1605598 -1.0805489e-08 0.5651464 0.51311404
00000000: b171 163f c925 79bb 9268 903f 6e56 4180
00000010: b220 f63e 3de7 0e3f 57c8 113f 0add 0300
00000020: 1520 9a3f 8fe3 8cb9 8382 0c3f 6f1f 903f
00000030: 675d 883f 4227 8c3f d83a 1c3f 10eb 1130
00000040: 7361 67bb b6a5 3fbb dcc0 893f a7e7 083f
00000050: 43d6 2180 7b66 41bb 0331 8d3f bf2a c9b3
00000060: c2e7 3380 54fb 8f3f f96b 9bb1 d7bc 8d3f
00000070: 2708 9c3f 1ed4 d0ab e791 0980 4fbf 953f
00000080: 5a05 3f80 fb77 71b3 b10d 4180 1d49 ef3e
00000090: 7802 953f b9ca 1780 397c 8e3f eac0 953f
000000a0: c49d 24ba 5be3 0e00 2dab f83e 4e91 0a80
000000b0: 57da 9fba 43e7 5391 08cf 2780 324a 983f
000000c0: 0522 0b3f 83a3 0a3f 1da0 0aba 193d 0080
000000d0: f1e1 68b8 8f81 0b3f a9df 033f 3d21 58aa
000000e0: 82f7 1d9f d928 2cb5 fe94 0080 daa7 f1b9
000000f0: 8cfd 8b3f 91f3 1b80 3934 eab7 1d3c 7a9b
00000100: 1a51 3680 d399 0ebb 38cc 863f efaa 9a3f
00000110: 7706 e33e 5ad7 043f e489 073f d2db 16bb
00000120: 4a33 013f b044 1080 9d24 8e3f 2bbe 1fbb
00000130: a11e 1580 d5c9 29b9 641b 153f a3c1 123f
00000140: 379b 0b80 7ba7 133f a793 0d3f a5a1 2480
00000150: 07ee 5da2 4302 893f 07df 903f 8344 013f
00000160: 3e2a 1680 80ef 0a80 c90c 95ba a238 1180
00000170: 0b3d 1480 d5e2 0bb5 a26d 1480 d5b5 073f
00000180: e245 9a3f e124 9da8 bf08 963f 7f6f 1caf
00000190: 17de 23ba b1bf 103f 1343 023f d738 6c93
000001a0: fa9e 3b80 f286 38bb 0adc 923f a219 0f80
000001b0: 98a8 df3e ab19 f93e cb36 f93e 9054 0f3f
000001c0: 35b0 6da6 c1fa 1d80 17c1 1e80 5f2b 42b8
000001d0: 7c55 923f 892d dc3e 4007 0a3f 4539 0e3f
000001e0: a972 3480 ad74 1180 4f9f 2180 7733 8f22
000001f0: 398d 943f 0ba3 39b2 6fad 103f 715b 033f

net.3.0.weight f4 [128, 128]
0.58650327 0.0011496206 0.010019169 -5.237982e-39 0.4037768 0.3907574 0.5404674 5.31423e-40
-0.029458536 7.6385303e-22 0.41475058 -0.013141949 -0.0048799794 -0.012407466 0.49222377 -1.7188489e-13
-1.0419977e-05 4.6955105e-08 -0.024612296 0.43967542 -1.986153e-39 2.2611315e-08 -0.0067288564 -3.654134e-39
1.56336e-40 -0.005027403 2.40831e-40 -0.0100717945 -0.0060968488 5.7673375e-38 -1.079541e-39 0.029498773
1.52752e-39 3.5117464e-38 2.715899e-39 0.32053107 -0.008447247 9.6897e-41 -0.0058526276 -0.0068198014
2.42007e-40 -2.93311e-40 0.4296446 -3.392339e-39 -7.9614466e-07 8.976767e-34 1.897277e-39 -0.014312205
0.45022342 0.3591951 4.324774e-39 -2.188321e-39 2.894147e-39 0.3807954 0.45691207 -4.586792e-39
1.280893e-39 2.002999e-39 8.96376e-40 9.94642e-40 0.015619609 -1.287011e-39 2.955991e-39 3.9849462e-38
3.98675e-40 4.7182787e-08 -0.013181857 0.020093268 0.26271176 0.4103933 0.38540828 0.00061926176
0.39246514 -2.277991e-39 -0.014762776 2.54393e-40 7.5675e-40 -8.35076e-40 0.40702483 0.42291752
-1.541206e-39 0.42225415 0.4485194 1.367942e-39 -1.3413446e-28 -0.0005398824 -0.02065804 0.47490922
-8.39221e-40 -9.00736e-40 6.282121e-20 1.054386e-39 1.469099e-39 -7.005489e-39 5.124321e-38 0.41759333
0.027974682 1.299643e-39 0.0016430329 -2.853848e-39 6.696974e-39 0.49881765 0.5445559 5.221821e-39
6.810686e-39 -2.4766457e-16 -0.0021718268 2.280306e-39 0.40425926 0.3503974 0.3813531 0.41361082
2.869069e-39 -3.550463e-39 -2.521611e-39 8.69628e-40 -0.007505241 0.36881784 0.4132478 0.39592916
5.80512e-40 1.690092e-39 3.1431e-39 1.4434075e-18 0.0026872768 4.079131e-39 0.42523804 0.61638206
0.578467 0.0011808069 0.0077307103 2.0795e-39 0.38762167 0.371221 0.53384113 -2.739436e-39
-0.02969852 -5.9743604e-22 0.3998666 -0.014626355 -0.0071052792 -0.0133357905 0.48223853 1.0169196e-13
-1.3013042e-17 4.054495e-08 -0.026081555 0.42857444 -2.087761e-39 1.48459565e-08 -0.0083877295 -6.36294e-39
2.79412e-40 -0.0051118555 1.861872e-39 -0.011998488 -0.008340382 -4.3581963e-38 -2.10675e-39 0.026665427
9.4867e-40 -6.60795e-40 1.709745e-39 0.32447454 -0.011849167 5.38698e-40 -0.004956815 -0.008661915
2.773797e-39 4.38225e-40 0.4161047 1.32227e-40 1.288392e-39 -1.4781491e-33 5.287902e-39 -0.017179921
0.4358639 0.3446861 5.238516e-39 -2.081088e-39 7.1191634e-38 0.36573723 0.4469056 -6.360798e-39
6.405302e-39 1.668656e-39 4.005771e-39 1.876176e-39 0.013544447 -8.57588e-40 -2.219749e-39 -4.265548e-38
2.1503317e-38 -1.1950002e-35 -0.015263082 0.017529739 0.2623839 0.39628172 0.37013274 0.00067275285
0.37556282 3.446083e-39 -0.015929986 9.4564e-40 8.62114e-40 -4.80501e-40 0.39343464 0.40473127
3.16274e-40 0.40941092 0.441146 -1.4844302e-38 -1.9335229e-28 -0.0016268407 -0.024869582 0.46202248
1.1464473e-37 -8.650648e-38 4.893415e-21 -1.30864e-39 1.608506e-39 4.7072244e-38 9.0568543e-38 0.40133917
0.024479894 -4.2855474e-38 -0.002320891 4.202657e-39 -6.46172e-40 0.4891613 0.53540957 -1.19871e-39
6.096139e-39 2.6494725e-22 -0.002781905 -2.050307e-39 0.4154468 0.33915743 0.3622189 0.4000567
1.6654141e-37 -2.87708e-39 -2.207603e-39 1.263243e-39 -0.010509776 0.37520826 0.39989626 0.38094014
-1.546707e-39 1.735641e-39 -1.710114e-39 -8.3326515e-34 0.004283757 3.111523e-39 0.4109376 0.6135481
00000000: 1425 163f deae 963a 7127 243c 5d09 3980
00000010: d5bb ce3e 5b11 c83e 125c 0a3f 64c9 0500
00000020: 0753 f1bc 44dc 661c 305a d43e 5451 57bc
00000030: 3ce8 9fbb af48 4bbc c104 fc3e 7286 41aa
00000040: 76d1 2eb7 afab 4933 ba9f c9bc 231d e13e
00000050: 96a0 1580 cf3a c232 bd7d dcbb 3dca 2780
00000060: cdb3 0100 eabc a4bb 579f 0200 2b04 25bc
00000070: 13c8 c7bb 7a00 9d01 52c1 0b80 69a7 f13c
00000080: 1ba2 1000 9a32 3f01 d292 1d00 a61c a43e
00000090: 5266 0abc 1c0e 0100 66c7 bfbb a478 dfbb
000000a0: 9ea2 0200 a231 0380 61fa db3e 76f0 2480
000000b0: a5b6 55b5 f226 9508 d6a8 1400 bd7d 6abc
000000c0: af83 e63e 6ce8 b73e b617 2f00 26d4 1780
000000d0: b483 1f00 9df7 c23e 61f0 e93e 1cf2 3180
000000e0: 9cf2 0d00 8ccf 1500 bbc2 0900 a8d4 0a00
000000f0: 63e9 7f3c aa03 0e80 1a30 2000 0bf6 5801
00000100: 5857 0400 06a6 4a33 b7f8 57bc a39a a43c
00000110: 2882 863e 121f d23e 3c54 c53e f455 223a
00000120: 31f1 c83e 1dce 1880 92df 71bc 25c5 0200
00000130: 833d 0800 da17 0980 8f65 d03e a588 d83e
00000140: 41c8 1080 b231 d83e 56a4 e53e 44e5 0e00
00000150: 1f09 2a91 e586 0dba 0d3b a9bc 4d27 f33e
00000160: 6823 0980 e3ce 0980 1755 941f 337b 0b00
00000170: 40ff 0f00 7448 4c80 4e7f 8b01 cbce d53e
00000180: 292b e53c e026 0e00 095b d73a 5e13 1f80
00000190: 70ec 4800 0765 ff3e 0468 0b3f 50dc 3800
000001a0: 6c29 4a00 d7c4 8ea5 3555 0ebb 91d4 1800
000001b0: 12fb ce3e 4a67 b33e b740 c33e ccc4 d33e
000001c0: cc3d 1f00 3fa9 2680 3a75 1b80 2b78 0900
000001d0: 86ee f5bb b1d5 bc3e 3795 d33e 3ab7 ca3e
000001e0: 3b52 0600 4a67 1200 af39 2200 6502 d521
000001f0: 061d 303b f56a 2c00 cdb8 d93e 37cb 1d3f
00000200: 6a16 143f 4ec5 9a3a e651 fd3b cda4 1600
00000210: 5976 c63e ae10 be3e d0a9 083f 6fd4 1d80
00000220: 504a f3bc 6090 349c 51bb cc3e 61a3 6fbc
00000230: 67d3 e8bb 5c7e 5abc f8e7 f63e 6cfd e429
00000240: 5a0c 70a3 a523 2e33 fca8 d5bc 1c6e db3e
00000250: d4bb 1680 350d 7f32 b06c 09bc 4a49 4580
00000260: e30a 0300 5a81 a7bb 2446 1400 4e95 44bc
00000270: 19a6 08bc 6448 6d81 c3f0 1680 7471 da3c
00000280: 8254 0a00 0732 0780 139e 1200 8721 a63e
00000290: 0223 42bc acdd 0500 c76c a2bb b4ea 0dbc
000002a0: 3834 1e00 98c5 0400 ad0b d53e 9870 0100
000002b0: 8307 0e00 8299 f588 8594 3900 e8bc 8cbc
000002c0: 8e29 df3e b27a b03e da0a 3900 3aa9 1680
000002d0: 54cd c101 e941 bb3e d0d0 e43e 5143 4580
000002e0: 60bf 4500 892b 1200 769e 2b00 046e 1400
000002f0: 87e9 5d3c 9b56 0980 c22b 1880 103d 6881
00000300: 8026 ea00 0026 7e85 0212 7abc 879a 8f3c
00000310: 2f57 863e 70e5 ca3e 0a82 bd3e ae5b 303a
00000320: c549 c03e 4786 2500 9a7f 82bc 0f4c 0a00
00000330: 3963 0900 713b 0580 4470 c93e f038 cf3e
00000340: a571 0300 4f9e d13e e3dd e13e e0a3 a180
00000350: 681a 7591 b73b d5ba 4bbb cbbc 368e ec3e
00000360: dc0b 1c02 387e eb81 35de b81d f53f 0e80
00000370: dc83 1100 9124 8001 108d f601 547c cd3e
00000380: 0f8a c83c d053 6981 171a 18bb 4cc3 2d00
00000390: 4409 0780 5a73 fa3e 9a10 093f 840d 0d80
000003a0: 8e61 4200 9a26 a01b 9f50 36bb 6c53 1680
000003b0: 71b5 d43e 0ba6 ad3e c174 b93e 3bd4 cc3e
000003c0: 36af 6202 2154 1f80 e609 1880 68c1 0d00
000003d0: 3231 2cbc 4c1b c03e 34bf cc3e 960a c33e
000003e0: 97d7 1080 43e6 1200 1a9f 1280 2e73 8a88
000003f0: c25e 8c3b a9e1 2100 6a66 d23e 7d11 1d3f

net.3.0.bias f4 [128]
0.068596035 0.06765204 0.9889742 0.9060018 0.39625221 -0.0027967198 -3.095492e-39 -5.2421e-40
-4.233285e-39 0.068383105 0.9689807 0.066196576 0.9735434 1.0360333 -9.24284e-40 1.0039985
0.06554891 -1.7147016e-16 0.32889006 1.0244216 0.06304111 -6.445683e-39 -4.23674e-40 -2.796274e-39
0.4287425 0.06923896 1.0639591 1.020709 1.0219103 -0.00060390553 -1.139993e-39 -4.55765e-40
0.9319476 -6.41049e-40 0.94371986 -1.1084927e-08 -9.30986e-40 -9.37452e-40 1.0668105 0.077532195
1.0486983 5.673e-40 -0.0013850379 0.93572414 -0.0037862016 1.0277705 0.9979205 0.28788745
0.06937573 0.06565781 -1.242238e-39 -7.530857e-20 0.06538354 0.064892806 0.9587935 0.071295634
0.3903047 0.42600948 0.08972518 0.07174169 -7.81253e-40 0.9411971 -1.141187e-39 0.9593581
0.36612442 1.1383449 1.0395597 -3.3525487e-09 -4.595705e-39 0.0671061 0.99975646 0.06896751
0.94396895 0.07085893 -9.4727e-40 1.0590518 1.0181773 0.06910715 -1.2268881e-12 1.0619452
0.99135447 -2.721071e-39 -9.45727e-40 1.0004941 0.90159875 -5.07643e-40 -1.9645673e-16 0.06411231
-5.160881e-39 0.06827815 -2.686558e-39 1.0348312 8.0929e-41 -8.94771e-40 -9.84886e-40 0.9954693
0.29245785 -7.4972e-40 -3.9457624e-05 0.37287253 1.1221196e-34 0.9735099 -0.003793099 -3.4342385e-08
-3.4629556e-11 0.3407023 -6.059949e-39 -1.5679117e-05 -0.000105588544 1.0378128 -4.4216e-39 -3.64837e-39
-9.09287e-40 0.98731196 -1.757357e-39 -3.7983457e-06 0.9985725 0.99285895 -3.926302e-39 1.0174257
1.052997 -1.054455e-39 0.9984019 -4.989826e-39 -8.9356e-40 0.99572957 0.9382658 0.080396466
00000000: 147c 8c3d 278d 8a3d 6a2d 7d3f bcef 673f
00000010: 92e1 ca3e 2c49 37bb f9b4 2180 49b5 0580
00000020: ad18 2e80 710c 8c3d 1f0f 783f 1292 873d
00000030: 243a 793f bd9c 843f 8710 0a80 0683 803f
00000040: 823e 863d 0fb1 45a5 4764 a83e 3f20 833f
00000050: b31b 813d f12f 4680 089d 0480 e072 1e80
00000060: 2384 db3e 28cd 8d3d d02f 883f 98a6 823f
00000070: f5cd 823f 6a4f 1eba d669 0c80 7df6 0480
00000080: 1e94 6e3f fcfa 0680 a097 713f 0670 3eb2
00000090: 3623 0a80 3c35 0a80 3f8d 883f 33c9 9e3d
000000a0: bf3b 863f 672d 0600 298a b5ba 9e8b 6f3f
000000b0: ec21 78bb fc8d 833f b877 7f3f fc65 933e
000000c0: dd14 8e3d 9a77 863d db86 0d80 3dd1 b19f
000000d0: cee7 853d 85e6 843d 7e73 753f 7203 923d
000000e0: 05d6 c73e ea1d da3e d6c1 b73d 4fed 923d
000000f0: d181 0880 4bf2 703f 2a6d 0c80 7e98 753f
00000100: a974 bb3e 49b5 913f 4b10 853f a962 66b1
00000110: f50a 3280 ec6e 893d 0af0 7f3f d63e 8d3d
00000120: f3a7 713f 7d1e 913d 9a50 0a80 028f 873f
00000130: a253 823f 0d88 8d3d 4dab acab d2ed 873f
00000140: 68c9 7d3f 3da1 1d80 4d4c 0a80 3110 803f
00000150: 2dcf 663f 1a87 0580 cb7f 62a5 514d 833d
00000160: 7032 3880 6ad5 8b3d 0841 1d80 5975 843f
00000170: 99e1 0000 42be 0980 76b9 0a80 13d7 7e3f
00000180: 09bd 953e ea29 0880 4d7f 25b8 26e9 be3e
00000190: c027 1507 f237 793f a495 78bb da7f 13b3
000001a0: 6a4d 18ae 8870 ae3e acfc 4180 a686 83b7
000001b0: 6b6f ddb8 0dd7 843f 9f25 3080 2cba 2780
000001c0: b9e6 0980 7ac0 7c3f cc22 1380 15e7 7eb6
000001d0: 73a2 7f3f 012c 7e3f efc0 2a80 013b 823f
000001e0: 9bc8 863f 647b 0b80 4497 7f3f 9b55 3680
000001f0: e2ba 0980 22e8 7e3f 3032 703f e7a6 a43d

net.4.0.weight f4 [256, 128]
0.0016123885 0.00033771753 0.5347055 0.51495147 0.36157525 -0.00027744324 3.6499984e-10 9.71764e-40
2.21365e-40 0.0016495149 0.5368869 0.0034156363 0.5800524 0.6024953 2.445894e-39 0.5782851
0.0014402875 5.7431807e-05 0.16422012 0.76712036 0.00018121733 -7.380546e-17 6.7466e-40 -5.11407e-40
0.4387097 0.0025962407 0.7673188 0.71043104 0.75186276 -0.001868291 2.648573e-39 1.69495e-39
0.5391174 -9.47241e-40 0.55876434 -0.0004060958 1.41186e-39 -1.032021e-39 0.6524847 0.0004215223
0.69942504 -1.6908664e-11 -0.0012275196 0.52858967 0.0013538795 0.660691 0.72977227 0.18094163
0.002600888 -0.000979092 2.638548e-39 1.3450405e-06 0.0013860527 0.0006160943 0.5552028 0.0009395902
0.20194483 0.4107151 0.0019035045 -0.0003681792 1.396496e-39 0.5412157 2.08674e-39 0.506784
0.33451673 0.70554197 0.64559406 0.000120049015 4.29044e-08 0.00052088156 0.5412828 0.0008935016
0.50797284 0.00068314676 1.17894e-40 0.62191737 0.5730524 0.001974732 -7.761428e-05 0.778213
0.5658595 7.99437e-40 -3.855463e-39 0.54953855 0.4932797 -1.258592e-39 4.6749865e-10 0.0011680003
3.215565e-12 0.0025662838 1.41824e-39 0.58801025 -6.074781e-08 1.038554e-39 9.789341e-05 0.6291216
0.16999297 -1.812843e-39 0.0017027038 0.35534093 -4.1122224e-11 0.4792555 0.0064953915 -2.06395e-39
3.8585156e-05 0.3108279 3.340937e-39 0.000472087 0.001035787 0.776454 5.827816e-13 2.99728e-40
-1.538041e-39 0.5233951 1.8877e-41 -0.00081420725 0.5777434 0.5387833 -3.81525e-40 0.5782641
0.5819218 -1.552147e-39 0.5934669 1.0093993e-11 1.397232e-39 0.6503522 0.532273 0.0019065199
0.004311239 -0.00056100875 0.59627485 0.5368135 0.47123694 0.0010916964 3.3977314e-05 -9.77714e-40
-2.2642438e-19 0.005543588 0.63923556 0.0060370527 0.79333246 0.53901523 -2.138348e-39 0.62760526
0.0010695586 -0.0015830678 0.48528594 0.49053803 0.00094829884 5.700338e-33 8.71598e-40 -1.543376e-39
0.36077157 0.005970831 0.53965104 0.500801 0.54561067 -0.0031301368 -1.890911e-39 1.283322e-39
0.52593225 3.70655e-40 0.5370971 -1.7110751e-05 -1.032688e-39 -6.105e-40 0.5122734 0.0016478755
0.5606567 1.4073695e-33 -0.0012165476 0.6361543 0.0026910943 0.4992211 0.530124 0.51093924
0.00205275 0.008874691 2.066872e-39 6.0758495e-05 -0.00011059546 -0.00026685416 0.73096293 0.00089227903
0.50861174 0.3520176 0.005971796 0.0015737957 1.032344e-39 0.5216533 1.392327e-39 0.6450469
0.48223323 0.6260679 0.559739 -0.0001288332 -4.1814754e-14 -0.00015325846 0.76535827 -0.00081162626
0.55089986 -0.0028238418 2.138436e-39 0.54016614 0.49802923 0.00044870356 -5.705534e-05 0.5278822
0.52644897 -5.72366e-40 -2.430705e-39 0.5956878 0.4974927 -4.23999e-40 0.0010930597 0.0061819786
1.152216e-39 -0.00078651553 9.6908e-40 0.69182783 -5.63665e-09 1.022407e-39 0.0002120468 0.58261913
0.4969981 1.397624e-39 0.0005543354 0.5230896 -1.3578265e-06 0.44674614 -0.001008957 -1.14262e-39
-0.00019867861 0.4717394 5.8852e-40 5.4943753e-06 0.0053015957 0.48925835 -6.0031688e-24 -1.157733e-39
-1.69229e-40 0.6079388 7.33877e-40 1.2500774e-05 0.6243295 0.66538185 4.98973e-35 0.7866386
0.68137556 -6.30838e-40 0.6439675 1.8196743e-10 -1.753006e-39 0.47911447 0.5303601 0.009835723
00000000: c856 d33a ae0f b139 76e2 083f dcd3 033f
00000010: 6420 b93e cd75 91b9 29a9 c82f e294 0a00
00000020: 1369 0200 8934 d83a 6b71 093f ded8 5f3b
00000030: 507e 143f 223d 1a3f 28a2 1a00 7e0a 143f
00000040: 07c8 bc3a efe2 7038 5229 283e 0062 443f
00000050: 2805 3e39 0e2f aaa4 ad58 0700 9891 0580
00000060: 8f9e e03e b125 2a3b 016f 443f cfde 353f
00000070: 147a 403f 71e1 f4ba 25d7 1c00 d574 1200
00000080: 9903 0a3f 8650 0a80 2e0b 0f3f 41e9 d4b9
00000090: b15f 0f00 db3c 0b80 3d09 273f c4ff dc39
000000a0: 850d 333f edba 94ad b9e4 a0ba a751 073f
000000b0: a874 b13a 0c23 293f 5bd2 3a3f c348 393e
000000c0: a973 2a3b e054 80ba 33bb 1c00 3d87 b435
000000d0: 36ac b53a 6381 213a c521 0e3f d54e 763a
000000e0: a0ca 4e3e 4049 d23e 037f f93a 2d08 c1b9
000000f0: dd34 0f00 1d8d 0a3f fbb8 1600 99bc 013f
00000100: c745 ab3e 669e 343f a745 253f d3c2 fb38
00000110: e345 3833 c58b 083a 8291 0a3f e139 6a3a
00000120: 820a 023f 3415 333a a448 0100 fa35 1f3f
00000130: 90b3 123f 816a 013b d9c4 a2b8 f838 473f
00000140: 2bdc 103f 81b4 0800 76fb 2980 8fae 0c3f
00000150: 288f fc3e 71b4 0d80 4b81 0030 9617 993a
00000160: 7846 622c 192f 283b 7a71 0f00 d787 163f
00000170: 7674 82b3 114f 0b00 204c cd38 1d0e 213f
00000180: a312 2e3e 78bd 1380 422d df3a 3fef b53e
00000190: 82db 34ae fa60 f53e 4bd7 d43b 7479 1680
000001a0: 7fd6 2138 d624 9f3e 2c61 2400 7282 f739
000001b0: 3fc3 873a b0c5 463f d709 242b 8543 0300
000001c0: 6fbf 1080 39fd 053f 9f34 0000 8670 55ba
000001d0: fee6 133f b4ed 093f 8927 0480 1e09 143f
000001e0: d4f8 143f c1e6 1080 72ed 173f 4e93 312d
000001f0: ea36 0f00 7b7d 263f 0b43 083f 31e4 f93a
00000200: 4b45 8d3b a910 13ba 78a5 183f 9c6c 093f
00000210: f845 f13e 4117 8f3a dd82 0e38 78a5 0a80
00000220: 49a8 85a0 fda6 b53b f1a4 233f 78d2 c53b
00000230: d617 4b3f e7fc 093f d848 1780 bdaa 203f
00000240: 6e30 8c3a f17e cfba 6677 f83e cd27 fb3e
00000250: 4297 783a 64c8 ec09 a97d 0900 4ece 1080
00000260: 0db7 b83e f6a6 c33b 9226 0a3f 7f34 003f
00000270: 24ad 0b3f fb22 4dbb 1797 1480 61f9 0d00
00000280: 7fa3 063f 3c09 0400 327f 093f 0f89 8fb7
00000290: b73e 0b80 d3a5 0680 5924 033f 87fd d73a
000002a0: 3387 0f3f e1d6 e908 9074 9fba 02db 223f
000002b0: 125d 303b e899 ff3e 35b6 073f eacc 023f
000002c0: 6e87 063b 2767 113c 9981 1600 f0d6 7e38
000002d0: 7cef e7b8 8fe8 8bb9 6320 3b3f d5e7 693a
000002e0: 6134 023f a73b b43e 0eaf c33b d247 ce3a
000002f0: c13d 0b00 128b 053f 3e29 0f00 cb21 253f
00000300: 46e7 f63e fc45 203f 0e4b 0f3f 6617 07b9
00000310: 2151 3ca9 01b4 20b9 85ee 433f 51c3 54ba
00000320: c607 0d3f 3410 39bb 1749 1700 5448 0a3f
00000330: b0fd fe3e f93f eb39 b44e 6fb8 4a23 073f
00000340: 5cc5 063f 863b 0680 d177 1a80 ff7e 183f
00000350: 5db7 fe3e f09d 0480 ff44 8f3a 3292 ca3b
00000360: e98b 0c00 2a2e 4eba 678d 0a00 a11b 313f
00000370: 7fac c1b1 0e22 0b00 e158 5e39 8726 153f
00000380: 8976 fe3e 0238 0f00 d250 113a 33e9 053f
00000390: 903e b6b5 e9bb e43e fb3e 84ba 2971 0c80
000003a0: 6254 50b9 d487 f13e 8e68 0600 535c b836
000003b0: 02b9 ad3b 1280 fa3e 813c e898 4a9b 0c80
000003c0: bed7 0180 e1a1 1b3f c0fd 0700 6aba 5137
000003d0: 0fd4 1f3f 7756 2a3f 58a6 8406 2661 493f
000003e0: a16e 2e3f 85de 0680 0edb 243f 4713 482f
000003f0: ab16 1380 7e4e f53e aec5 073f 0326 213c
