swarm/minimax/model_0.25_relaxation/Q-200000.pth (torch, 338387 bytes, 10 tensors)

net.0.0.weight f4 [128, 8]
0	0xbb109429	-0.0022060967
1	0xbb0116e5	-0.0019697484
2	0xbb21a67d	-0.0024665885
3	0xbb135ecb	-0.002248692
4	0xbafa0d3c	-0.001907743
5	0xbae3a27f	-0.0017367153
6	0xbb3d145a	-0.0028851242
7	0xbb221496	-0.0024731508
8	0x2d22002f	9.208675e-12
9	0x2d50783c	1.18501285e-11
10	0x2d47f9de	1.1367322e-11
11	0x2d3df146	1.079698e-11
12	0x2d25cc87	9.424578e-12
13	0x2d467f2e	1.12832365e-11
14	0x2d41bf5e	1.1013272e-11
15	0x2d41e856	1.1022369e-11
16	0xafd9053d	-3.9475792e-10
17	0xafc76d16	-3.62754e-10
18	0xafcae748	-3.690792e-10
19	0xafb59ac9	-3.303369e-10
20	0xafd07dbf	-3.7924328e-10
21	0xafcd980e	-3.7397324e-10
22	0xafdd3efd	-4.0244422e-10
23	0xafa56bde	-3.008997e-10
24	0x3e529dbf	0.20567988
25	0x3e4564ea	0.19276777
26	0x3e4d5587	0.20052157
27	0x3e50c4dc	0.20387596
28	0x3e54d077	0.20782648
29	0x3e50b7a4	0.20382553
30	0x3e485524	0.19563729
31	0x3e48b61f	0.19600724
32	0xb3ff9e27	-1.19031306e-07
33	0xb3e8bef7	-1.0838078e-07
34	0xb404fa4f	-1.238452e-07
35	0xb4037f9c	-1.224675e-07
36	0xb3eea36d	-1.11124656e-07
37	0xb3d13f0c	-9.743789e-08
38	0xb419922a	-1.430241e-07
39	0xb404da0f	-1.2372787e-07
40	0x3e909ab5	0.28243032
41	0x3e885fa1	0.2663546
42	0x3e8d9453	0.27652225
43	0x3e8f5d74	0.28000987
44	0x3e925cea	0.28586513
45	0x3e8f292d	0.27961102
46	0x3e899adc	0.2687596
47	0x3e8b0526	0.27152365
48	0x3e898a50	0.26863337
49	0x3e819365	0.25307766
50	0x3e869421	0.26284888
51	0x3e885907	0.26630422
52	0x3e8b2d82	0.27183157
53	0x3e882e99	0.2659805
54	0x3e82de61	0.25560287
55	0x3e840aaa	0.25789386
56	0xb6c7b4c0	-5.951704e-06
57	0x38139184	3.5183053e-05
58	0x382593e4	3.94768e-05
59	0x3843d09b	4.6685902e-05
60	0x375d8adc	1.3204957e-05
61	0x37964d58	1.791741e-05
62	0x3835b5b9	4.3323005e-05
63	0x37d0ead6	2.4904886e-05
64	0xae9d3e8b	-7.150643e-11
65	0xae8ee537	-6.498129e-11
66	0xaeadb224	-7.898773e-11
67	0xaea19227	-7.347394e-11
68	0xae7316d3	-5.5272075e-11
69	0xaeb3354a	-8.1494436e-11
70	0xaed993b6	-9.894256e-11
71	0xaeca785d	-9.207277e-11
72	0x32553751	1.2410809e-08
73	0x327819b4	1.4441344e-08
74	0x32676e70	1.347108e-08
75	0x3269e346	1.3614061e-08
76	0x327d824f	1.4756167e-08
77	0x3274f9cb	1.4259466e-08
78	0x3245e6a6	1.1519353e-08
79	0x3267a8e0	1.3484367e-08
80	0xac3dde50	-2.6981924e-12
81	0xac49ba81	-2.8667348e-12
82	0xac624e4d	-3.2159997e-12
83	0xac47ad79	-2.8375898e-12
84	0xabc5450a	-1.4016854e-12
85	0xac36e00e	-2.598813e-12
86	0xac8934ee	-3.8996506e-12
87	0xac813911	-3.672736e-12
88	0xb0154439	-5.4302834e-10
89	0xb00a6c32	-5.035786e-10
90	0xb01cd46d	-5.7054345e-10
91	0xb027a99b	-6.099527e-10
92	0xafe3c502	-4.1431042e-10
93	0xb005699c	-4.85352e-10
94	0xb046ebf6	-7.23673e-10
95	0xb02386a5	-5.9490396e-10
96	0xb5e1d718	-1.6826407e-06
97	0xb5842a12	-9.84701e-07
98	0xb5a43987	-1.2235695e-06
99	0xb52e72aa	-6.498691e-07
100	0xb595b52c	-1.1154093e-06
101	0xb5575c43	-8.0228e-07
102	0xb5e19e1c	-1.6809822e-06
103	0xb56d85d3	-8.848412e-07
104	0x2d3c5dea	1.0707416e-11
105	0x2d42a806	1.1064932e-11
106	0x2d22dbdd	9.257453e-12
107	0x2d315626	1.0080414e-11
108	0x2d28d21a	9.596346e-12
109	0x2d55b47e	1.21477255e-11
110	0x2d27553c	9.511777e-12
111	0x2d2fea48	9.999619e-12
112	0xb92cefaa	-0.0001649248
113	0xb78d6d8c	-1.6859522e-05
114	0xb90884dc	-0.00013019465
115	0xb8cbaa6c	-9.711538e-05
116	0xb90b4b90	-0.00013284222
117	0xb86993ea	-5.5689285e-05
118	0xb9264998	-0.0001585841
119	0xb853c0b6	-5.0485796e-05
120	0x3e83d392	0.25747353
121	0x3e782b44	0.24235255
122	0x3e80eb04	0.25179303
123	0x3e82acf6	0.25522584
124	0x3e855dfa	0.2604826
125	0x3e8289a8	0.25495648
126	0x3e7ad806	0.24496469
127	0x3e7ccfa3	0.24688582
128	0x31cd26b2	5.9706844e-09
129	0x314dcf68	2.9949323e-09
130	0x31263360	2.4185383e-09
131	0x301dbc8d	5.7384214e-10
132	0x31865d12	3.910494e-09
133	0x3129b7d4	2.469723e-09
134	0x315b1428	3.1880152e-09
135	0x3136e60d	2.6615254e-09
136	0x3e94af8e	0.29040188
137	0x3e8c4e59	0.27403525
138	0x3e919fde	0.2844228
139	0x3e936bc0	0.28793144
140	0x3e9683b7	0.29397365
141	0x3e9331ce	0.28748935
142	0x3e8d7fa9	0.2763646
143	0x3e8f0e79	0.2794073
144	0x2beb33b7	1.6712108e-12
145	0xac3f1881	-2.7156335e-12
146	0x2c929fae	4.1672976e-12
147	0x2cdcfe44	6.2810052e-12
148	0x2cc907b7	5.71362e-12
149	0xac9cc1d9	-4.455308e-12
150	0x2c1317da	2.0903197e-12
151	0x2cdb6a8a	6.2361826e-12
152	0x2eead7f3	1.0679448e-10
153	0x2ed35dcd	9.6118315e-11
154	0x2e6ac123	5.337698e-11
155	0x2d2d2ac5	9.843408e-12
156	0x2e155093	3.3950242e-11
157	0x2ebd76e8	8.615847e-11
158	0x2ea3b672	7.4447906e-11
159	0x2e07014a	3.069659e-11
160	0x3e86ea7a	0.26350766
161	0x3e7e1af2	0.24814966
162	0x3e83faa0	0.2577715
163	0x3e85bdef	0.2612147
164	0x3e88824b	0.26661906
165	0x3e8596d9	0.2609165
166	0x3e805de0	0.2507162
167	0x3e8173a9	0.25283554
168	0xaf4c0d80	-1.8558488e-10
169	0xaf7beebc	-2.2913133e-10
170	0xafe835d4	-4.22388e-10
171	0xaf56e8f0	-1.9545943e-10
172	0xaf918446	-2.6469332e-10
173	0x2daa3f80	1.9354962e-11
174	0xb011e302	-5.307329e-10
175	0xaf944bd0	-2.697491e-10
176	0x3e905977	0.28193256
177	0x3e8820ce	0.26587528
178	0x3e8d539d	0.27602854
179	0x3e8f1c8f	0.27951476
180	0x3e921a8b	0.28535876
181	0x3e8ee8ac	0.2791189
182	0x3e895c99	0.2682846
183	0x3e8ac490	0.2710309
184	0x3e88c3a7	0.2671177
185	0x3e80d446	0.25161952
186	0x3e85cf4e	0.26134723
187	0x3e8793ce	0.26479954
188	0x3e8a637a	0.2702902
189	0x3e876a4f	0.26448295
190	0x3e8220fa	0.25415784
191	0x3e834692	0.25639778
192	0x2c3904a0	2.6292649e-12
193	0x2c9f818e	4.5334353e-12
194	0x2c61b986	3.207741e-12
195	0x2c889cc2	3.882756e-12
196	0x2c8bf366	3.9776403e-12
197	0x2c66cbde	3.2798135e-12
198	0x2c459f6f	2.8083887e-12
199	0x2c9ae84c	4.4027334e-12
200	0x2f93d9c0	2.6893865e-10
201	0x2f9ddb02	2.8713748e-10
202	0x2fb29009	3.2480355e-10
203	0x2fac0c9b	3.1295574e-10
204	0x2f918d85	2.6475902e-10
205	0x2fb0fd7b	3.2194322e-10
206	0x2faec245	3.1788452e-10
207	0x2fa7fef4	3.0558278e-10
208	0xaf4c972e	-1.8607402e-10
209	0xaf18f9e1	-1.3913094e-10
210	0xaf6823f0	-2.1113045e-10
211	0xaf08fec6	-1.2459642e-10
212	0xaf4a6c14	-1.841019e-10
213	0xaee9a5b6	-1.06250495e-10
214	0xaf4430ac	-1.7843388e-10
215	0xaf534f64	-1.9218543e-10
216	0xb1505c8a	-3.0320586e-09
217	0xb148707c	-2.916777e-09
218	0xb16989e0	-3.3984335e-09
219	0xb1689859	-3.3847043e-09
220	0xb159df02	-3.1704421e-09
221	0xb14fe2ac	-3.0251313e-09
222	0xb157e533	-3.1416902e-09
223	0xb167f1d2	-3.3752383e-09
224	0x3e84706d	0.25867024
225	0x3e795883	0.24350171
226	0x3e818666	0.2529785
227	0x3e83489c	0.25641334
228	0x3e85fd71	0.26169923
229	0x3e832481	0.25613788
230	0x3e7c0301	0.24610521
231	0x3e7e04c7	0.2480651
232	0x3e922b09	0.28548458
233	0x3e89e139	0.26929644
234	0x3e8f2119	0.2795494
235	0x3e90eb45	0.28304496
236	0x3e93f412	0.28897148
237	0x3e90b4c0	0.282629
238	0x3e8b18c0	0.2716732
239	0x3e8c90f5	0.27454343
240	0xb11d1009	-2.2855622e-09
241	0xb0ba19ea	-1.3540646e-09
242	0xb1018b85	-1.8851278e-09
243	0xb08da3bb	-1.0305635e-09
244	0xb0e2d9e2	-1.650559e-09
245	0xb091dcb2	-1.0612864e-09
246	0xb129a4d0	-2.4686422e-09
247	0xb0bf0978	-1.389977e-09
248	0xb947a92f	-0.00019041145
249	0xb94ba661	-0.0001942157
250	0xb954633b	-0.00020254862
251	0xb92efc64	-0.00016687956
252	0xb948f8ee	-0.0001916622
253	0xb94da8ea	-0.00019613249
254	0xb958a775	-0.00020661748
255	0xb94ac4ba	-0.00019337508

net.0.0.bias f4 [128]
0	0xbbaab6e9	-0.005209793
1	0xae6355a0	-5.1689875e-11
2	0xb074b0f4	-8.901815e-10
3	0x3f4d0644	0.80087686
4	0xb48f30e1	-2.667139e-07
5	0x3f8c7be5	1.097531
6	0x3f85a810	1.0441914
7	0xb9efb7be	-0.0004572253
8	0xaf3f93c6	-1.7423848e-10
9	0x327beaa4	1.4663474e-08
10	0xae4e1ff7	-4.6867368e-11
11	0xb109f80e	-2.0077127e-09
12	0xb5944a89	-1.1048552e-06
13	0xb0a42aee	-1.1944772e-09
14	0xb9ecf631	-0.00045196855
15	0x3f802267	1.0010499
16	0xb228b0fc	-9.819129e-09
17	0x3f906ddc	1.1283526
18	0xafecc6e8	-4.306948e-10
19	0xb05f244e	-8.117852e-10
20	0x3f831ecd	1.0243775
21	0xb2375431	-1.0671145e-08
22	0x3f8c3cde	1.0956075
23	0x3f84e822	1.0383341
24	0xabaef080	-1.2430196e-12
25	0x2ffba4a1	4.577361e-10
26	0xae0da008	-3.2201825e-11
27	0xb160bc33	-3.270327e-09
28	0x3f80ba0f	1.005678
29	0x3f8dfedb	1.1093401
30	0xb0e2eeb9	-1.6511513e-09
31	0xbadad594	-0.0016695731
32	0x3f945be6	1.1590545
33	0x3f11813d	0.56837827
34	0x3f987e4f	1.1913546
35	0xb13edc4e	-2.7773868e-09
36	0xbbf770cb	-0.0075512878
37	0x3f89bcbb	1.0760721
38	0xb5cba226	-1.517187e-06
39	0x3f9251cf	1.1431216
40	0xadc26e30	-2.210418e-11
41	0x2f134a77	1.3396027e-10
42	0x3f322ff5	0.69604427
43	0x3753267d	1.2585541e-05
44	0x3f69aa54	0.91275525
45	0x3f92408b	1.1425947
46	0xb01823fa	-5.5348404e-10
47	0x350b7586	5.1952554e-07
48	0x3f2df9d7	0.6795935
49	0xae3e4034	-4.3258022e-11
50	0x3f94cbda	1.162471
51	0xb380f4c8	-6.00499e-08
52	0xb8828f2e	-6.225552e-05
53	0xb29f34d1	-1.8534054e-08
54	0x3f97c6cd	1.1857544
55	0x3f60fdc3	0.8788721
56	0x3f3ecbc2	0.7452966
57	0x2dc57868	2.2449778e-11
58	0xafe10bd4	-4.0935666e-10
59	0xb1519358	-3.0497258e-09
60	0x3f7ac721	0.97960097
61	0x3f89c6a4	1.0763745
62	0xb8ef57a0	-0.000114127295
63	0xafbd6979	-3.4453843e-10
64	0xb20e4773	-8.2817335e-09
65	0xb3d23c76	-9.789885e-08
66	0xb19f4e5f	-4.636419e-09
67	0x3f89d1e6	1.0767181
68	0xb260ddcf	-1.30889495e-08
69	0x3f7ab4ae	0.97931945
70	0xb06d1088	-8.624359e-10
71	0x3a282730	0.0006414531
72	0x307bdc9a	9.162676e-10
73	0xb20f249c	-8.3320195e-09
74	0xba135252	-0.00056198717
75	0xb873c403	-5.8118265e-05
76	0xb179b174	-3.633514e-09
77	0xafff5746	-4.644624e-10
78	0x3f98f1f6	1.1948841
79	0x3f885e59	1.0653793
80	0xb52d63f3	-6.459297e-07
81	0x3f60c81d	0.8780535
82	0xb3a78ca3	-7.802125e-08
83	0xb04f0fcd	-7.5328616e-10
84	0x3f80a3e3	1.0050014
85	0xb24e2d3a	-1.20010615e-08
86	0xb086553b	-9.774007e-10
87	0xb0d9430e	-1.5807886e-09
88	0xb04a0e5d	-7.3507583e-10
89	0x3f5bcc4a	0.85858595
90	0xadb617a9	-2.0701512e-11
91	0xb80442a2	-3.153331e-05
92	0x3f195c25	0.59906226
93	0x2db5a1c0	2.0649149e-11
94	0x34abea14	3.2021546e-07
95	0x32f37c98	2.8345582e-08
96	0xb21fa599	-9.292671e-09
97	0xb73bdf38	-1.1198041e-05
98	0x2e31e610	4.0449477e-11
99	0x3f3eb57d	0.7449568
100	0x3634c9d6	2.6939574e-06
101	0x3821cd2e	3.857648e-05
102	0xadbda2f2	-2.1559175e-11
103	0xbb0bb5ae	-0.0021318006
104	0x3f7e1d3e	0.9926337
105	0xafad6fa0	-3.154783e-10
106	0x3527aaa6	6.2460674e-07
107	0x3f88754c	1.0660796
108	0xae8896fe	-6.2113856e-11
109	0x3f925acf	1.1433963
110	0xb9aec7be	-0.00033336686
111	0xb306e55d	-3.140791e-08
112	0xb18a7e4c	-4.030687e-09
113	0x3f507a79	0.8143688
114	0x3f83bd63	1.0292171
115	0xad7c10e7	-1.4328295e-11
116	0xaeb564e7	-8.248851e-11
117	0x3f8453a3	1.0338024
118	0xaed4789c	-9.6620684e-11
119	0xb1b46aa4	-5.250813e-09
120	0x3f887960	1.0662041
121	0x3614d418	2.2177173e-06
122	0xb99959bc	-0.0002924929
123	0xb99e0f21	-0.0003014738
124	0x3f36b42c	0.7136867
125	0xaedf15e4	-1.01447545e-10
126	0x3f5d0552	0.86336243
127	0x327205c7	1.4087568e-08

net.1.0.weight f4 [128, 128]
0	0xb1c9c886	-5.872667e-09
1	0xb1d15b94	-6.093112e-09
2	0x289106d2	1.6101192e-14
3	0xb46c70c0	-2.2020231e-07
4	0x2e884868	6.197426e-11
5	0xb50fb4c8	-5.353472e-07
6	0xb5009ef6	-4.7915034e-07
7	0xafcfd8c2	-3.7807096e-10
8	0x29e08cdf	9.9720355e-14
9	0xac36fdd6	-2.6004663e-12
10	0x30581c4f	7.862057e-10
11	0xb2e3f620	-2.6538203e-08
12	0x30b6b1b8	1.3292754e-09
13	0xa9661814	-5.1091144e-14
14	0x316a3924	3.4083962e-09
15	0xb4e8701d	-4.329494e-07
16	0x35e0f583	1.6760754e-06
17	0xb5184c10	-5.67351e-07
18	0xb5c812cb	-1.4906631e-06
19	0xae8e8a04	-6.481929e-11
20	0xb4f5e458	-4.5800948e-07
21	0xad89a682	-1.5649041e-11
22	0xb50f2ad8	-5.3333997e-07
23	0xb4fde520	-4.7291633e-07
24	0xa27d358a	-3.4316237e-18
25	0x310fea70	2.09425e-09
26	0x2693a046	1.0243616e-15
27	0x26279021	5.8135095e-16
28	0xb4eb1d1b	-4.3793338e-07
29	0xb513021c	-5.4764837e-07
30	0xb117ba0c	-2.2079147e-09
31	0xb01443e6	-5.3938576e-10
32	0xb520c521	-5.9891505e-07
33	0xb46a7e78	-2.1838957e-07
34	0xb5299a5d	-6.3182034e-07
35	0x350b35d3	5.185986e-07
36	0xb2033913	-7.638181e-09
37	0xb509abc4	-5.128643e-07
38	0x2f008f7e	1.1692511e-10
39	0xb51c61f8	-5.825709e-07
40	0xa8b33d00	-1.9899447e-14
41	0xab971e1f	-1.0737556e-12
42	0xb41a9c1e	-1.4399163e-07
43	0x2eb00d15	8.005877e-11
44	0xb4b4f116	-3.3703026e-07
45	0xb51c3cc2	-5.8202943e-07
46	0x350e8361	5.3090304e-07
47	0x2c65dd5c	3.2665736e-12
48	0xb4156590	-1.3913655e-07
49	0xa61ad383	-5.3716135e-16
50	0xb521b54a	-6.0240984e-07
51	0xb2bc4e48	-2.1921679e-08
52	0x372496fa	9.810314e-06
53	0x2ac1a874	3.4400575e-13
54	0xb52813b0	-6.2613526e-07
55	0xb4a14487	-3.0038447e-07
56	0xb4390b83	-1.7233656e-07
57	0x2997ec7c	6.7467706e-14
58	0xad9ae002	-1.7607252e-11
59	0xa899f63e	-1.7093203e-14
60	0xb4dbfd46	-4.097621e-07
61	0xb509c19e	-5.131823e-07
62	0x3182543a	3.7930734e-09
63	0x313d7828	2.757142e-09
64	0xa7a678d5	-4.620526e-15
65	0x2ebcb656	8.5816396e-11
66	0xb20f9726	-8.358063e-09
67	0xb509da5a	-5.135422e-07
68	0xb5940fe4	-1.1031484e-06
69	0xb4dbd37e	-4.094581e-07
70	0x289c184d	1.7330018e-14
71	0x32a614ac	1.9334344e-08
72	0x367a5f6c	3.7308446e-06
73	0x29c103a8	8.571556e-14
74	0xb258935a	-1.2606359e-08
75	0x2f7cfc5c	2.3008923e-10
76	0x294b17ab	4.5095583e-14
77	0x360edf45	2.128961e-06
78	0xb52a9042	-6.353986e-07
79	0xb506a59a	-5.015987e-07
80	0xab66b851	-8.1968205e-13
81	0xb4a0cbe4	-2.9950672e-07
82	0xb0e3da70	-1.6578507e-09
83	0xb3d0220a	-9.6919464e-08
84	0xb4eab905	-4.3720516e-07
85	0x36cd4fc4	6.118762e-06
86	0xabf2001e	-1.7195167e-12
87	0x319ca3b4	4.5588084e-09
88	0x33403f60	4.4761123e-08
89	0xb495a8ec	-2.787632e-07
90	0xa9020bee	-2.8876146e-14
91	0xb035a582	-6.6082617e-10
92	0xb43766f6	-1.708066e-07
93	0xb51318d1	-5.479788e-07
94	0x2d0e6322	8.093777e-12
95	0x29a9d6f4	7.542396e-14
96	0xb4879ee0	-2.5261306e-07
97	0x2f0e22e0	1.2927215e-10
98	0xa2215890	-2.1866453e-18
99	0xb438c6b4	-1.7208623e-07
100	0x2d83f87e	1.5003328e-11
101	0x3231ab9f	1.0341778e-08
102	0x2cada3b6	4.9351313e-12
103	0x35b1c9bc	1.324624e-06
104	0xb4e38faf	-4.2386588e-07
105	0xab14b042	-5.282477e-13
106	0xb73cfd0c	-1.126459e-05
107	0xb506d85f	-5.023375e-07
108	0x2b3a8b98	6.62742e-13
109	0xb51c7577	-5.828546e-07
110	0x32a7f9b2	1.9554907e-08
111	0xb2490114	-1.1699985e-08
112	0xb0cf9e61	-1.5106246e-09
113	0xb47a8b24	-2.3333683e-07
114	0xb4f8abba	-4.6318547e-07
115	0x35cfc8d1	1.5481147e-06
116	0xb696ef6f	-4.498222e-06
117	0xb4fb4cec	-4.680836e-07
118	0x3532d4a6	6.661961e-07
119	0xb2932466	-1.7129604e-08
120	0xb506e15c	-5.024683e-07
121	0xb68ae0e4	-4.138901e-06
122	0xb6abdc78	-5.121863e-06
123	0xafb5355e	-3.2961628e-10
124	0xb42344e6	-1.5205623e-07
125	0xa9414e0c	-4.2922304e-14
126	0xb4986013	-2.838211e-07
127	0xaf65078c	-2.083011e-10
128	0xb99ab43e	-0.0002950746
129	0xab3b35b6	-6.6510285e-13
130	0xad81dc6a	-1.4763486e-11
131	0x3e4b52f3	0.19855861
132	0xb3bc6a52	-8.773772e-08
133	0x3e8b9163	0.2725936
134	0x3e84bf50	0.2592721
135	0xb91f4424	-0.00015188806
136	0x2cf547cb	6.9712894e-12
137	0x323d4460	1.1016795e-08
138	0xaa2514a0	-1.46621e-13
139	0x2d908bb7	1.643295e-11
140	0x35b30ef7	1.3340895e-06
141	0xacd67b98	-6.0959675e-12
142	0xb7e989c6	-2.783992e-05
143	0x3e7e7711	0.24850108
144	0x2f8d4164	2.5694213e-10
145	0x3e8f823e	0.28029054
146	0xac85c506	-3.8019613e-12
147	0xad09e75f	-7.838923e-12
148	0x3e8236db	0.25432476
149	0xb06c3c4e	-8.5942e-10
150	0x3e8b5257	0.27211258
151	0x3e83ffa3	0.25780973
152	0xa8e61652	-2.554481e-14
153	0x2fe03df2	4.0789377e-10
154	0xadaac59e	-1.9414522e-11
155	0x2c6a1144	3.3262984e-12
156	0x3e7fa5c2	0.24965575
157	0x3e8d13ea	0.27554256
158	0x310b5ad8	2.02788e-09
159	0x378a9322	1.6519396e-05
160	0x3e936fa4	0.28796113
161	0x3e0ffdc4	0.14061648
162	0x3e97917a	0.29603177
163	0x2fe18d46	4.1027642e-10
164	0xbc141fbd	-0.00904077
165	0x3e88d2c1	0.26723292
166	0x35f2a093	1.8077138e-06
167	0x3e9165c9	0.28397968
168	0xac71884b	-3.4323818e-12
169	0x2f0889a8	1.2418033e-10
170	0x3e30901e	0.17242476
171	0x37868033	1.6033742e-05
172	0x3e67e671	0.226465
173	0x3e91548b	0.28384814
174	0x2f947030	2.7000757e-10
175	0x34df401e	4.1583638e-07
176	0x3e2c5d68	0.16832507
177	0xac0bdd1b	-1.9875826e-12
178	0x3e93df80	0.28881454
179	0xb2ace128	-2.0125825e-08
180	0xb6b537cc	-5.400716e-06
181	0xae9921d3	-6.963643e-11
182	0x3e96da03	0.29463205
183	0x3e5f3eb8	0.21801269
184	0x3e3d2270	0.18470168
185	0x2c9f1cb1	4.522237e-12
186	0x2e4b1963	4.6179404e-11
187	0x2f05bad2	1.2162651e-10
188	0x3e78fb87	0.243147
189	0x3e88dcac	0.2673086
190	0xb841f1c1	-4.6239937e-05
191	0xada06dd6	-1.8238671e-11
192	0xb0c765df	-1.4508109e-09
193	0xb21a4b04	-8.981036e-09
194	0xaffff4ea	-4.6558252e-10
195	0x3e88e7e9	0.26739433
196	0x32a1c2f1	1.8831516e-08
197	0x3e78e91a	0.24307671
198	0xac0c938f	-1.9977108e-12
199	0x3a2303ac	0.00062185037
200	0x307f585d	9.289403e-10
201	0xb04443a3	-7.14005e-10
202	0x3956ac86	0.000204729
203	0x37324e07	1.0627794e-05
204	0x3000ec53	4.6901966e-10
205	0x2e3e133a	4.3218075e-11
206	0x3e980518	0.29691386
207	0x3e8774ca	0.2645629
208	0x35fdb20f	1.8901791e-06
209	0x3e5f092f	0.21780847
210	0xb3853aa0	-6.203959e-08
211	0xb007056a	-4.912041e-10
212	0x3e7f7986	0.24948701
213	0x3257b624	1.2556061e-08
214	0x2f2d2391	1.5746894e-10
215	0x2f63b49b	2.0709694e-10
216	0x2e806979	5.839502e-11
217	0x3e5a1011	0.21295191
218	0x2af1c2dc	4.294541e-13
219	0xb5d35bd3	-1.5747449e-06
220	0x3e17d151	0.14825942
221	0x2be70558	1.641502e-12
222	0x34a67517	3.1005104e-07
223	0x32af91f2	2.043905e-08
224	0x30eeeb8e	1.7383728e-09
225	0x36c2494c	5.7901834e-06
226	0xad0cf250	-8.011883e-12
227	0x3e3d0c40	0.18461704
228	0x361edf58	2.3673838e-06
229	0x3810c4fe	3.451574e-05
230	0x2c84639b	3.762724e-12
231	0x3b27c118	0.002559727
232	0x3e7c5051	0.24640013
233	0x2db347c0	2.0381807e-11
234	0x34a936d6	3.15186e-07
235	0x3e878bb0	0.2647376
236	0x2c1f1b89	2.2610544e-12
237	0x3e916ecd	0.28404847
238	0xb5cbb6b0	-1.5177848e-06
239	0xb17bdb28	-3.6649883e-09
240	0xb020bfb9	-5.8480115e-10
241	0x3e4ec507	0.20192347
242	0x3e82d52b	0.2555326
243	0x2b472532	7.075062e-13
244	0x2a3654e0	1.6194294e-13
245	0x3e836b4e	0.25667804
246	0xa833c760	-9.979729e-15
247	0xae20397b	-3.643084e-11
248	0x3e878fca	0.2647689
249	0x35cac62f	1.5107852e-06
250	0x379bd2da	1.8575625e-05
251	0xb5946d93	-1.105875e-06
252	0x3e3510ce	0.17682192
253	0xaba72818	-1.1877192e-12
254	0x3e5b4854	0.2141431
255	0x326a2974	1.3630018e-08

net.1.0.bias f4 [128]
0	0xb4172ef6	-1.4080055e-07
1	0x3e2cdf6e	0.16882107
2	0xb85ba5c0	-5.2368036e-05
3	0x3a6aca1a	0.0008956507
4	0xb3de3216	-1.0346791e-07
5	0x2f1caa44	1.4248608e-10
6	0xb60548b4	-1.9860863e-06
7	0xb28432b4	-1.538988e-08
8	0x3dd2abac	0.1028665
9	0x3e1aba21	0.15110065
10	0xb0744d40	-8.887646e-10
11	0x3dcca3df	0.099921934
12	0x318e962b	4.149816e-09
13	0x2d8e8cbc	1.620603e-11
14	0x3e0b9253	0.13630037
15	0xb0b7a6e4	-1.3362436e-09
16	0x3e2936a0	0.16524744
17	0xb7dac50d	-2.6079384e-05
18	0x3ded16aa	0.115765885
19	0x3e25df6f	0.16198514
20	0x3e2a918b	0.16657083
21	0x3e0c6933	0.13712005
22	0x356dac51	8.8540133e-07
23	0xaf42d50c	-1.7719887e-10
24	0x3df78a5d	0.120869376
25	0xb50efff6	-5.3271594e-07
26	0xb40e4726	-1.3250664e-07
27	0xb03550cf	-6.596225e-10
28	0x3e0d5749	0.13802828
29	0x3582197b	9.69317e-07
30	0x311f45ac	2.317715e-09
31	0xb0895b94	-9.99409e-10
32	0xaee962c8	-1.06131604e-10
33	0x3e1104da	0.14162007
34	0x3da282be	0.07935093
35	0xba829f7a	-0.0009965741
36	0xb53ecfff	-7.108319e-07
37	0x3df3ef69	0.11910898
38	0x3df3ee92	0.11910738
39	0x2b508c80	7.409143e-13
40	0xb4c7fbc3	-3.724982e-07
41	0xb8b0c46e	-8.428922e-05
42	0x3a073b5b	0.0005158686
43	0xae994aee	-6.970945e-11
44	0x2f0016ce	1.1649634e-10
45	0xb1c51a83	-5.7364686e-09
46	0x3e192609	0.14955916
47	0x3de22ef9	0.110441156
48	0xbae2f7dd	-0.0017316301
49	0xba0c05c9	-0.0005341438
50	0x3aa1edad	0.0012354158
51	0xb29b907b	-1.8110077e-08
52	0xb1065154	-1.9545796e-09
53	0xafa6ae5f	-3.0319122e-10
54	0xb948f6b0	-0.00019165385
55	0xbb6915b4	-0.0035565915
56	0xb6272a8f	-2.4909712e-06
57	0xb19b37e9	-4.51745e-09
58	0x3808dac0	3.2628654e-05
59	0x3763a6fe	1.3569135e-05
60	0x3b7d8682	0.003868491
61	0x3dab4be1	0.08364082
62	0x37591e94	1.2941327e-05
63	0x3db838d1	0.08995212
64	0xaf73a118	-2.2157953e-10
65	0xadc1f3e8	-2.2049876e-11
66	0x3e119925	0.14218576
67	0xb18440e7	-3.849084e-09
68	0xb410a596	-1.3471285e-07
69	0x3e2871ce	0.16449663
70	0x3a1f61ff	0.0006079971
71	0x2e9c6228	7.111495e-11
72	0xb8158539	-3.564844e-05
73	0xb172ec64	-3.5350007e-09
74	0xb671c732	-3.6027745e-06
75	0x3dcb20b8	0.0991835
76	0xba0a2d81	-0.0005271063
77	0xaf42bb46	-1.771073e-10
78	0x303810a8	6.696248e-10
79	0xb3542570	-4.9394146e-08
80	0xb20bb562	-8.1321065e-09
81	0x3e0fb38d	0.14033337
82	0xb37a22d8	-5.823935e-08
83	0xb2558bda	-1.243003e-08
84	0xb1fc202a	-7.337822e-09
85	0xb1c260c6	-5.657145e-09
86	0xb08dbd94	-1.0312982e-09
87	0x3e16823f	0.14698122
88	0xafd71281	-3.912142e-10
89	0xb1e9795d	-6.79499e-09
90	0x3e065dde	0.13121745
91	0xae0b251e	-3.1637908e-11
92	0xb12b2a50	-2.4907827e-09
93	0xb0e0a028	-1.6343664e-09
94	0xb529e7df	-6.3294823e-07
95	0xb3a6bc07	-7.764179e-08
96	0x3e2fa415	0.17152436
97	0x310129a3	1.8795638e-09
98	0x3e0116e3	0.12606387
99	0x3e25df57	0.16198479
100	0x3dfb8c00	0.12282562
101	0x3e0318e6	0.12802467
102	0xb4b041a4	-3.2830314e-07
103	0xb61e4366	-2.3583066e-06
104	0xb38711a0	-6.289633e-08
105	0xb5d30021	-1.5720763e-06
106	0xb3882f04	-6.3415456e-08
107	0xb95b2dc3	-0.00020902515
108	0xb1bfd08c	-5.5825407e-09
109	0xb36bd198	-5.4905826e-08
110	0x3df3e953	0.119097374
111	0x3e022b5d	0.12711854
112	0x2f0464b6	1.204111e-10
113	0x323b7be8	1.0913006e-08
114	0x318a3f07	4.023494e-09
115	0xb2806af3	-1.4949796e-08
116	0x3e290a5b	0.16507857
117	0xb2e095e9	-2.6145203e-08
118	0x2e83b9b0	5.990175e-11
119	0x3e165d44	0.14684016
120	0x3e19128d	0.14948483
121	0x3db1eaf6	0.08687393
122	0x3e0f475d	0.13992067
123	0x3a6df9fc	0.0009078083
124	0x2d536a44	1.2017557e-11
125	0xb3173c7a	-3.521243e-08
126	0x3e221ef8	0.15832126
127	0xb25df01e	-1.2918489e-08

net.2.0.weight f4 [128, 128]
0	0x351f3eaa	5.9323304e-07
1	0x3e689b50	0.22715497
2	0x3a1b8dfa	0.0005933937
3	0x3a8a7023	0.0010561984
4	0xb404d66e	-1.2371467e-07
5	0x2f10c0c0	1.3165202e-10
6	0x3653e680	3.1575619e-06
7	0xb2660a72	-1.3390137e-08
8	0x3e0e3b9b	0.13889925
9	0x3e506167	0.20349656
10	0xb0051a22	-4.8422255e-10
11	0x3e0a2f60	0.13494635
12	0xb1848adc	-3.857492e-09
13	0x2dc33d42	2.2196137e-11
14	0x3e3c1d5c	0.18370575
15	0x30bf1bee	1.3905017e-09
16	0x3e63b966	0.22238693
17	0x384009ca	4.5785484e-05
18	0x3e1ff369	0.15620197
19	0x3e5f43fa	0.21803275
20	0x3e65886e	0.22415325
21	0x3e3d3cf8	0.18480289
22	0x3217c580	8.834263e-09
23	0xae04cd62	-3.0195742e-11
24	0x3e26f49f	0.16304253
25	0x354d9ac1	7.659365e-07
26	0xb493d44a	-2.7535344e-07
27	0xac63ad14	-3.2354718e-12
28	0x3e3e7b8e	0.1860182
29	0x3551aa66	7.810653e-07
30	0x3095ff89	1.0913804e-09
31	0x2be9d058	1.6613473e-12
32	0x2e8f5e2b	6.519615e-11
33	0x3e4366d7	0.19082199
34	0x3ddbc1a1	0.10730291
35	0x3ac2ace1	0.0014852547
36	0x35d8b4b0	1.6145841e-06
37	0x3e248a43	0.16068368
38	0x3e2489b0	0.16068149
39	0xae365b80	-4.1463277e-11
40	0x3467623e	2.1549292e-07
41	0xb766c97b	-1.3755979e-05
42	0x39db07de	0.00041776797
43	0xadf69bd8	-2.803617e-11
44	0xadba91ee	-2.1210558e-11
45	0xb18b93b0	-4.0622226e-09
46	0x3e4e458d	0.20143719
47	0x3e18a3ce	0.14906237
48	0x3b620b75	0.0034491692
49	0x3a36eac5	0.00069777324
50	0xb933966f	-0.00017126811
51	0xb2c5c7fa	-2.3024757e-08
52	0x3071ee48	8.801391e-10
53	0x2facbadc	3.141939e-10
54	0x38a1d7da	7.717284e-05
55	0x3a16d9f8	0.0005754526
56	0x36176036	2.2556756e-06
57	0x31e522b5	6.668723e-09
58	0x37bf09cd	2.2773538e-05
59	0x374b38c4	1.211296e-05
60	0x3b8a7a9e	0.004226043
61	0x3de7923d	0.113071896
62	0x386c0392	5.627011e-05
63	0x3df8f1d3	0.12155499
64	0x2e601f7e	5.0959674e-11
65	0xae020830	-2.956585e-11
66	0x3e442d2e	0.1915786
67	0xb122a23a	-2.3666318e-09
68	0x33e2624e	1.05418266e-07
69	0x3e62b2e1	0.2213855
70	0x3a4de41f	0.0007854122
71	0xb004d7a6	-4.8327775e-10
72	0x383a3f84	4.440501e-05
73	0x32e69da4	2.684721e-08
74	0xb542b590	-7.253484e-07
75	0x3e092b6d	0.13395472
76	0x3a615859	0.00085962337
77	0x2e98d150	6.949341e-11
78	0x2f37e624	1.6725515e-10
79	0x338f1ee7	6.6645775e-08
80	0x321429ea	8.624264e-09
81	0x3e41a3c6	0.18910131
82	0xb3cbf2dc	-9.4971e-08
83	0x320a43c5	8.048066e-09
84	0x323b2331	1.0892834e-08
85	0x328b8900	1.624403e-08
86	0x30c34853	1.4208673e-09
87	0x3e4abe0e	0.19799063
88	0x2fb520e7	3.2947087e-10
89	0x31d31a30	6.1438854e-09
90	0x3e352626	0.17690334
91	0xae00debc	-2.930166e-11
92	0x33307b60	4.1090402e-08
93	0x30675cf2	8.4169394e-10
94	0x35133cf0	5.4850443e-07
95	0xb3e0695f	-1.044998e-07
96	0x3e6c4c7f	0.23076056
97	0xb06bae93	-8.5740587e-10
98	0x3e2e1502	0.17000201
99	0x3e5f43d9	0.21803226
100	0x3e29a3c2	0.16566375
101	0x3e30c53e	0.17262742
102	0xb51855df	-5.674937e-07
103	0xb6333194	-2.6701937e-06
104	0x3402089f	1.211033e-07
105	0xb5e35873	-1.693856e-06
106	0x3398d83a	7.117383e-08
107	0xb9916ede	-0.00027739158
108	0x313eaf3c	2.7748248e-09
109	0x335fe5ea	5.213034e-08
110	0x3e24862f	0.16066812
111	0x3e2f874a	0.17141452
112	0x2e1a6db3	3.511298e-11
113	0x338a7e3a	6.449086e-08
114	0x30750478	8.913683e-10
115	0x337ed854	5.9335733e-08
116	0x3e637e4d	0.22216149
117	0xb298e450	-1.7798953e-08
118	0x2db6f056	2.0797735e-11
119	0x3e4a8ca6	0.19780216
120	0x3e4e2b8d	0.20133801
121	0x3df078d1	0.11741794
122	0x3e411320	0.18854952
123	0x3a36373c	0.00069509796
124	0x2c8dde08	4.0321115e-12
125	0x3377d508	5.770292e-08
126	0x3e5a41a4	0.21314102
127	0xaeb985a0	-8.4365626e-11
128	0x351006d0	5.3654094e-07
129	0x3e80fead	0.25194302
130	0x3962fcf6	0.00021647275
131	0x3a87cf12	0.0010361394
132	0xb408715c	-1.2707227e-07
133	0x2f0e6b2b	1.2952898e-10
134	0x365532b7	3.1768993e-06
135	0xb26732ba	-1.3457504e-08
136	0x3e1dca72	0.15409258
137	0x3e672045	0.22570904
138	0xb003e0ac	-4.79768e-10
139	0x3e194ddb	0.14971106
140	0xb1455196	-2.871365e-09
141	0x2dc12dc4	2.1961884e-11
142	0x3e50a822	0.20376638
143	0x30cea03d	1.5034015e-09
144	0x3e7c9359	0.24665584
145	0x3842d77d	4.6453893e-05
146	0x3e316ee5	0.17327459
147	0x3e77a1a2	0.24182752
148	0x3e7e94c4	0.24861437
149	0x3e51e701	0.20498277
150	0x34fa7ac4	4.6655452e-07
151	0xae21a75e	-3.6755814e-11
152	0x3e3932d7	0.180858
153	0x356f3d4a	8.9123625e-07
154	0xb48f1196	-2.664862e-07
155	0xaef2f568	-1.1048479e-10
156	0x3e534839	0.2063302
157	0x35860f8c	9.988303e-07
158	0x309b0fb9	1.1282203e-09
159	0xac420d0a	-2.7576296e-12
160	0x2ea1ed00	7.363532e-11
161	0x3e58bc87	0.21165667
162	0x3df3dae4	0.119069844
163	0x3adac487	0.001669065
164	0x360797cc	2.0204925e-06
165	0x3e36852f	0.17824243
166	0x3e36848c	0.17824
167	0xae95abd0	-6.8062556e-11
168	0x34624f3a	2.1076713e-07
169	0xb76645a3	-1.3725282e-05
170	0x39e87992	0.00044341065
171	0xaddcf591	-2.5120158e-11
172	0xad5169fc	-1.1903808e-11
173	0xb1ae8949	-5.079674e-09
174	0x3e64c982	0.22342494
175	0x3e295403	0.16535954
176	0x3b616c91	0.0034396986
177	0x3a35809c	0.00069237663
178	0x3840d684	4.597615e-05
179	0xb29a9058	-1.79936e-08
180	0x30623be0	8.230341e-10
181	0x2fb5499a	3.2976005e-10
182	0x38aa5890	8.122728e-05
183	0x3a11a206	0.00055554544
184	0x36444c20	2.9250587e-06
185	0x31f9dd2e	7.271999e-09
186	0x377b9f18	1.4997808e-05
187	0x37461ea6	1.1808856e-05
188	0x3b888f86	0.0041675
189	0x3e0079a7	0.12546407
190	0x38aaeb14	8.1500184e-05
191	0x3e0a1a8b	0.13486688
192	0x2e75f004	5.5919727e-11
193	0xadf5fefc	-2.7966511e-11
194	0x3e59984e	0.21249506
195	0xb128dad4	-2.4571607e-09
196	0x33defd58	1.03837635e-07
197	0x3e7b701d	0.24554487
198	0x3a379f02	0.000700459
199	0xb01dce1a	-5.7409155e-10
200	0x3849ea08	4.8140093e-05
201	0xb18fc930	-4.18472e-09
202	0x366ffd9e	3.57614e-06
203	0x3e182da1	0.14861156
204	0x3a7eeff8	0.0009725089
205	0x2e9a5cd6	7.0196e-11
206	0x2f0b1d2a	1.2652338e-10
207	0x339cb922	7.2979915e-08
208	0x321862c0	8.870018e-09
209	0x3e56c852	0.20974854
210	0xb3cf9f6c	-9.668187e-08
211	0x320c6c89	8.173751e-09
212	0x324eb011	1.2030811e-08
213	0x32a8efc0	1.96668e-08
214	0x30b5c8ea	1.3226586e-09
215	0x3e60e010	0.21960473
216	0x2f9e2a70	2.8770186e-10
217	0x31d0146b	6.055918e-09
218	0x3e48eee3	0.19622378
219	0xae0e558c	-3.2363043e-11
220	0x336e418b	5.5473304e-08
221	0x306378eb	8.2753954e-10
222	0x350e8cdd	5.3104105e-07
223	0xb3e7d264	-1.07950456e-07
224	0x3e830aa4	0.25594056
225	0xb06eb5c6	-8.684221e-10
226	0x3e41194f	0.1885731
227	0x3e77a17b	0.24182694
228	0x3e3c2c75	0.18376334
229	0x3e44145c	0.19148391
230	0xb510b3ac	-5.390564e-07
231	0xb637271c	-2.729189e-06
232	0x341a3f30	1.4365355e-07
233	0xb5ec3c58	-1.7600933e-06
234	0x33d5f67c	9.963421e-08
235	0xb999c27e	-0.00029327342
236	0x313afe05	2.7210956e-09
237	0x335d0249	5.145765e-08
238	0x3e3680a8	0.17822516
239	0x3e42b3d1	0.19013907
240	0x2e60b1fc	5.1089785e-11
241	0x33d10458	9.733111e-08
242	0x30182d90	5.5362026e-10
243	0x339c1991	7.2689666e-08
244	0x3e7c51dd	0.24640603
245	0xb29b5836	-1.8084489e-08
246	0x2da48cd5	1.8707183e-11
247	0x3e60a93e	0.21939561
248	0x3e64acaf	0.22331499
249	0x3e05687e	0.13028142
250	0x3e5627fc	0.2091369
251	0x3a634558	0.0008669696
252	0xad665dd8	-1.3094824e-11
253	0x338b18b8	6.477188e-08
254	0x3e7213c4	0.23640352
255	0xaf73e150	-2.2180768e-10

net.2.0.bias f4 [128]
0	0x3c70e244	0.014702383
1	0x3c8599fc	0.016308777
2	0xb08ebdef	-1.0385842e-09
3	0x37247341	9.801996e-06
4	0x3c9d1da8	0.01917918
5	0x3ca6a74c	0.020343445
6	0x3c8c0496	0.01709203
7	0xba8c2481	-0.0010692031
8	0x2f49c90c	1.835227e-10
9	0xb2d0c70f	-2.4304908e-08
10	0x3c671ed4	0.014106471
11	0x2ea7712c	7.614384e-11
12	0x3c070790	0.008241549
13	0x2f89b8c0	2.5051428e-10
14	0xb7101dfc	-8.59005e-06
15	0xb632622c	-2.658121e-06
16	0x3c843698	0.016139314
17	0x3001e640	4.725713e-10
18	0xac68a674	-3.3061583e-12
19	0x380826c0	3.2461016e-05
20	0xaf6dcfda	-2.1628868e-10
21	0x34985a3d	2.8377863e-07
22	0x332b823a	3.993248e-08
23	0xb4a7adf5	-3.1232744e-07
24	0x2f80891c	2.3380486e-10
25	0x2fa7859d	3.047206e-10
26	0xb6b4c8d2	-5.3877966e-06
27	0x2e0606e2	3.0474186e-11
28	0xb2291936	-9.842827e-09
29	0xb4a752c6	-3.11664e-07
30	0xbb767519	-0.0037606417
31	0x3ca0dfcf	0.01963797
32	0xb50c52c6	-5.2274515e-07
33	0xb00d8300	-5.1481663e-10
34	0xb13e570e	-2.7698124e-09
35	0xafa9746e	-3.082365e-10
36	0x3c84ed55	0.01622645
37	0x2f6089fe	2.0421706e-10
38	0x3c6c5325	0.01442412
39	0xaea21f0a	-7.372421e-11
40	0x3099dde7	1.1195284e-09
41	0xb093b9a6	-1.0748422e-09
42	0x3959ab5c	0.00020758569
43	0x2f267621	1.513958e-10
44	0x30b2930a	1.2992996e-09
45	0xb3818384	-6.030953e-08
46	0xaef05fa8	-1.09309284e-10
47	0x2fb4fc0e	3.2920905e-10
48	0x382ed262	4.1680767e-05
49	0xb8135669	-3.5128007e-05
50	0xb119c977	-2.237895e-09
51	0x36a4a155	4.9063624e-06
52	0x3c91242c	0.017717443
53	0x3c9ac19d	0.01889115
54	0xb2a548a2	-1.9241558e-08
55	0x377fb88d	1.52421535e-05
56	0x3c97be64	0.018523403
57	0x31710e60	3.5078287e-09
58	0x320bf342	8.146175e-09
59	0x30b6eaa4	1.3308932e-09
60	0x319f88d4	4.6430646e-09
61	0x3c8b97f0	0.017040223
62	0x2e3e679a	4.3293015e-11
63	0xba8ad1bb	-0.0010591069
64	0x3802b0eb	3.1159183e-05
65	0x3a723e6b	0.00092408684
66	0x3c92c7e8	0.017917588
67	0x3908d23b	0.00013048288
68	0x3c7c6ce2	0.015406819
69	0xb474c2cd	-2.2795139e-07
70	0x3c958b04	0.018254764
71	0x34fabde4	4.6704292e-07
72	0x3c888301	0.01666403
73	0x33c77632	9.288159e-08
74	0xb027aa8e	-6.099662e-10
75	0x3ca34fe6	0.01993556
76	0x37b5a6b0	2.1654501e-05
77	0x3c712d91	0.0147203365
78	0x3ca3a593	0.019976413
79	0x3c84315c	0.016136818
80	0x2f8a3ee1	2.5146732e-10
81	0x32bd29cf	2.2021508e-08
82	0x3c2d74f4	0.010586966
83	0x31fb5e74	7.3157995e-09
84	0x3ca612c2	0.020272616
85	0x37b547b0	2.1610264e-05
86	0xb5da04c2	-1.624365e-06
87	0x3c84c1a7	0.016205622
88	0x32e6c9ae	2.6867237e-08
89	0x3c5b3d0b	0.013381253
90	0x37795d4e	1.4863281e-05
91	0x2f04527e	1.2034637e-10
92	0x388710fa	6.440464e-05
93	0xb05e39ed	-8.0845447e-10
94	0x3c9b1f6d	0.018935883
95	0xb1b1cb95	-5.1745226e-09
96	0x33739b9e	5.671938e-08
97	0x3caa5c72	0.020796034
98	0xae87eea0	-6.1814776e-11
99	0x310cfb1d	2.0515423e-09
100	0x3c56cfe8	0.013111092
101	0x3c965a8b	0.018353721
102	0x33f628e4	1.14627056e-07
103	0x3c4283c8	0.011872239
104	0xaf86fa12	-2.4552144e-10
105	0x3ca74e32	0.020423029
106	0x343a164e	1.7330714e-07
107	0xb8b0d093	-8.431184e-05
108	0x3c393505	0.011304145
109	0xaff13d80	-4.3881343e-10
110	0xb29e3eaf	-1.8422126e-08
111	0xb34ab9c8	-4.7200757e-08
112	0x3c67d577	0.014150015
113	0x376f2ee2	1.4256426e-05
114	0xafe3a887	-4.1410805e-10
115	0xae45e4f0	-4.499595e-11
116	0x3c6f257e	0.014596341
117	0x3c964cfa	0.018347252
118	0x3c9443d6	0.018098753
119	0xb5a31dfc	-1.2153173e-06
120	0x346e33fd	2.218439e-07
121	0xae15652f	-3.3968547e-11
122	0x2e9aa56a	7.0324926e-11
123	0x2f98754a	2.7731978e-10
124	0x3c95180a	0.01819994
125	0x2fe16d54	4.1004944e-10
126	0xad169b10	-8.560944e-12
127	0x3483d8cc	2.4558392e-07

net.3.0.weight f4 [128, 128]
0	0xb998f68f	-0.000291754
1	0xb9a1b719	-0.0003084473
2	0xac5992f0	-3.0919121e-12
3	0xb1589110	-3.1514595e-09
4	0xb9c6b788	-0.00037902244
5	0xb9df95a4	-0.00042645365
6	0xb9a89856	-0.00032156956
7	0xb6190944	-2.280417e-06
8	0xacae13ae	-4.9475623e-12
9	0xb589a5b9	-1.0255527e-06
10	0xb9969755	-0.0002872298
11	0x2b84de7b	9.440915e-13
12	0xb4bf3680	-3.5616176e-07
13	0x34f32def	4.5295698e-07
14	0xb24e07eb	-1.19925785e-08
15	0xb3a6470e	-7.742902e-08
16	0xb9a07ef6	-0.0003061217
17	0x2fced3e0	3.7621728e-10
18	0x28dbfae0	2.4422684e-14
19	0x359558bf	1.1127194e-06
20	0xab04f9e0	-4.724259e-13
21	0xb068b137	-8.4652946e-10
22	0xaedf256b	-1.0147513e-10
23	0x2fffe434	4.6546378e-10
24	0x2e3132a0	4.0290105e-11
25	0xabe86e70	-1.6515244e-12
26	0xb20f6c9c	-8.34839e-09
27	0xb437c39d	-1.7114367e-07
28	0xad944568	-1.6856475e-11
29	0x2f116700	1.3224266e-10
30	0xb5dfda8e	-1.6678403e-06
31	0xb9cfd291	-0.00039639
32	0xb0f72af0	-1.7983819e-09
33	0x2c21073c	2.2883492e-12
34	0xb23d0c9e	-1.1004117e-08
35	0x28f86090	2.7575408e-14
36	0xb9a11ca2	-0.00030729646
37	0x2d348577	1.02614505e-11
38	0xb997d9b6	-0.00028963172
39	0xa62d1c00	-6.005938e-16
40	0x2a3e994a	1.6928573e-13
41	0x2f649ebb	2.0792872e-10
42	0x36a2ad9e	4.848188e-06
43	0xa99f23ba	-7.067216e-14
44	0xae696272	-5.3065503e-11
45	0xb510bbd2	-5.3917495e-07
46	0x2ae11c38	3.998761e-13
47	0x2da052d6	1.822668e-11
48	0xb7397cc5	-1.1055909e-05
49	0x34455c46	1.8380624e-07
50	0xac671713	-3.2839883e-12
51	0x31ecd405	6.892608e-09
52	0xb9afba70	-0.00033517508
53	0xb9c17721	-0.00036900587
54	0xae4de8b4	-4.6818285e-11
55	0x315da360	3.22526e-09
56	0xb9bb474c	-0.0003572054
57	0xae53158c	-4.7994983e-11
58	0x2bb7c870	1.3058565e-12
59	0xaa51a984	-1.8621742e-13
60	0xac14a19c	-2.1121776e-12
61	0xb9a8127c	-0.0003205723
62	0x30facda8	1.8248345e-09
63	0xb683808f	-3.9190704e-06
64	0x347dbdd0	2.3631515e-07
65	0xb7e4bd60	-2.7267903e-05
66	0xb9b257de	-0.00034016272
67	0x34aa2808	3.1694094e-07
68	0xb99c2306	-0.00029780733
69	0x302fb748	6.392509e-10
70	0xb9b72001	-0.00034928325
71	0x3233ecb9	1.0472996e-08
72	0xb9a4920f	-0.0003138934
73	0x304eca93	7.523024e-10
74	0xb15eddc9	-3.2431322e-09
75	0xb9d636ac	-0.00040857994
76	0xb5805630	-9.561827e-07
77	0xb9990952	-0.00029189378
78	0xb9d71ec1	-0.0004103091
79	0xb9a07a81	-0.0003060885
80	0x2df37ab8	2.76804e-11
81	0xaf48c3a3	-1.8259398e-10
82	0xb958bd8c	-0.00020669977
83	0x32d0ec3c	2.4321814e-08
84	0xb9dde817	-0.00042325325
85	0xb48e120c	-2.6462692e-07
86	0x3281d322	1.5113589e-08
87	0xb9a0f667	-0.00030701162
88	0xad8707ea	-1.5351238e-11
89	0xb9935676	-0.00028102443
90	0x32d0a9f8	2.429168e-08
91	0xaba7fc80	-1.1936147e-12
92	0x35895e4c	1.0234739e-06
93	0xb20bc61b	-8.135909e-09
94	0xb9c241e5	-0.0003705166
95	0x3307da28	3.163055e-08
96	0x2dfef62c	2.8985779e-11
97	0xb9eaccd1	-0.00044784558
98	0x2b08aa70	4.8553436e-13
99	0x2c07a942	1.927861e-12
100	0xb991d22b	-0.00027813143
101	0xb9b89e8d	-0.00035213344
102	0x31a47bee	4.7871174e-09
103	0xb9865563	-0.0002562209
104	0xaad7a6b4	-3.8307346e-13
105	0xb9e17e9d	-0.00043009678
106	0xb48f4be0	-2.6691032e-07
107	0x357f217e	9.504364e-07
108	0xb97a4d35	-0.0002387062
109	0xace66c24	-6.548999e-12
110	0x2f6c87da	2.1512339e-10
111	0xb0915a96	-1.0575885e-09
112	0xb996c3fe	-0.00028756255
113	0xb6186a5a	-2.271167e-06
114	0x2c78a9f8	3.5337271e-12
115	0xac367ded	-2.5933658e-12
116	0xb99888de	-0.00029093673
117	0xb9b88547	-0.00035194514
118	0xb9b4da69	-0.00034495004
119	0xb72bd4b5	-1.0241919e-05
120	0x32704ebe	1.39877425e-08
121	0x2b8292f0	9.277839e-13
122	0xab4c762e	-7.2639366e-13
123	0xabff126b	-1.8123952e-12
124	0xb9b6509f	-0.00034773813
125	0xb6fffd28	-7.6290635e-06
126	0xab9e5b6d	-1.1251951e-12
127	0x2fe37414	4.1373538e-10
128	0x30bff29e	1.3966035e-09
129	0xb2b9e628	-2.1641497e-08
130	0xa80b945f	-7.748223e-15
131	0xb11e44c0	-2.3031106e-09
132	0xb3870a08	-6.288252e-08
133	0xb3a9a0a0	-7.898893e-08
134	0xb30dc919	-3.3012018e-08
135	0x33a6ae78	7.761713e-08
136	0xa9416b7a	-4.294783e-14
137	0x285b0731	1.21585015e-14
138	0x3225cb47	9.650484e-09
139	0x266279a1	7.857434e-16
140	0x334e8954	4.8088012e-08
141	0x2afaa2cc	4.4521884e-13
142	0x2e66e906	5.2502912e-11
143	0x29589788	4.8093067e-14
144	0xb2a4c96a	-1.9183705e-08
145	0x2b1b05ce	5.507512e-13
146	0x271d0e72	2.1795958e-15
147	0xb1076794	-1.9703963e-09
148	0xa704666c	-1.8374203e-15
149	0xaf55ce8f	-1.9445622e-10
150	0xa9a0116e	-7.108451e-14
151	0x2cbff59c	5.4558146e-12
152	0xa508ab34	-1.1854126e-16
153	0xa6a93d20	-1.1743299e-15
154	0xa93dd0a8	-4.214741e-14
155	0x258c2dbf	2.4317127e-16
156	0x3061e410	8.217862e-10
157	0xab58a368	-7.6965387e-13
158	0x3039339a	6.737594e-10
159	0xb394cb34	-6.9287495e-08
160	0xafe32401	-4.1316642e-10
161	0xa883ed42	-1.4646816e-14
162	0x35b384e4	1.3375216e-06
163	0xa444e71a	-4.2696476e-17
164	0xb2afa472	-2.0447462e-08
165	0xb63f3340	-2.849105e-06
166	0x31b5729a	5.280822e-09
167	0xa82428a0	-9.112638e-15
168	0x26871046	9.371918e-16
169	0x31530171	3.070536e-09
170	0x33df0743	1.03855676e-07
171	0xa5c1a0d1	-3.3589137e-16
172	0x2734a428	2.5069007e-15
173	0xa95149e4	-4.6471412e-14
174	0x2601cc42	4.5032687e-16
175	0xab3198ee	-6.3095265e-13
176	0xad7cb9ca	-1.4365795e-11
177	0xb1ba4d6c	-5.4221143e-09
178	0x285408fd	1.1770313e-14
179	0x31cb02a8	5.9083796e-09
180	0xb334a3e4	-4.2058574e-08
181	0xb37ca869	-5.882649e-08
182	0x2a3ce3da	1.6776806e-13
183	0x2c595b00	3.088807e-12
184	0xb36641d2	-5.361091e-08
185	0xb082a170	-9.504628e-10
186	0x2732589d	2.47505e-15
187	0x25487bfa	1.738924e-16
188	0x25d3a11d	3.671184e-16
189	0xb30a8f2d	-3.2260846e-08
190	0x2ae00a26	3.9797435e-13
191	0xb5a580d7	-1.2330955e-06
192	0x3398c124	7.1131836e-08
193	0xb2000526	-7.451751e-09
194	0xb34104e6	-4.494077e-08
195	0x3004c3d7	4.8299625e-10
196	0xb213f4ea	-8.612213e-09
197	0xb393e22c	-6.886361e-08
198	0xb355caa5	-4.977723e-08
199	0x36d6ebe3	6.405158e-06
200	0xb2e634fc	-2.6799619e-08
201	0xaaacf46e	-3.0722945e-13
202	0xa76da3dd	-3.2979188e-15
203	0xb39da19d	-7.3402795e-08
204	0xaf825acb	-2.3711375e-10
205	0x309d3d40	1.1440662e-09
206	0xb39ed6c6	-7.3965154e-08
207	0xb2a4795c	-1.91473e-08
208	0x27942d28	4.112721e-15
209	0x295e2e35	4.933398e-14
210	0x334ceb2e	4.7711346e-08
211	0x2a9bc984	2.767336e-13
212	0xb3a78dbd	-7.8023255e-08
213	0x315d99c1	3.2247132e-09
214	0x2dc15263	2.1978147e-11
215	0xb2ad0b98	-2.0145123e-08
216	0xa81ae3ad	-8.598087e-15
217	0x32a5b053	1.9288711e-08
218	0xaf28c87b	-1.5350736e-10
219	0xa4f37e34	-1.0559825e-16
220	0xb0bc47bc	-1.3699188e-09
221	0x271a000e	2.1371823e-15
222	0xb37f5ead	-5.945792e-08
223	0x2a3bbcca	1.6674436e-13
224	0x29c18021	8.5931486e-14
225	0xb3b6c69e	-8.511164e-08
226	0xa85d14ba	-1.2272459e-14
227	0x26f51e74	1.7008544e-15
228	0x32c33890	2.272671e-08
229	0xb35bde0a	-5.1191854e-08
230	0x2b687f78	8.2599856e-13
231	0x331ebec5	3.6960746e-08
232	0x286cd422	1.3146631e-14
233	0xb3abf3a0	-8.007123e-08
234	0xb5852f94	-9.923119e-07
235	0xb08d2865	-1.0270581e-09
236	0x3335de9f	4.234482e-08
237	0xa71f39da	-2.2097044e-15
238	0xa9c82e6c	-8.889837e-14
239	0xa8fc23fa	-2.7993223e-14
240	0x321b9434	9.055885e-09
241	0xb477e9b8	-2.3088694e-07
242	0xa70b1d72	-1.9306087e-15
243	0xa5a4afd8	-2.8568621e-16
244	0x314611c8	2.88229e-09
245	0xb35b7884	-5.109952e-08
246	0xb34c31a2	-4.7542592e-08
247	0xb15250de	-3.060499e-09
248	0xb51ce630	-5.8449496e-07
249	0x26bb3b73	1.2991845e-15
250	0x26d090be	1.4472132e-15
251	0xa61b1763	-5.3808123e-16
252	0xb3526c1c	-4.899276e-08
253	0xa9c66cf6	-8.811868e-14
254	0xa45d8404	-4.8033558e-17
255	0xa8de7f90	-2.4702273e-14

net.3.0.bias f4 [128]
0	0xb7e7312d	-2.7560245e-05
1	0x31468ae2	2.8891738e-09
2	0x366544b2	3.4163645e-06
3	0x378441c5	1.5766253e-05
4	0x37abbb90	2.047213e-05
5	0xb463ff82	-2.1233976e-07
6	0xb5187567	-5.6795255e-07
7	0xb4fa7f1e	-4.665862e-07
8	0xb65e9b79	-3.3171075e-06
9	0xb6470416	-2.965569e-06
10	0xb5303786	-6.5645906e-07
11	0x311b9c07	2.264416e-09
12	0xb753812e	-1.2606657e-05
13	0x361d0898	2.3399825e-06
14	0x3bab70cb	0.005231952
15	0x2ed5511a	9.700525e-11
16	0xb71a0e8b	-9.182501e-06
17	0xb8d1d636	-0.000100057965
18	0x338ae681	6.468054e-08
19	0xb8bf56d4	-9.123763e-05
20	0x3609a03c	2.050786e-06
21	0x340036e0	1.1940892e-07
22	0xb427e38a	-1.5635865e-07
23	0x3b833c47	0.0040049884
24	0x37d4f42e	2.5386074e-05
25	0x33e8ab4f	1.0834503e-07
26	0x3459149a	2.0217195e-07
27	0xba48ca7f	-0.0007659569
28	0xb6c537e4	-5.877564e-06
29	0x34a8069c	3.1297247e-07
30	0x3b5c2814	0.0033593224
31	0xba8ba6e5	-0.0010654597
32	0xb491ed6e	-2.7181107e-07
33	0xb900957a	-0.00012262716
34	0x34128f97	1.3649547e-07
35	0x362f8e1e	2.6159755e-06
36	0x378228bd	1.5516178e-05
37	0x32a55f9c	1.9252006e-08
38	0xb63b967e	-2.795277e-06
39	0x38cb46c9	9.692979e-05
40	0x2f980ced	2.7657823e-10
41	0x34d11c98	3.8950088e-07
42	0x3b828c1f	0.003983989
43	0x342b2dc0	1.594226e-07
44	0xb48c161f	-2.6093127e-07
45	0x3840f9e8	4.600911e-05
46	0x36cb25b8	6.0542625e-06
47	0xb7150876	-8.883062e-06
48	0xb1e6bb3a	-6.715166e-09
49	0x3643d0f4	2.917889e-06
50	0xb24d11be	-1.1936605e-08
51	0xae7384c8	-5.5369737e-11
52	0x31662f8a	3.3496428e-09
53	0x32890370	1.5950462e-08
54	0xb3e81300	-1.0806798e-07
55	0x369e25ea	4.7131807e-06
56	0x32e36d0d	2.6475869e-08
57	0x34ecf982	4.4139966e-07
58	0x37c60344	2.360496e-05
59	0x3ab71943	0.001396932
60	0xb20abbba	-8.075341e-09
61	0xb3947bb8	-6.9142914e-08
62	0x3511e2de	5.4346845e-07
63	0xaf97e4b5	-2.7629246e-10
64	0x3403e326	1.2282962e-07
65	0x38969e14	7.182002e-05
66	0x3800bf38	3.0695664e-05
67	0x3bd93dc6	0.0066296784
68	0xb858957d	-5.1637635e-05
69	0x339973dc	7.1456924e-08
70	0xb88d7494	-6.745118e-05
71	0x38219899	3.852751e-05
72	0x328462a1	1.5411674e-08
73	0x31c41480	5.7066813e-09
74	0xb71a6b75	-9.204135e-06
75	0x34aef51b	3.2588363e-07
76	0xb6883f7b	-4.060506e-06
77	0xb3cddf05	-9.5866234e-08
78	0x341aad7b	1.440548e-07
79	0x37a23b14	1.9339415e-05
80	0xba58f3ae	-0.0008276057
81	0x374d05ae	1.2220275e-05
82	0x36174cf9	2.2545557e-06
83	0xb36746a1	-5.3848115e-08
84	0xb1943694	-4.3135717e-09
85	0xb43b0328	-1.741688e-07
86	0xb4bf4938	-3.5629796e-07
87	0x3580f490	9.60792e-07
88	0xb320a603	-3.740389e-08
89	0xb8370b86	-4.3641332e-05
90	0x3532b1e8	6.6569055e-07
91	0x3bad7be0	0.005294308
92	0xb2b656ff	-2.122715e-08
93	0xb7be39bc	-2.267665e-05
94	0xb701f5d4	-7.7462355e-06
95	0xb612ee70	-2.1894484e-06
96	0xb788bb98	-1.6299819e-05
97	0xb705a108	-7.964911e-06
98	0xb4540e90	-1.9749336e-07
99	0xb538df49	-6.8870264e-07
100	0xb3ed50f0	-1.1050895e-07
101	0xb7a2b7b7	-1.9397454e-05
102	0x35ee46f7	1.7753035e-06
103	0xb39ee146	-7.398425e-08
104	0xb941240e	-0.00018419346
105	0x36924988	4.3596992e-06
106	0x37aeafa4	2.0824205e-05
107	0xb8408726	-4.5902234e-05
108	0x36042f75	1.9697156e-06
109	0x358b9427	1.0399425e-06
110	0x3bb721ec	0.0055887606
111	0x32e2545a	2.6348221e-08
112	0xb60d479e	-2.1052324e-06
113	0xb2629b76	-1.3190279e-08
114	0xb787cefe	-1.6189642e-05
115	0x3627d1b2	2.5006998e-06
116	0x36146f7e	2.2118616e-06
117	0x3558b7d6	8.0733787e-07
118	0xb6a64df7	-4.956262e-06
119	0x349e458c	2.9480395e-07
120	0xb3ee8f30	-1.1108784e-07
121	0xb5cd5338	-1.529791e-06
122	0x30c841bb	1.4570597e-09
123	0xb71c20bc	-9.305946e-06
124	0xb9d44e11	-0.00040493955
125	0x32d0d6da	2.431209e-08
126	0x364003ea	2.8612508e-06
127	0x35a7823d	1.2480374e-06
