swarm/minimax/model_0.25_relaxation/Q-3000000.pth (torch, 338399 bytes, 10 tensors)

net.0.0.weight f4 [128, 8]
0	0x3f25ac6c	0.6471622
1	0xbef4b349	-0.47793034
2	0xbf07f86c	-0.53113437
3	0xbee68c26	-0.450288
4	0xbf5bffd2	-0.85937226
5	0x3e8202b8	0.253927
6	0x3e8e136e	0.277492
7	0x3e5e263a	0.2169427
8	0x8015eb00	-2.012848e-39
9	0x80155176	-1.957768e-39
10	0x8016cd8c	-2.094117e-39
11	0x80156aed	-1.966903e-39
12	0x80161528	-2.02797e-39
13	0x80162108	-2.03223e-39
14	0x801401d5	-1.837367e-39
15	0x8015bad1	-1.995563e-39
16	0xbb3eaf3d	-0.002909615
17	0xbb3ece8e	-0.0029114815
18	0xbb41c017	-0.0029563957
19	0xbb432fa6	-0.002978304
20	0xbb41a176	-0.00295457
21	0xbb3c8131	-0.0028763528
22	0xbb41deaf	-0.0029582193
23	0xbb426127	-0.0029659958
24	0xbedcd11a	-0.43128282
25	0x3f2321dd	0.63723546
26	0xbea3ba4d	-0.31978074
27	0xbea6b914	-0.32563078
28	0x3e387e25	0.1801687
29	0xbf563378	-0.83672285
30	0x3db37a83	0.08763602
31	0x3dd9330f	0.10605442
32	0x80218465	-3.078066e-39
33	0x8047622a	-6.555535e-39
34	0x8022e470	-3.204355e-39
35	0x00270348	3.582761e-39
36	0x8045bd92	-6.404654e-39
37	0x802f6a91	-4.354497e-39
38	0x8001d0b5	-1.66705e-40
39	0x803e5504	-5.724299e-39
40	0x000e5958	1.317747e-39
41	0x84ed779a	-5.582827e-36
42	0x0003c447	3.45918e-40
43	0x8007f783	-7.31639e-40
44	0x00088679	7.82924e-40
45	0x0008f151	8.21252e-40
46	0x00044686	3.92641e-40
47	0x800b03a2	-1.011494e-39
48	0xba02d6c6	-0.000499111
49	0x33438ff4	4.55329e-08
50	0xb2a0ea93	-1.8733123e-08
51	0xb19bde0d	-4.536338e-09
52	0xb97ff9d4	-0.00024411763
53	0xb72c273b	-1.0261133e-05
54	0xb29f6a95	-1.8558504e-08
55	0x32339448	1.0452887e-08
56	0xb025791a	-6.0198746e-10
57	0xb4243cf0	-1.5295859e-07
58	0xb2febaba	-2.9654405e-08
59	0x313c785f	2.7426024e-09
60	0xb114c788	-2.1650255e-09
61	0xb2c39f7d	-2.2773515e-08
62	0xb2df2f6c	-2.5982182e-08
63	0x312d5614	2.5223743e-09
64	0x801cffa3	-2.663099e-39
65	0x8007460e	-6.6798e-40
66	0x80037a10	-3.19294e-40
67	0x8005b97d	-5.25718e-40
68	0x80079558	-6.96423e-40
69	0x8005052b	-4.61031e-40
70	0x800942a5	-8.50427e-40
71	0x8019b733	-2.361607e-39
72	0xa9d904b1	-9.63755e-14
73	0xa8aa990b	-1.8940163e-14
74	0xa91af0b5	-3.440365e-14
75	0xa85a044b	-1.2102362e-14
76	0xaa2d5615	-1.5395352e-13
77	0xa88e7399	-1.58153e-14
78	0xa8f39ec1	-2.7047268e-14
79	0xa834ce93	-1.0036801e-14
80	0xbeda6e98	-0.426625
81	0xbed19e16	-0.40940922
82	0xbea31ac5	-0.3185636
83	0x3f1cd793	0.6126644
84	0x3e79cfdc	0.24395698
85	0x3e640774	0.22268468
86	0x3e1ab999	0.15109862
87	0xbf5031a6	-0.8132576
88	0x8046d559	-6.50502e-39
89	0x8041083d	-5.972263e-39
90	0x8036da44	-5.037416e-39
91	0x8027f27b	-3.66857e-39
92	0x8044ccbb	-6.318257e-39
93	0x803aeb80	-5.41094e-39
94	0x803b6532	-5.454596e-39
95	0x802d9ade	-4.188153e-39
96	0xbb3834ef	-0.0028107723
97	0xbb29464f	-0.002582926
98	0xbb11c1f9	-0.002224086
99	0xbb308bd0	-0.0026938803
100	0xbadec930	-0.0016997214
101	0xbb21946e	-0.0024655121
102	0xbade93d1	-0.0016981309
103	0xbb38cc17	-0.002819782
104	0xbec7a1a2	-0.38990504
105	0xbec5d6f0	-0.38640547
106	0x3f38b7ec	0.7215564
107	0xbed92994	-0.42414534
108	0x3e66a51e	0.22523925
109	0x3e6682df	0.22510861
110	0xbf5d900c	-0.86547923
111	0x3e7ee2da	0.24891225
112	0x80406941	-5.91523e-39
113	0x8044615e	-6.279743e-39
114	0x8043f3f8	-6.240498e-39
115	0x8030dd8a	-4.487577e-39
116	0x80107299	-1.510478e-39
117	0x80226654	-3.159115e-39
118	0x8022562a	-3.153317e-39
119	0x80394cd5	-5.262185e-39
120	0xbec70491	-0.3887067
121	0xbf3e78b1	-0.7440291
122	0x3d1e58f3	0.038659047
123	0xbf36fa90	-0.7147608
124	0x3d842c34	0.064537436
125	0xbf3d66c0	-0.7398491
126	0x3ebb97a5	0.36639133
127	0xbf5adf33	-0.85496825
128	0x8013c02f	-1.813817e-39
129	0x0000d107	7.4985e-41
130	0x0009a7a2	8.86655e-40
131	0x800fab55	-1.438995e-39
132	0x8001d395	-1.67737e-40
133	0x8018fe3b	-2.295253e-39
134	0x801096ba	-1.523438e-39
135	0x8006a995	-6.11848e-40
136	0x80312ac9	-4.515288e-39
137	0x80327d5f	-4.63675e-39
138	0x8039c786	-5.306199e-39
139	0x80024e16	-2.11683e-40
140	0x802db888	-4.198795e-39
141	0x80266b31	-3.528202e-39
142	0x803f9fec	-5.843005e-39
143	0x80360c90	-4.963623e-39
144	0x801783fe	-2.159566e-39
145	0x804adbe0	-6.874703e-39
146	0x803d4c09	-5.629242e-39
147	0x8039f7b3	-5.323481e-39
148	0x803c330c	-5.528442e-39
149	0x803d9dce	-5.658575e-39
150	0x8011c8a5	-1.633181e-39
151	0x803eba67	-5.76067e-39
152	0xbae1d171	-0.0017228556
153	0xbaf2d32f	-0.0018526072
154	0xbb06e5bc	-0.002058371
155	0xbb0158ae	-0.0019736695
156	0xbae67f93	-0.0017585628
157	0xbb0244fd	-0.0019877546
158	0xbb09c180	-0.0021019876
159	0xbae68d4d	-0.0017589718
160	0x802bee4d	-4.034413e-39
161	0x80067392	-5.92472e-40
162	0x800d5048	-1.222661e-39
163	0x8048a153	-6.670028e-39
164	0x8042e02b	-6.141559e-39
165	0x8042065e	-6.063427e-39
166	0x8043cae3	-6.22576e-39
167	0x8011229c	-1.573619e-39
168	0x3f09f81d	0.53894216
169	0xbec6e712	-0.38848168
170	0x3efd14e8	0.49430013
171	0xbe1e67d7	-0.154693
172	0xbd3bd0ef	-0.04585355
173	0x3ed78db8	0.4210031
174	0xbe835a77	-0.25654957
175	0x3ec12c3b	0.37729058
176	0x0002fdf2	2.7477e-40
177	0x00026ee6	2.23454e-40
178	0x000b659f	1.046645e-39
179	0x000154a6	1.22202e-40
180	0x00006686	3.6778e-41
181	0x0004d969	4.45334e-40
182	0x0004db84	4.4609e-40
183	0x0004fe8e	4.58659e-40
184	0xbb2c76ab	-0.0026315849
185	0xbb691ea9	-0.0035571253
186	0xbb653c48	-0.0034978557
187	0xbb317f5b	-0.0027083966
188	0xbb35c3ed	-0.002773519
189	0xbb61c646	-0.0034450456
190	0xbb62efb3	-0.0034627735
191	0xbb35f6d5	-0.0027765532
192	0x803d6cca	-5.640991e-39
193	0x80319e39	-4.556699e-39
194	0x803482f1	-4.822419e-39
195	0x803ec6d5	-5.765128e-39
196	0x804ab291	-6.859884e-39
197	0x8040f11a	-5.963963e-39
198	0x803a46bd	-5.351835e-39
199	0x8027f3b2	-3.669006e-39
200	0xbef031c8	-0.4691298
201	0xbee9805d	-0.45605746
202	0x3f19ae3b	0.6003148
203	0xbeed13fe	-0.46304315
204	0x3e071cb4	0.13194543
205	0x3e20c497	0.15699993
206	0xbf6ae6c0	-0.91758347
207	0x3dc857bc	0.09782359
208	0xbe9a43e7	-0.3012993
209	0xbd1edcf3	-0.038784932
210	0x3edda1a7	0.43287393
211	0x3eef00bc	0.46680248
212	0x3f06e936	0.526996
213	0x3f030b0d	0.5118874
214	0xbe17b69c	-0.14815754
215	0xbe8fa5de	-0.28056234
216	0x00009430	5.316e-41
217	0x80020348	-1.84848e-40
218	0x8000d1cb	-7.526e-41
219	0x0002db56	2.62354e-40
220	0x80051794	-4.67636e-40
221	0x800160b6	-1.26529e-40
222	0x000226ef	1.97638e-40
223	0x0000644a	3.5977e-41
224	0x800f9497	-1.430836e-39
225	0x802ce815	-4.124017e-39
226	0x802fe954	-4.39997e-39
227	0x8047e193	-6.601241e-39
228	0x8049142f	-6.711232e-39
229	0x80340047	-4.775545e-39
230	0x801c8300	-2.618388e-39
231	0x8049bbca	-6.771357e-39
232	0x803541db	-4.890906e-39
233	0x8040114b	-5.883675e-39
234	0x801ebc69	-2.822654e-39
235	0x8018baa2	-2.271003e-39
236	0x80249add	-3.361632e-39
237	0x8047c1f5	-6.589899e-39
238	0x8032119b	-4.59809e-39
239	0x8025425c	-3.421719e-39
240	0x39eda778	0.00045328937
241	0xba4d4e73	-0.0007831819
242	0xb92a99d1	-0.00016269764
243	0xbb7c47d7	-0.0038494968
244	0x3b17df2d	0.0023173795
245	0xbb30c573	-0.0026973158
246	0xbabd1b7f	-0.001442775
247	0xbb88aee4	-0.004171239
248	0x801f4dc6	-2.8748e-39
249	0x0004ee26	4.52774e-40
250	0x80311047	-4.505779e-39
251	0x801d5f05	-2.697316e-39
252	0x8034f87c	-4.864585e-39
253	0x802ade72	-3.936889e-39
254	0x80005bda	-3.295e-41
255	0x80337414	-4.725251e-39

net.0.0.bias f4 [128]
0	0xbcf73557	-0.030176802
1	0x801f953b	-2.900434e-39
2	0xbb4c2c08	-0.0031154174
3	0x3d164068	0.036682516
4	0x8001e0e4	-1.72511e-40
5	0xacf5c65f	-6.9853424e-12
6	0xba480ad5	-0.00076310086
7	0xb8072f03	-3.223029e-05
8	0x801b90a8	-2.531451e-39
9	0xb707fde3	-8.10574e-06
10	0xbc7bd6dc	-0.015371051
11	0x000c9c92	1.158193e-39
12	0xbb40e21d	-0.002943165
13	0xbdb8e44a	-0.09027918
14	0x000dee52	1.279355e-39
15	0x3ca04d9b	0.019568255
16	0x8024fe6c	-3.397347e-39
17	0x001c104d	2.577242e-39
18	0x00071943	6.5191e-40
19	0xbb146d6b	-0.0022648226
20	0x00096ce1	8.65578e-40
21	0x3e876594	0.26444685
22	0xa9ee6832	-1.0587398e-13
23	0xbb3921c3	-0.0028248883
24	0x00108977	1.518681e-39
25	0x3dd860ab	0.10565313
26	0x3dbc89d2	0.09205975
27	0xab539fe4	-7.518415e-13
28	0x000640da	5.74277e-40
29	0x0014e306	1.91815e-39
30	0xbb07a3f4	-0.002069709
31	0x001df8e6	2.752517e-39
32	0xbaeb0777	-0.0017931302
33	0x8007c267	-7.12587e-40
34	0x800ebab0	-1.352668e-39
35	0xbd8baa30	-0.0681957
36	0xb99a4bf2	-0.00029429753
37	0x001488c0	1.885767e-39
38	0x80071a23	-6.52225e-40
39	0xb8e0ead7	-0.00010724895
40	0x0036d6ba	5.036146e-39
41	0xbb83cddc	-0.004022343
42	0xbb3c0ae2	-0.002869301
43	0x80080ce2	-7.39305e-40
44	0xa0984a63	-2.5799027e-19
45	0x0000f84b	8.9071e-41
46	0x800d4560	-1.218749e-39
47	0xb80763b3	-3.227936e-05
48	0x3ee319f7	0.44355747
49	0xbb2e9e36	-0.0026644594
50	0xbb3b6a2f	-0.0028597226
51	0x00150e77	1.933734e-39
52	0x00012a97	1.07114e-40
53	0x800b8f63	-1.061628e-39
54	0xba8a7a33	-0.0010564983
55	0x002316a7	3.222368e-39
56	0xbb2dadf7	-0.0026501396
57	0x800811c3	-7.41056e-40
58	0x3d76de47	0.060270574
59	0xbd7b452e	-0.06134527
60	0x00139110	1.796913e-39
61	0x800d0683	-1.196197e-39
62	0x80132a7d	-1.760116e-39
63	0xbb650bdc	-0.0034949696
64	0x00249535	3.359603e-39
65	0xb8c1567c	-9.219066e-05
66	0x8007fecc	-7.34252e-40
67	0x3dac2981	0.08406354
68	0x80083658	-7.54179e-40
69	0x00169e82	2.077243e-39
70	0xa87037f4	-1.3334809e-14
71	0x0013e70d	1.82776e-39
72	0xbc407c2d	-0.011748356
73	0x800d737b	-1.235288e-39
74	0x3e198615	0.14992554
75	0x8021cbd6	-3.103694e-39
76	0x00007a4a	4.3869e-41
77	0x00076874	6.80319e-40
78	0x0019c0a2	2.364991e-39
79	0x801fb495	-2.911681e-39
80	0x8021f160	-3.11716e-39
81	0x800f2ddc	-1.393984e-39
82	0x000773c7	6.84382e-40
83	0x80163437	-2.039112e-39
84	0xb9b3473f	-0.00034194623
85	0x800e1c6d	-1.295894e-39
86	0xbb090644	-0.0020908276
87	0xba99f561	-0.0011746102
88	0xba3d7873	-0.0007227726
89	0x3c9d0a4d	0.01916995
90	0x8013d4eb	-1.821255e-39
91	0x00056b4a	4.97666e-40
92	0xb9edbd4e	-0.00045345206
93	0x00179707	2.166395e-39
94	0x801d2119	-2.675103e-39
95	0xb43f0846	-1.7791271e-07
96	0x0014e6d0	1.91951e-39
97	0x8005a1d1	-5.17226e-40
98	0x00143e29	1.859009e-39
99	0x8006fc2e	-6.41478e-40
100	0xbb5d00f1	-0.0033722485
101	0x800a06ea	-9.20835e-40
102	0x8019628d	-2.331241e-39
103	0x000d7df8	1.23905e-39
104	0x0013b7fa	1.810873e-39
105	0x00137f86	1.790621e-39
106	0xb20d4f6d	-8.2253395e-09
107	0x800cec0f	-1.186708e-39
108	0x8008da8d	-8.13085e-40
109	0x001e7167	2.795746e-39
110	0xbb11b428	-0.0022232626
111	0xbb35dba8	-0.0027749334
112	0x8016c666	-2.091553e-39
113	0xbd8b9797	-0.06816023
114	0xbb2cb531	-0.0026353116
115	0xbb3ba40e	-0.002863172
116	0x3cebdf2b	0.028792938
117	0xbb15a353	-0.0022832945
118	0xba2838aa	-0.0006417135
119	0x80027a31	-2.27505e-40
120	0xab95c503	-1.0641768e-12
121	0xbb32f5e8	-0.0027307216
122	0x3d1ad703	0.037802707
123	0x00160062	2.020518e-39
124	0x3dce92e0	0.10086608
125	0xba7b8379	-0.0009594481
126	0xb1845035	-3.850824e-09
127	0x0019addf	2.35826e-39

net.1.0.weight f4 [128, 128]
0	0x8682c0ea	-4.9184027e-35
1	0x000181ee	1.38445e-40
2	0x01ba6cc0	6.848166e-38
3	0xb21f6939	-9.278943e-09
4	0x02732060	1.7862112e-37
5	0x00017dc0	1.36946e-40
6	0x81eae5c0	-8.62877e-38
7	0x810d9380	-2.6003436e-38
8	0x8003d54f	-3.52027e-40
9	0x80458000	-6.382567e-39
10	0x2f955a8a	2.7167274e-10
11	0x015ed400	4.0927063e-38
12	0x00717b00	1.0421535e-38
13	0x820d9ed0	-1.0404621e-37
14	0x000073c7	4.1533e-41
15	0xa83dd344	-1.05374185e-14
16	0x80061bca	-5.60982e-40
17	0x8263bd1d	-1.6731599e-37
18	0x0001586b	1.23554e-40
19	0x00065a00	5.83299e-40
20	0x00167546	2.06245e-39
21	0xb96b39fc	-0.00022432947
22	0x81e6bf40	-8.4763087e-38
23	0x8193b878	-5.426397e-38
24	0x003b68b8	5.45586e-39
25	0x30fb97ec	1.8305832e-09
26	0xb947970a	-0.00019034385
27	0x81f119b2	-8.856629e-38
28	0x0191b37c	5.3522135e-38
29	0x8006f284	-6.38011e-40
30	0x0027e87f	3.664988e-39
31	0x01958580	5.492552e-38
32	0x82804360	-1.884658e-37
33	0x00011f61	1.03092e-40
34	0x0004bb87	4.34614e-40
35	0x3147c204	2.9068596e-09
36	0x0001cc4a	1.6512e-40
37	0x029fbc10	2.3470893e-37
38	0x00057a4a	5.03047e-40
39	0x002e49b7	4.250877e-39
40	0x01d9263c	7.9768074e-38
41	0x8245d0e0	-1.4533218e-37
42	0x018fe7b6	5.286239e-38
43	0x00030dea	2.80498e-40
44	0x81cada00	-7.4515896e-38
45	0x8001f975	-1.81324e-40
46	0x0001a981	1.52642e-40
47	0x02057fc0	9.807959e-38
48	0xb9e3b52e	-0.00043431803
49	0x80aa7600	-1.5654365e-38
50	0x82bf3b90	-2.8099115e-37
51	0x8145b600	-3.6313764e-38
52	0x80066701	-5.87964e-40
53	0x0000e363	8.1571e-41
54	0x80d3a948	-1.9438016e-38
55	0x01a8400b	6.180535e-38
56	0x0038e900	5.226372e-39
57	0x800347b2	-3.01226e-40
58	0xb05e9a5b	-8.098248e-10
59	0xad84e855	-1.5109839e-11
60	0x00066aea	5.89367e-40
61	0x00012758	1.0595e-40
62	0x0003aaf5	3.36834e-40
63	0x00132f00	1.761735e-39
64	0x000323df	2.88375e-40
65	0x80096200	-8.61675e-40
66	0x00068872	5.9996e-40
67	0x2389e9b0	1.495254e-17
68	0x000274ef	2.25619e-40
69	0x01c8ac00	7.3715205e-38
70	0x80045448	-3.97576e-40
71	0x81d64844	-7.871488e-38
72	0x319b1974	4.5139874e-09
73	0x00004d56	2.7743e-41
74	0xb24f7392	-1.20752635e-08
75	0x000236c0	2.03312e-40
76	0x8001ceef	-1.66069e-40
77	0x8006e72c	-6.33942e-40
78	0x00017e99	1.3725e-40
79	0x000c4efb	1.130359e-39
80	0x0004f98e	4.56865e-40
81	0x01dc2350	8.086591e-38
82	0x81f64b40	-9.0474107e-38
83	0x00011eea	1.02925e-40
84	0x0091afd0	1.3379217e-38
85	0x80048d72	-4.18083e-40
86	0x00019b2c	1.475e-40
87	0x808d3f00	-1.2971405e-38
88	0x81914c40	-5.3374e-38
89	0x26ea0cf6	1.6240525e-15
90	0x0006b881	6.172e-40
91	0x8006eb11	-6.35339e-40
92	0x020caee0	1.0335762e-37
93	0x8152e338	-3.873393e-38
94	0x0003010b	2.7588e-40
95	0x01d27845	7.7314395e-38
96	0x800752d3	-6.7256e-40
97	0x8002d423	-2.59771e-40
98	0x01cb9304	7.478138e-38
99	0x0001041a	9.3307e-41
100	0x825dc1a0	-1.6292083e-37
101	0x000728c0	6.57467e-40
102	0x80024c86	-2.11122e-40
103	0x0005b800	5.25184e-40
104	0x818ac040	-5.096906e-38
105	0x8001c7f0	-1.6356e-40
106	0x02344f20	1.3247019e-37
107	0x8002d85c	-2.61286e-40
108	0x80007cf0	-4.4819e-41
109	0x8011f4d1	-1.649027e-39
110	0x81b5ea00	-6.682467e-38
111	0x021f3a60	1.1698228e-37
112	0x80020d73	-1.88496e-40
113	0x059b9138	1.4629475e-35
114	0x0002c6fa	2.5505e-40
115	0x01d5ab51	7.848967e-38
116	0xb359e1c0	-5.0729568e-08
117	0x01b26240	6.5527855e-38
118	0x804571ce	-6.377475e-39
119	0x8006a733	-6.10993e-40
120	0x8232a08b	-1.3123448e-37
121	0x0000bb60	6.7217e-41
122	0xae0ace68	-3.1560893e-11
123	0x800405f0	-3.69472e-40
124	0x2f39a960	1.6885826e-10
125	0x8212c754	-1.078359e-37
126	0x01cb92d9	7.478114e-38
127	0x003d9d00	5.658286e-39
128	0xc0294528	-2.644846
129	0x00094318	8.50588e-40
130	0x3b43c07a	0.0029869364
131	0xbf2a3113	-0.6648113
132	0x00116d78	1.600473e-39
133	0x0015422b	1.952282e-39
134	0x309a775c	1.1238899e-09
135	0x1e3c1252	9.956426e-21
136	0x80071a47	-6.52275e-40
137	0x356e32e0	8.873594e-07
138	0xbf5fdb17	-0.8744368
139	0x802b4cc4	-3.976465e-39
140	0x38f4fea4	0.00011682257
141	0xc0487b62	-3.1325307
142	0x00392d3f	5.250855e-39
143	0x3d8d50c7	0.06900173
144	0x8007031d	-6.43965e-40
145	0x8027e1c2	-3.662571e-39
146	0x018f3082	5.259951e-38
147	0xbaac6bd3	-0.0013154693
148	0x82ce4af4	-3.0312e-37
149	0xbe114daf	-0.1418979
150	0x80061673	-5.59066e-40
151	0xbb07cfc4	-0.0020723203
152	0x002d7ed9	4.178102e-39
153	0xbfca5255	-1.5806376
154	0xbd10e2f7	-0.0353727
155	0x800469a6	-4.05242e-40
156	0x00485ac8	6.644722e-39
157	0x801a56fc	-2.418927e-39
158	0x384077f2	4.5888075e-05
159	0x0025ec4d	3.482682e-39
160	0xbaad9a35	-0.001324481
161	0x00025d21	2.1708e-40
162	0x8016018e	-2.020939e-39
163	0xbfcc0c83	-1.5941318
164	0x80005d32	-3.3432e-41
165	0x8037eba6	-5.135487e-39
166	0x00022bab	1.99336e-40
167	0x9f50997e	-4.417268e-20
168	0x801c3588	-2.590597e-39
169	0xbb44cf7d	-0.00300309
170	0x3a6c4ae7	0.0009013847
171	0x00009cae	5.6206e-41
172	0x8008b3ed	-7.99229e-40
173	0x80064983	-5.77384e-40
174	0x800bc85c	-1.082066e-39
175	0x970729c2	-4.367356e-25
176	0x3d9f7e96	0.07787816
177	0xba9cf029	-0.0011973429
178	0x3b402432	0.002931845
179	0x002672b6	3.5309e-39
180	0x800205a6	-1.85697e-40
181	0x0005ad4d	5.21346e-40
182	0x8000a8cb	-6.0552e-41
183	0x803c9479	-5.563392e-39
184	0x3aeba0dc	0.0017977017
185	0x00077aa3	6.86842e-40
186	0xc01217ca	-2.282702
187	0xbfc84e16	-1.564883
188	0x001db6dc	2.728827e-39
189	0x0006aaab	6.12237e-40
190	0x800a1e51	-9.2923e-40
191	0x3b3f2139	0.002916409
192	0x8009737b	-8.67946e-40
193	0x000e8e13	1.336664e-39
194	0x80021b76	-1.93522e-40
195	0xbffadc39	-1.9598457
196	0x8002dee1	-2.63625e-40
197	0x82329c4b	-1.3122229e-37
198	0xa72d8f80	-2.4086364e-15
199	0x8001c906	-1.63949e-40
200	0xc03ee1aa	-2.9825234
201	0x800757dc	-6.74366e-40
202	0xbe1a3edb	-0.1506304
203	0x001c8e19	2.622369e-39
204	0x018d3de2	5.188402e-38
205	0x800542d4	-4.83151e-40
206	0x8005f825	-5.48195e-40
207	0x8007a12a	-7.00663e-40
208	0x8015c1e4	-1.9981e-39
209	0x800e3d1e	-1.307622e-39
210	0x00092415	8.39463e-40
211	0x0011b821	1.627256e-39
212	0x2a8f2a05	2.543106e-13
213	0x8006382f	-5.71168e-40
214	0x3a881fdd	0.0010385473
215	0x3003831a	4.784383e-10
216	0xb932caf7	-0.00017051013
217	0xbf086539	-0.53279454
218	0x023e42f0	1.3978206e-37
219	0x800ae3ba	-1.000048e-39
220	0xa614c9aa	-5.162112e-16
221	0x00484dae	6.640022e-39
222	0x801c5a71	-2.603838e-39
223	0x00075514	6.73369e-40
224	0x00096ae1	8.6486e-40
225	0x800390eb	-3.27493e-40
226	0x8039273f	-5.248702e-39
227	0x8001cdf1	-1.65713e-40
228	0xbb4bcf7c	-0.0031099012
229	0x0009e3bd	9.08217e-40
230	0x800238c7	-2.04039e-40
231	0x8010d0b8	-1.544242e-39
232	0x0016e295	2.101663e-39
233	0x8013242c	-1.75785e-39
234	0xaaa06aec	-2.8495901e-13
235	0x0007076f	6.45515e-40
236	0x0005fe43	5.5039e-40
237	0x001ad9cf	2.465858e-39
238	0x2434690f	3.9120266e-17
239	0xbb11f9e6	-0.0022274195
240	0x800eeb62	-1.370136e-39
241	0xbff21820	-1.8913612
242	0x3b5dfe73	0.0033873587
243	0x394349c4	0.00018624129
244	0xbe7c0475	-0.24611075
245	0xbb559e14	-0.0032595443
246	0x3826405c	3.9637423e-05
247	0x80013a51	-1.12755e-40
248	0x8001df49	-1.71935e-40
249	0xbb2a1357	-0.002595147
250	0xbf914bc0	-1.1351242
251	0x001948d4	2.322013e-39
252	0xbf8109be	-1.0081098
253	0x3a87d621	0.0010363498
254	0x8018031c	-2.205167e-39
255	0x800a84b3	-9.65958e-40

net.1.0.bias f4 [128]
0	0xba253d31	-0.0006303369
1	0x3ea91948	0.330271
2	0x3f1448f1	0.579238
3	0x971ad636	-5.0030456e-25
4	0xa6c66d5b	-1.3768651e-15
5	0x9a2671cd	-3.4419923e-23
6	0xbb268a1e	-0.0025411914
7	0x8010191b	-1.478374e-39
8	0x3dd6439d	0.10462115
9	0x3fb104d7	1.3829602
10	0xb9928fc3	-0.000279544
11	0x3ed1855f	0.40922067
12	0xbaa71640	-0.001274772
13	0x877811b4	-1.8662649e-34
14	0x3e9a4839	0.30133227
15	0x3e9b4fd5	0.30334345
16	0x3eaa1602	0.33219916
17	0xbb24f795	-0.0025171984
18	0x3f1f9644	0.6233866
19	0xbaa457c1	-0.001253836
20	0xb36984f1	-5.437045e-08
21	0xbae7f6a3	-0.0017697405
22	0xb5c1f01b	-1.44495e-06
23	0x80208c52	-2.989073e-39
24	0x80134c3c	-1.772222e-39
25	0x3e977b2b	0.29586157
26	0xbb4ded56	-0.003142198
27	0xbb358151	-0.0027695487
28	0x3f91bfcb	1.1386656
29	0x3e46f5d5	0.19429715
30	0x3eecdb0b	0.46260867
31	0x3e837fcb	0.25683436
32	0xbb1f0841	-0.0024266394
33	0xbb361863	-0.0027785532
34	0xb7bfcc6b	-2.2864164e-05
35	0xaeb45471	-8.200452e-11
36	0x3d1f6f24	0.03892435
37	0xba4a2b24	-0.0007712117
38	0x3f9e28ac	1.2356162
39	0xb9828f04	-0.00024902087
40	0xbb0535e6	-0.0020326315
41	0xb4c7c84d	-3.7212376e-07
42	0x3e922de6	0.28550643
43	0xbb6b784b	-0.0035929854
44	0xbafe466e	-0.0019399652
45	0x3ecee3d2	0.40408188
46	0x3ee8fa91	0.45503667
47	0x800e9fb7	-1.342992e-39
48	0xba1454fa	-0.00056584144
49	0x3e1c8dd5	0.1528848
50	0xbb38b474	-0.002818373
51	0xbad1c99e	-0.0016005521
52	0xae9d7c9c	-7.1616685e-11
53	0xb58e74f8	-1.0613867e-06
54	0x3f6a86a9	0.91611725
55	0xbaad9c1b	-0.0013245376
56	0x3e9026e3	0.28154668
57	0xbb392beb	-0.0028254937
58	0xba51789c	-0.00079906895
59	0xb59c7bd7	-1.1658948e-06
60	0xb5e542ea	-1.7081304e-06
61	0xac74d6b5	-3.4793672e-12
62	0xb307edea	-3.164852e-08
63	0xbaaf6e19	-0.0013384252
64	0x3e654f7e	0.22393605
65	0x3f21bab6	0.63175523
66	0x3e360943	0.1777697
67	0xba55102b	-0.00081277144
68	0xb8abad83	-8.1862345e-05
69	0x3f42ea0f	0.76138395
70	0x3f3a8e9a	0.7287384
71	0x3eaf12b4	0.34193957
72	0x0000fb2d	9.0105e-41
73	0xba8558cb	-0.0010173557
74	0xb987ad53	-0.00025878343
75	0x3e8c86ff	0.27446744
76	0xb75b3d77	-1.3067728e-05
77	0xb4c7adc9	-3.7193084e-07
78	0x3e6276be	0.22115609
79	0xb9187841	-0.00014540648
80	0xb245369f	-1.1479329e-08
81	0xb49b6c6a	-2.8949881e-07
82	0xbaae66a1	-0.0013305732
83	0xa9414551	-4.291473e-14
84	0xbb2acfbb	-0.0026063758
85	0x80111ce8	-1.571573e-39
86	0xba4c1388	-0.0007784893
87	0x3e566514	0.20936996
88	0x3e4ca90b	0.1998636
89	0xb9c93005	-0.00038373485
90	0x3f11e9c7	0.5699734
91	0xbabe0fd1	-0.0014500563
92	0xb74684a3	-1.1832602e-05
93	0xbad76e49	-0.0016436066
94	0x3f6f1a89	0.93399864
95	0xbb6e48ee	-0.0036359387
96	0xb8ab9808	-8.1822334e-05
97	0x8f89a92a	-1.3574403e-29
98	0x3de0540b	0.1095353
99	0x801654a5	-2.050746e-39
100	0xbaa413b5	-0.001251808
101	0x80057be7	-5.03625e-40
102	0xbaa93a16	-0.0012910988
103	0xa8c59dd5	-2.1939842e-14
104	0x9fb08bf4	-7.477043e-20
105	0xbb3677a8	-0.0027842317
106	0x02f5bc9a	3.6107766e-37
107	0x3e563eb4	0.20922357
108	0xbb2f79e4	-0.0026775533
109	0x3f7cb020	0.98706245
110	0xbb0120be	-0.0019703354
111	0x3f384f61	0.7199612
112	0xbb340232	-0.0027467129
113	0xbaf90206	-0.0018997795
114	0x8d7e9fe6	-7.8462264e-31
115	0x800229db	-1.98686e-40
116	0xbb063898	-0.002048051
117	0xbb3749dd	-0.002796761
118	0x3ee87b17	0.4540641
119	0x80134a54	-1.771538e-39
120	0x000da039	1.251339e-39
121	0x3dc9cfbf	0.098540775
122	0x3f601b86	0.87542
123	0xa394e189	-1.614171e-17
124	0xbb27008b	-0.0025482501
125	0xb9bb494a	-0.00035722024
126	0xbc5f774f	-0.013639285
127	0xbb2e7523	-0.0026620112

net.2.0.weight f4 [128, 128]
0	0x159711a8	6.101627e-26
1	0xbfffbf1a	-1.9980195
2	0xbf436de6	-0.76339567
3	0x0f5b95ce	1.0826385e-29
4	0x23a474b3	1.783034e-17
5	0x1a19afb3	3.1781587e-23
6	0xba9e07f1	-0.001205681
7	0x8004efeb	-4.53408e-40
8	0x3f811c1d	1.0086704
9	0x3f0e0745	0.5547984
10	0x22f7e15b	6.718809e-18
11	0xc002bd1a	-2.0427918
12	0x80014c08	-1.1911e-40
13	0x00e0eb28	2.065551e-38
14	0xbfcf80a6	-1.6211135
15	0xbff1a84c	-1.8879485
16	0xbffd52b2	-1.9790862
17	0x80361621	-4.967055e-39
18	0x3f5f06c3	0.8711969
19	0x81ea422a	-8.6052965e-38
20	0x003f0d24	5.79035e-39
21	0x12cb20d8	1.2819198e-27
22	0x0007c403	7.13164e-40
23	0x800d4cfd	-1.22148e-39
24	0x800065ae	-3.6476e-41
25	0xc007d3b4	-2.1222963
26	0xb55b7968	-8.1760527e-07
27	0xbb446d71	-0.0029972459
28	0x3e64b420	0.22334337
29	0xc0090c13	-2.141362
30	0x3f8ef373	1.1168045
31	0xc02ba603	-2.6820076
32	0x8129e7e4	-3.120677e-38
33	0x80b368d6	-1.6476162e-38
34	0x8009b7a7	-8.92402e-40
35	0x00069ac1	6.06528e-40
36	0x3f94eaf2	1.16342
37	0x0029fb36	3.855373e-39
38	0x3decb38d	0.11557684
39	0x2392744e	1.5878609e-17
40	0x013039c8	3.236755e-38
41	0x002279a2	3.16604e-39
42	0xc0098916	-2.148992
43	0xba0d2467	-0.00053841475
44	0xbab9de6f	-0.001418067
45	0xbfb641b0	-1.4238796
46	0xbfbaa623	-1.4581951
47	0x800f3102	-1.395113e-39
48	0x81923d68	-5.3720043e-38
49	0x3f45f332	0.7732421
50	0x0025d82e	3.475464e-39
51	0x296866ad	5.1603405e-14
52	0x0014b184	1.90039e-39
53	0x800cc2b1	-1.171868e-39
54	0xbdc04835	-0.093887724
55	0x39f1a5b5	0.00046090563
56	0xbff14f3b	-1.8852304
57	0x80386ad0	-5.181105e-39
58	0xa6888bfb	-9.474837e-16
59	0x8007310a	-6.6044e-40
60	0x8000b231	-6.3923e-41
61	0x8000f194	-8.6662e-41
62	0x0002f59c	2.71779e-40
63	0x009759f2	1.3899426e-38
64	0xc0063b7a	-2.0973802
65	0xbedb6f72	-0.42858464
66	0xc0282af4	-2.6276217
67	0x81f12364	-8.85802e-38
68	0x00406422	5.913393e-39
69	0xbeee73fd	-0.46572867
70	0xbe83e7a0	-0.25762653
71	0xc012a68b	-2.291415
72	0x8163d1f0	-4.1843938e-38
73	0xbb1912f3	-0.0023357242
74	0x8036f16b	-5.045721e-39
75	0xc02e5356	-2.7238364
76	0xb57e1953	-9.4659225e-07
77	0x022882d5	1.2380238e-37
78	0xc01adcc8	-2.4197254
79	0x800074c8	-4.1893e-41
80	0x800098d6	-5.4827e-41
81	0x80314b0e	-4.526864e-39
82	0x00d8f220	1.9923325e-38
83	0x001b48d1	2.50568e-39
84	0xb929ced7	-0.0001619415
85	0x80398adb	-5.284435e-39
86	0x806a3f60	-9.757297e-39
87	0x3f98ac13	1.1927513
88	0x3f41c546	0.7569164
89	0x821a3ff8	-1.1332491e-37
90	0x3f6149db	0.8800332
91	0x35f6ddeb	1.8393015e-06
92	0x801e5c36	-2.788144e-39
93	0x8039510c	-5.263697e-39
94	0xbdc85675	-0.09782115
95	0x80422b50	-6.07668e-39
96	0x001ac81f	2.459513e-39
97	0x0b8e8100	5.489051e-32
98	0x3f9e58de	1.237087
99	0x00006594	3.644e-41
100	0x00145ae8	1.869321e-39
101	0x802bbeee	-4.017419e-39
102	0x2fa8d374	3.0709268e-10
103	0x00174b90	2.139323e-39
104	0x87bbb413	-2.824247e-34
105	0x80250b6c	-3.402011e-39
106	0x8004ae54	-4.29879e-40
107	0xc017c1ce	-2.371204
108	0x825be6ca	-1.6155812e-37
109	0x3db37843	0.087631725
110	0x8016febc	-2.111762e-39
111	0xbec2e37a	-0.38064176
112	0x00483b9e	6.633542e-39
113	0xbbb24c62	-0.0054412344
114	0x8002a3fc	-2.42498e-40
115	0x0014980c	1.891254e-39
116	0x018d38ee	5.187691e-38
117	0x39da62ab	0.00041653714
118	0xbf6238fa	-0.8836819
119	0x80071475	-6.50187e-40
120	0x800ed895	-1.363392e-39
121	0x3f9d2600	1.2277222
122	0xbdaf1bfa	-0.08550258
123	0x826ee0bd	-1.7549975e-37
124	0x81eefa0c	-8.778619e-38
125	0x001b5448	2.509793e-39
126	0x3f878194	1.0586419
127	0x801fafcc	-2.909964e-39
128	0x80b15d00	-1.6288245e-38
129	0x802ca6fb	-4.100663e-39
130	0x00284d4e	3.701152e-39
131	0x81d88c80	-7.9547476e-38
132	0x01036e00	2.413982e-38
133	0x82216b20	-1.1859155e-37
134	0x80ddba00	-2.0362369e-38
135	0x8001be59	-1.6012e-40
136	0x800d1363	-1.200816e-39
137	0x800923b2	-8.39325e-40
138	0x81976d80	-5.5625764e-38
139	0x80066fab	-5.91072e-40
140	0x023e8758	1.3997837e-37
141	0x8279323a	-1.8308045e-37
142	0x8030342d	-4.426821e-39
143	0x000ede88	1.365526e-39
144	0x00214a81	3.057298e-39
145	0x82be3a34	-2.7951398e-37
146	0x803596b9	-4.92135e-39
147	0x81adfa40	-6.3909254e-38
148	0x80010100	-9.2194e-41
149	0x01226c00	2.9832187e-38
150	0x800eff00	-1.377174e-39
151	0x800321be	-2.87611e-40
152	0x80c1add8	-1.7786614e-38
153	0x80321c24	-4.60187e-39
154	0x00ca8e00	1.860171e-38
155	0x81cb2240	-7.461957e-38
156	0x0016d637	2.097227e-39
157	0x00002b48	1.5526e-41
158	0x800733cd	-6.61431e-40
159	0x001a7c76	2.432371e-39
160	0x023ee370	1.4024267e-37
161	0x02487480	1.4727113e-37
162	0x81b283c0	-6.5575925e-38
163	0x0178fe9c	4.573308e-38
164	0x800840a4	-7.57873e-40
165	0x80bcba00	-1.7331798e-38
166	0x00239ab6	3.269742e-39
167	0x80ed7c00	-2.1809495e-38
168	0x8038e7a3	-5.225883e-39
169	0x024e16c0	1.5141019e-37
170	0x0019b24a	2.359845e-39
171	0x81ce2900	-7.573128e-38
172	0x8223fa81	-1.204724e-37
173	0x8040c458	-5.947907e-39
174	0x802e5cf2	-4.257775e-39
175	0x00d1da30	1.927189e-38
176	0x809b1500	-1.4242035e-38
177	0x0017fca7	2.202851e-39
178	0x00ce4b50	1.8945129e-38
179	0x81e4b740	-8.4016923e-38
180	0x023f0d80	1.4036338e-37
181	0x00074700	6.68318e-40
182	0x80334fd6	-4.71225e-39
183	0x80219066	-3.082372e-39
184	0x801c486c	-2.597374e-39
185	0x8120f980	-2.9566366e-38
186	0x8004a548	-4.26634e-40
187	0x01f36bc0	8.9418716e-38
188	0x015cdd80	4.0566537e-38
189	0x00048e81	4.18463e-40
190	0x820606a5	-9.846672e-38
191	0x8031dc16	-4.578891e-39
192	0x00033a24	2.96363e-40
193	0x00109851	1.524009e-39
194	0x004456a2	6.275892e-39
195	0x8058b900	-8.147889e-39
196	0x814c1000	-3.7480362e-38
197	0x00069dd3	6.0763e-40
198	0x8000b924	-6.6416e-41
199	0x0021fb37	3.12069e-39
200	0x020d4500	1.0378846e-37
201	0x81dd7c00	-8.136051e-38
202	0x00775300	1.0958199e-38
203	0x001ac716	2.459141e-39
204	0x026d5a5b	1.7437941e-37
205	0x02770c8f	1.8150298e-37
206	0x000fc49c	1.448063e-39
207	0x8232ef9d	-1.314614e-37
208	0x00854d00	1.2241743e-38
209	0x02375c40	1.3471191e-37
210	0x81722e80	-4.4481742e-38
211	0x80007bc7	-4.4403e-41
212	0x00c0f700	1.7721022e-38
213	0x800f4100	-1.40085e-39
214	0x80c69c00	-1.823939e-38
215	0x0012848b	1.700586e-39
216	0x803db94f	-5.668441e-39
217	0x016945cc	4.2845418e-38
218	0x800339d0	-2.96246e-40
219	0x8002d1c3	-2.5892e-40
220	0x016e3680	4.3752798e-38
221	0x81a23100	-5.9579713e-38
222	0x801d5581	-2.693902e-39
223	0x829d0a20	-2.3074888e-37
224	0x8003eb0c	-3.59825e-40
225	0x01effac0	8.8154543e-38
226	0x800a6245	-9.53607e-40
227	0x8013e9c5	-1.828735e-39
228	0x0041bb00	6.03639e-39
229	0x019a5780	5.669622e-38
230	0x830e7708	-4.186669e-37
231	0x0072b500	1.0534177e-38
232	0x81a03740	-5.8854e-38
233	0x0157b880	3.9621636e-38
234	0x01674700	4.247894e-38
235	0x00455e0c	6.370387e-39
236	0x818d6d40	-5.1951986e-38
237	0x801320e1	-1.756669e-39
238	0x8001d780	-1.69142e-40
239	0x0010b873	1.535536e-39
240	0x0078b9f0	1.1086961e-38
241	0x81db8dc0	-8.0651296e-38
242	0x81308c00	-3.242654e-38
243	0x805c6300	-8.48438e-39
244	0x02bd9800	2.7858298e-37
245	0x824bb392	-1.4965619e-37
246	0x803f3c6c	-5.807312e-39
247	0x0001d7d5	1.69261e-40
248	0x82ae3f70	-2.5603413e-37
249	0x8005d13d	-5.34238e-40
250	0x8037a935	-5.111652e-39
251	0x02417278	1.4212252e-37
252	0x820948a0	-1.0086013e-37
253	0x80d1e600	-1.9276127e-38
254	0x00100f38	1.474827e-39
255	0x017cf978	4.6464075e-38

net.2.0.bias f4 [128]
0	0x3f1425aa	0.5786997
1	0x8038912c	-5.194866e-39
2	0x3fa35bea	1.2762425
3	0x8041566e	-6.000312e-39
4	0x3eeef349	0.46669987
5	0x3f09f5b1	0.5389052
6	0x3f12ac0b	0.57293767
7	0x0003dd0a	3.548e-40
8	0x3fad0c36	1.3519351
9	0x000c2d45	1.118266e-39
10	0x3f070529	0.5274225
11	0x3fa3115f	1.2739676
12	0x3f9b4fc8	1.2133722
13	0x3f9f1b1c	1.2430148
14	0x3f1be82d	0.6090115
15	0xa63eddd1	-6.622011e-16
16	0xbb64d057	-0.003491422
17	0x00193ae9	2.31702e-39
18	0x3f9cb399	1.2242309
19	0x3f0a7234	0.5408051
20	0x8021d643	-3.107434e-39
21	0x0006feea	6.42459e-40
22	0x3fa02673	1.2511734
23	0xb39569f6	-6.9576274e-08
24	0x8033e7c2	-4.76675e-39
25	0x3fa2ed03	1.272858
26	0xb12d31d2	-2.5203133e-09
27	0x3fa0ad16	1.2552822
28	0x3faef812	1.3669455
29	0x8037dbd5	-5.129813e-39
30	0x800991e7	-8.7886e-40
31	0x3fa8b1c7	1.3179253
32	0x803f055a	-5.787556e-39
33	0x803bac51	-5.48011e-39
34	0x80410db1	-5.974219e-39
35	0x3ef2c87c	0.47418582
36	0x3fa7efe5	1.3120085
37	0x8017cab9	-2.18494e-39
38	0x3fa16e9c	1.261188
39	0x3fa8b189	1.317918
40	0x80411987	-5.978465e-39
41	0x000ee35b	1.367257e-39
42	0x3ee5ddb3	0.44895706
43	0x800a914e	-9.7048e-40
44	0x9bd2d8d7	-3.4881715e-22
45	0x80220b46	-3.126451e-39
46	0x8027cf08	-3.655853e-39
47	0x3fab376d	1.337629
48	0x3f004f6d	0.50121194
49	0x3f0b2748	0.54356813
50	0x958fd40d	-5.80918e-26
51	0xa6c19e26	-1.3434931e-15
52	0x0003b993	3.42078e-40
53	0x3f09996f	0.53749746
54	0x3efecb93	0.4976469
55	0x8029b611	-3.830568e-39
56	0xaf806afe	-2.3359087e-10
57	0xac88b62a	-3.8855768e-12
58	0x802bb4b4	-4.01375e-39
59	0xb1462ff9	-2.8840061e-09
60	0x3f9eedcb	1.2416319
61	0x801bf391	-2.566934e-39
62	0x000298f3	2.38539e-40
63	0xab9c74cb	-1.1116883e-12
64	0x8036511a	-4.98821e-39
65	0x00335a06	4.715905e-39
66	0x3f99be04	1.2011113
67	0x3fad9951	1.3562413
68	0x3ee80f7c	0.45324314
69	0x3eff37c6	0.4984724
70	0x3f0a063b	0.53915757
71	0x80408455	-5.924944e-39
72	0x3ef932ec	0.48671663
73	0x801044b0	-1.494008e-39
74	0x3fa11757	1.2585248
75	0xb5e7b91d	-1.7264716e-06
76	0x80151ea1	-1.939533e-39
77	0xbb23e67d	-0.0025009208
78	0x3f12a4ac	0.5728252
79	0x3f12b9e7	0.57314914
80	0x800b9b37	-1.065871e-39
81	0x3f0daebc	0.5534475
82	0x3f0d19df	0.551176
83	0x8024a1a5	-3.364065e-39
84	0xab2127ca	-5.725391e-13
85	0x3f9bf5bb	1.2184366
86	0x3fa3caf2	1.2796309
87	0x3efd8667	0.49516603
88	0x80162a3e	-2.035535e-39
89	0x800aef80	-1.004271e-39
90	0xb5ab626d	-1.2769138e-06
91	0x801138a2	-1.58152e-39
92	0x80143d0b	-1.858608e-39
93	0x804a1bfa	-6.805863e-39
94	0x80146da2	-1.876039e-39
95	0x3f0119e7	0.5043015
96	0x3fad3461	1.353161
97	0x800d6ded	-1.233295e-39
98	0x3fa8f54b	1.3199857
99	0xb654051c	-3.1593436e-06
100	0xb7b87e5a	-2.1993346e-05
101	0x3f0aca57	0.54214996
102	0x3f041037	0.5158724
103	0x801cf0d1	-2.657783e-39
104	0x803b9efa	-5.475324e-39
105	0xba2dcecb	-0.0006630241
106	0x3fa5cbe9	1.2952853
107	0x800f19a2	-1.386728e-39
108	0x3edab3dc	0.42715347
109	0x3ef284d2	0.4736696
110	0x3ef74409	0.48294094
111	0x3f0e14bd	0.55500394
112	0xb7e6b8f4	-2.7504262e-05
113	0x801dfac1	-2.753183e-39
114	0x801ec117	-2.824332e-39
115	0x08411e77	5.8114636e-34
116	0x3fa545b9	1.2911903
117	0x3edab941	0.42719463
118	0x3f01a8d8	0.5064826
119	0x3f0de5c4	0.5542872
120	0x803472a9	-4.816578e-39
121	0x801174ad	-1.603059e-39
122	0x80219f4f	-3.08772e-39
123	0x80429705	-6.115318e-39
124	0x3fa77eaf	1.3085536
125	0xb88a0d7e	-6.582866e-05
126	0x3f071f3b	0.5278203
127	0x3f0064f6	0.50154054

net.3.0.weight f4 [128, 128]
0	0x3f3c3e95	0.7353299
1	0x80064af9	-5.77908e-40
2	0x3c606341	0.013695539
3	0x8039095d	-5.237982e-39
4	0x3e62feb2	0.22167471
5	0x3e716e83	0.23577313
6	0x3f22c232	0.6357757
7	0x0005c964	5.31423e-40
8	0xbd0d47d6	-0.034492336
9	0x001d9a84	2.718659e-39
10	0x3e631dd9	0.22179355
11	0xbc69ae94	-0.014262814
12	0xbb5dec48	-0.0033862758
13	0xbc597ff9	-0.01327514
14	0x3efe60ea	0.49683315
15	0x0011d91d	1.639089e-39
16	0x020a0d4c	1.0142455e-37
17	0x00069d10	6.07356e-40
18	0xbce352cd	-0.027749443
19	0x3f00d9f7	0.5033259
20	0x8015a096	-1.986153e-39
21	0x0024c2a3	3.3759e-39
22	0xbbd68b6c	-0.006547382
23	0x01454d94	3.6238845e-38
24	0x0001b3cd	1.56336e-40
25	0xbb5299cc	-0.0032135127
26	0x8195793a	-5.490791e-38
27	0xbc35d3f1	-0.011097894
28	0xbc082cad	-0.008311433
29	0x80057f6d	-5.04889e-40
30	0x800bc152	-1.079541e-39
31	0x3d0fb6e7	0.03508654
32	0x0010a21b	1.52752e-39
33	0x0030d585	4.4847e-39
34	0x001d92d2	2.715899e-39
35	0x3e1fa03f	0.15588473
36	0xbc2b0487	-0.010438091
37	0x00010e1c	9.6897e-41
38	0xbbc4a4b4	-0.0060010795
39	0xbc0de54d	-0.008660627
40	0x800df344	-1.281129e-39
41	0x800331a2	-2.93311e-40
42	0x3ea14d13	0.31504115
43	0x8024f076	-3.392339e-39
44	0x81fae33a	-9.216155e-38
45	0x80405115	-5.906559e-39
46	0x0014a8d6	1.897277e-39
47	0xbc8ff96e	-0.017574992
48	0x3e463d36	0.19359288
49	0x3e3e2892	0.18570164
50	0x81422638	-3.5659593e-38
51	0x823261de	-1.3105461e-37
52	0x0024b064	3.369355e-39
53	0x3e4e791b	0.20163386
54	0x3ecbe246	0.3982107
55	0x00195a34	2.328246e-39
56	0x801298e7	-1.70789e-39
57	0x8187d6a6	-4.9899173e-38
58	0x00284280	3.697276e-39
59	0x81a823d2	-6.1764853e-38
60	0x3ca3092d	0.019901836
61	0x800e03aa	-1.287011e-39
62	0x006205d0	9.001964e-39
63	0x80022959	-1.98504e-40
64	0x00045758	3.98675e-40
65	0x81c6a3ee	-7.296894e-38
66	0xbc550334	-0.013001252
67	0x3cc08e2e	0.023505297
68	0x3e34738a	0.176222
69	0x3e4c2c25	0.19938715
70	0x3e73dab7	0.23813902
71	0x800b58c6	-1.042036e-39
72	0x3e4fd231	0.20295025
73	0x8018ce1d	-2.277991e-39
74	0xbc8377db	-0.016048362
75	0x0181fe62	4.775214e-38
76	0x00083d83	7.5675e-40
77	0x813bc5f6	-3.4488506e-38
78	0x3e4fe6c5	0.20302875
79	0x3ec2c711	0.380425
80	0x8010c841	-1.541206e-39
81	0x3e4db603	0.20088963
82	0x3f07a161	0.5298062
83	0x000ee544	1.367942e-39
84	0x00194410	2.320304e-39
85	0x3b0fca90	0.0021940805
86	0xbccd1743	-0.025035506
87	0x3ee45789	0.44598034
88	0x80092368	-8.39221e-40
89	0x8009cee3	-9.00736e-40
90	0x8014cf19	-1.911003e-39
91	0x000b7b33	1.054386e-39
92	0x000fff40	1.469099e-39
93	0x0002c819	2.55453e-40
94	0x018b7f4e	5.124321e-38
95	0x3e9b0f06	0.302849
96	0x3d0c73e8	0.034290224
97	0x018d9ec0	5.2023015e-38
98	0x3ae9df83	0.0017843101
99	0x00032da3	2.91878e-40
100	0x80093afc	-8.47679e-40
101	0x3ec13641	0.37736705
102	0x3f33041d	0.6992815
103	0x002a56e0	3.888256e-39
104	0x004a296c	6.810686e-39
105	0x801420f2	-1.848528e-39
106	0xbb167424	-0.0022957409
107	0x0018d491	2.280306e-39
108	0x3e937bcd	0.2880539
109	0x3e3732f7	0.17890535
110	0x3e75c6fe	0.24001691
111	0x3e927d62	0.28611284
112	0x829d8d00	-2.3150007e-37
113	0x8026a93f	-3.550463e-39
114	0x801b753a	-2.521611e-39
115	0x881cf1b4	-4.7228663e-34
116	0xbc01c053	-0.007919389
117	0x3e9d1bb4	0.30685198
118	0x3e5012c8	0.20319664
119	0x3e5d0a03	0.2158585
120	0x0006523b	5.80512e-40
121	0x0012674a	1.690092e-39
122	0x002239af	3.1431e-39
123	0x00272edd	3.598396e-39
124	0x3bcf4b75	0.006326134
125	0x000006a5	2.384e-42
126	0x3e9b7ad3	0.30367145
127	0x3f45f8d0	0.7733278
128	0x3f3c7051	0.7360888
129	0x801c13a0	-2.578434e-39
130	0x3c673ebb	0.014114077
131	0x0016a4cd	2.0795e-39
132	0x3e644ae1	0.22294189
133	0x3e72470d	0.23659916
134	0x3f232db5	0.6374162
135	0x801dd46f	-2.739436e-39
136	0xbd04c81f	-0.032417413
137	0x802c1172	-4.04702e-39
138	0x3e6468d6	0.22305617
139	0xbc58a007	-0.013221747
140	0xbb403f36	-0.0029334552
141	0xbc403921	-0.011732371
142	0x3efedd91	0.49778417
143	0x80089c2e	-7.9071e-40
144	0x803c7460	-5.551877e-39
145	0x8005b865	-5.25326e-40
146	0xbcdae0bb	-0.026718488
147	0x3f01062f	0.5040006
148	0x8016bbd4	-2.087761e-39
149	0x001e4782	2.780717e-39
150	0xbbb88d44	-0.0056320745
151	0x8046b7da	-6.494438e-39
152	0x00030ae3	2.79412e-40
153	0xba70a5fa	-0.0009180006
154	0x01a51310	6.063878e-38
155	0xbc2acf49	-0.010425397
156	0xbc01d0d9	-0.007923328
157	0x80037da6	-3.2058e-40
158	0x8016f0c3	-2.10675e-39
159	0x3d0f9485	0.03505375
160	0x000a5482	9.4867e-40
161	0x003dc741	5.673444e-39
162	0x00129e13	1.709745e-39
163	0x3e23e275	0.16004355
164	0xbc353266	-0.011059379
165	0x0005ddac	5.38698e-40
166	0xbb3cf3c5	-0.0028831821
167	0xbc01f423	-0.007931742
168	0x023d31d6	1.3899829e-37
169	0x0004c598	4.38225e-40
170	0x3ea20416	0.31643742
171	0x00017098	1.32227e-40
172	0x8262ee3b	-1.6672226e-37
173	0x803c422c	-5.533868e-39
174	0x00399485	5.287902e-39
175	0xbc91718d	-0.01775434
176	0x3e479c8f	0.19493316
177	0x3e401790	0.18758988
178	0x81ed5baa	-8.719158e-38
179	0x021cd044	1.1520839e-37
180	0x00250560	3.399842e-39
181	0x3e502c03	0.20329289
182	0x3ecccdd6	0.4000079
183	0x00130bd0	1.749112e-39
184	0x801e1fc3	-2.766459e-39
185	0x000daa37	1.254923e-39
186	0x8026a6d7	-3.5496e-39
187	0x0001ee80	1.77393e-40
188	0x3ca82408	0.020524994
189	0x8009569b	-8.57588e-40
190	0x001588ab	1.977573e-39
191	0x0010e2d7	1.550743e-39
192	0x82217750	-1.1862653e-37
193	0x826c26dd	-1.7349695e-37
194	0xbc4bdecc	-0.012443256
195	0x3cc20f3a	0.023688901
196	0x3e38fde1	0.18065597
197	0x3e4da3f9	0.20082082
198	0x3e75fecf	0.24022983
199	0x0016fcc9	2.111063e-39
200	0x3e511f25	0.20422037
201	0x00258647	3.446083e-39
202	0xbc716692	-0.014733927
203	0x82097842	-1.0099683e-37
204	0x00096339	8.62114e-40
205	0x0daf37a0	1.0798599e-30
206	0x3e51e426	0.20497188
207	0x3ec34505	0.38138595
208	0x000371a5	3.16274e-40
209	0x3e4f75e7	0.2025982
210	0x3f07ed5f	0.53096575
211	0x80a1a3e0	-1.4844302e-38
212	0x00449c7b	6.300948e-39
213	0x3b6f0020	0.003646858
214	0xbcd803ad	-0.02636894
215	0x3ee4b0ea	0.44666225
216	0x021c0bdc	1.1464473e-37
217	0x81eb7e38	-8.650648e-38
218	0x8017026c	-2.113085e-39
219	0x800e3ff5	-1.30864e-39
220	0x001183dc	1.608506e-39
221	0x000666c7	5.87883e-40
222	0x01f68d10	9.0568543e-38
223	0x3e9bb182	0.30408865
224	0x3d09ffb3	0.03369112
225	0x8186082c	-4.923555e-38
226	0x3a3d7b0c	0.0007228113
227	0x0008bd63	8.02623e-40
228	0x80158764	-1.977114e-39
229	0x3ec257e8	0.37957692
230	0x3f33566e	0.70053756
231	0x0042b7d0	6.127082e-39
232	0x0042618e	6.096139e-39
233	0x8004ae14	-4.2979e-40
234	0xba025a94	-0.00049726036
235	0x8016536c	-2.050307e-39
236	0x3e96571f	0.29363343
237	0x3e396d31	0.1810806
238	0x3e76c5e0	0.24098921
239	0x3e93899f	0.28815934
240	0x8047ab54	-6.581781e-39
241	0x801f5421	-2.87708e-39
242	0x801809e6	-2.207603e-39
243	0x884a07e1	-6.0796425e-34
244	0xbc05d011	-0.008167283
245	0x3e9fd82a	0.31219608
246	0x3e51b404	0.20478827
247	0x3e5eb453	0.21748476
248	0x8010d797	-1.546707e-39
249	0x0012e643	1.735641e-39
250	0x80129f1a	-1.710114e-39
251	0x00401702	5.885725e-39
252	0x3c25e45c	0.010125246
253	0x0015db47	2.007207e-39
254	0x3e9c15af	0.30485293
255	0x3f46ab63	0.77605265

net.3.0.bias f4 [128]
0	0x3d275fb3	0.04086275
1	0x3d3264e7	0.04355326
2	0x3f87edc7	1.0619439
3	0x3f7a944e	0.97882545
4	0x3ef864d4	0.48514426
5	0x3d1f1412	0.0388375
6	0xa5b926cd	-3.2118677e-16
7	0x8005b549	-5.2421e-40
8	0xa1cf9397	-1.4065932e-18
9	0x3d307f52	0.043090172
10	0x3f84f496	1.0387142
11	0x3d31012f	0.04321402
12	0x3f86d53b	1.0533823
13	0x3f8cf47b	1.101211
14	0x800a1087	-9.24284e-40
15	0x3f8a144d	1.0787445
16	0x3d2fec71	0.042950097
17	0xba75ff6f	-0.0009384071
18	0x3ec787c1	0.3897076
19	0x3f8c3108	1.0952463
20	0x3d2a2d87	0.041547325
21	0x800e296e	-1.300559e-39
22	0x80049d08	-4.23674e-40
23	0x801e72e0	-2.796274e-39
24	0x3f042607	0.51620525
25	0x3d2d86b1	0.04236478
26	0x3f904398	1.1270628
27	0x3f8bb554	1.0914712
28	0x3f8bee21	1.0932046
29	0xbb2468fa	-0.0025086985
30	0x800c69d6	-1.139993e-39
31	0x8004f67d	-4.55765e-40
32	0x3f80a6f3	1.0050949
33	0x8006fafc	-6.41049e-40
34	0x3f823694	1.0172906
35	0x801674de	-2.062305e-39
36	0x800a2336	-9.30986e-40
37	0x800a353c	-9.37452e-40
38	0x3f912cc7	1.134179
39	0x3d325657	0.04353937
40	0x3f8e44fa	1.11148
41	0xa480c515	-5.584502e-17
42	0x99680fa8	-1.1997281e-23
43	0x3f817699	1.0114318
44	0x80475013	-6.549045e-39
45	0x3f8bce4a	1.092233
46	0x3f88bc6a	1.06825
47	0x3ecb1226	0.39662284
48	0x3d2d1c00	0.04226303
49	0x3d27d5dc	0.040975437
50	0x800d86db	-1.242238e-39
51	0xbb28c7e7	-0.0025753917
52	0x3d2e9d4c	0.04263048
53	0x3d2caf37	0.042159285
54	0x3f84b619	1.0368072
55	0x3d322155	0.04348882
56	0x3efe12ce	0.49623722
57	0x3f03c4e4	0.51472306
58	0x3d2ea4ca	0.042637624
59	0x3d306614	0.0430661
60	0x800881d1	-7.81253e-40
61	0x3f82112d	1.0161492
62	0x800c6d2a	-1.141187e-39
63	0x3f83d66a	1.0299809
64	0x3ef03bb3	0.46920547
65	0x3f9aed79	1.2103721
66	0x3f8d3d1b	1.1034273
67	0x803e044f	-5.695346e-39
68	0x0003fb6e	3.65702e-40
69	0x3d27c25b	0.040956836
70	0x3f8989db	1.0745195
71	0x3d2ef0c5	0.042710084
72	0x3f820994	1.0159173
73	0x3d2a66b7	0.041601863
74	0x800a509a	-9.4727e-40
75	0x3f90bdb7	1.1307896
76	0x3f8b3253	1.0874733
77	0x3d2b1360	0.041766524
78	0xb8c60b16	-9.443441e-05
79	0x3f90ac5c	1.13026
80	0x3f87c9d2	1.0608466
81	0x80138f44	-1.796268e-39
82	0x800a4c4d	-9.45727e-40
83	0x3f886dd0	1.0658512
84	0x3f789433	0.97101134
85	0x8005871a	-5.07643e-40
86	0x800bd99e	-1.088257e-39
87	0x3d2aeae7	0.041727927
88	0xb1108ae5	-2.103371e-09
89	0x3d2cf55b	0.042226177
90	0x801d4108	-2.686558e-39
91	0x3f8ded61	1.1088067
92	0x803e4d4f	-5.721534e-39
93	0x8009be42	-8.94771e-40
94	0xbb17c03b	-0.002315535
95	0x3f886569	1.0655948
96	0x3ecbcf96	0.39806813
97	0x800829ea	-7.4972e-40
98	0xba034ca7	-0.00050086755
99	0x3ef3d632	0.47624356
100	0x804b191a	-6.896667e-39
101	0x3f843eb8	1.033164
102	0x800e7553	-1.327785e-39
103	0x3d1c7f41	0.038207296
104	0x801863b6	-2.239821e-39
105	0x3ee1ab70	0.4407611
106	0x800bed75	-1.095374e-39
107	0x8012aeb7	-1.715715e-39
108	0xbb0f926e	-0.0021907347
109	0x3f8de139	1.1084358
110	0xbbb093aa	-0.0053886967
111	0x8027ba2c	-3.64837e-39
112	0x8009e6b9	-9.09287e-40
113	0x3f874cca	1.0570309
114	0x8024f350	-3.393362e-39
115	0xaf6d40bf	-2.1578027e-10
116	0x3f8989c3	1.0745167
117	0x3f8898b1	1.0671598
118	0x80049597	-4.21005e-40
119	0x3f8c02db	1.0938371
120	0x3f902474	1.1261125
121	0x800b7b64	-1.054455e-39
122	0x3f899633	1.0748962
123	0xae58a3f9	-4.925835e-11
124	0x8009bae2	-8.9356e-40
125	0x3f8814dd	1.0631367
126	0x3f813c88	1.0096598
127	0x3d30325b	0.043016773

net.4.0.weight f4 [256, 128]
0	0xbb4842e8	-0.0030557457
1	0xbbc05ee8	-0.0058706887
2	0x3f166e1c	0.58761764
3	0x3f116c9c	0.5680635
4	0x3ed19736	0.40935677
5	0xb95e15bf	-0.00021179671
6	0x3831eac3	4.2418727e-05
7	0x000a94e2	9.71764e-40
8	0xb92746b8	-0.00015952706
9	0xbacd6576	-0.0015670497
10	0x3f16edf4	0.5895684
11	0xbae2d808	-0.0017306814
12	0x3f22079b	0.63292855
13	0x3f2797bb	0.654659
14	0x001aa228	2.445894e-39
15	0x3f218c3b	0.631046
16	0x391d3222	0.00014991363
17	0x3b1a7ac1	0.0023571702
18	0x3e50e5ad	0.20400114
19	0x3f5198af	0.818736
20	0xba310b28	-0.00067536766
21	0xaeeb8ceb	-1.0711595e-10
22	0x000758ad	6.7466e-40
23	0x80059198	-5.11407e-40
24	0x3efbace2	0.49155337
25	0xbb16ee87	-0.0023030357
26	0x3f5197cb	0.8187224
27	0x3f432bfd	0.76238996
28	0x3f4daf1b	0.80345315
29	0xba7e7e3b	-0.0009708141
30	0x001cd725	2.648573e-39
31	0x001274d5	1.69495e-39
32	0x3f178258	0.59183264
33	0x800a5086	-9.47241e-40
34	0x3f1c9f00	0.61180115
35	0x3a0e7999	0.00054349896
36	0x000f5fb1	1.41186e-39
37	0x800b3cdb	-1.032021e-39
38	0x3f346320	0.7046375
39	0xbaf47bcd	-0.0018652618
40	0x3f403a2e	0.75088775
41	0x39b92066	0.00035310088
42	0xb4b382bd	-3.3436473e-07
43	0x3f14e032	0.58154595
44	0x36d17a96	6.2429563e-06
45	0x3f366b3d	0.7125738
46	0x3f480ab7	0.7814135
47	0x3e6aaba1	0.22917034
48	0xbb5b50bf	-0.0033464876
49	0xbaf27a94	-0.0018499666
50	0x001cbb33	2.638548e-39
51	0xb8b543fd	-8.6434164e-05
52	0xba6e5289	-0.0009091278
53	0xbaef7449	-0.0018268909
54	0x3f1bc1a7	0.60842365
55	0xbb58f0de	-0.0033102552
56	0x3e82d645	0.255541
57	0x3eed7834	0.4638077
58	0xb92a8208	-0.00016260904
59	0xba4936d6	-0.00076757127
60	0x000f34dd	1.396496e-39
61	0x3f183228	0.5945153
62	0x0016b8fb	2.08674e-39
63	0x3f0f5718	0.5599227
64	0x3ec56e4f	0.3856072
65	0x3f41f7f7	0.7576899
66	0x3f32837a	0.6973187
67	0x8006b198	-6.14722e-40
68	0x0005b56a	5.24257e-40
69	0xbad9d0a1	-0.0016617962
70	0x3f1823fb	0.594299
71	0xbb3b17b0	-0.0028548054
72	0x3f0fac39	0.56122166
73	0xb9e1c904	-0.00043065113
74	0x000148a4	1.17894e-40
75	0x3f2c9a64	0.6742308
76	0x3f2017f6	0.6253656
77	0xbb19f668	-0.0023492817
78	0xb8a53b12	-7.878816e-05
79	0x3f54753d	0.8299139
80	0x3f1e4eac	0.61838794
81	0xb5378823	-6.837092e-07
82	0x8029fb76	-3.855463e-39
83	0x3f1a1aed	0.60197335
84	0x3f0bd152	0.5461627
85	0x800db471	-1.258592e-39
86	0xa235b736	-2.4627065e-18
87	0xba35edc3	-0.00069400313
88	0xbacd893f	-0.0015681161
89	0xbb053aab	-0.0020329158
90	0x000f717a	1.41824e-39
91	0x3f240cfc	0.6408231
92	0xada1bae3	-1.8386575e-11
93	0x000b4f11	1.038554e-39
94	0x3a268ebd	0.0006353667
95	0x3f2e6665	0.6812499
96	0x3e5f0496	0.21779093
97	0x8013bd78	-1.812843e-39
98	0x3b728f26	0.0037011593
99	0x3ed04e12	0.40684563
100	0xb5ac547f	-1.283959e-06
101	0x3f0816fc	0.5316007
102	0x364d9075	3.0631466e-06
103	0xbb22ea34	-0.0024858834
104	0x1f1a4ace	3.2672645e-20
105	0x3eb847b1	0.35992196
106	0x000420e9	3.79148e-40
107	0x3398ead3	7.120766e-08
108	0xbc1b50e7	-0.009479738
109	0x3f53f965	0.8280242
110	0x3b6efe25	0.00364674
111	0x00034385	2.99728e-40
112	0x8010bf6f	-1.538041e-39
113	0x3f1384f5	0.5762475
114	0xb43459ed	-1.6796521e-07
115	0xb93066c7	-0.00016822956
116	0x3f216958	0.63051367
117	0x3f1782d9	0.5918403
118	0x8039fb85	-5.324851e-39
119	0x3f219a52	0.631261
120	0x3f226a6e	0.6344365
121	0x8010e6c1	-1.552147e-39
122	0x3f257273	0.6462776
123	0x39117949	0.0001387346
124	0x000f36ea	1.397232e-39
125	0x3f33c2e1	0.70219237
126	0x3f15ddbd	0.5854147
127	0xbb8f9454	-0.0043816958
128	0xbd1353a1	-0.035968427
129	0xbd126723	-0.03574289
130	0x3f25b138	0.6472354
131	0x3f16848f	0.5879602
132	0x3f0496e1	0.5179272
133	0xbd0ecde7	-0.034864333
134	0x38c9475d	9.597719e-05
135	0x800aa578	-9.77714e-40
136	0x31039f0d	1.9153419e-09
137	0xbd133da4	-0.035947457
138	0x3f30927a	0.68973505
139	0xbd11b7ed	-0.035575796
140	0x3f57ec48	0.8434491
141	0x3f1708ba	0.5899769
142	0x801748d8	-2.138348e-39
143	0x3f2db2e7	0.6785111
144	0xbd12cff4	-0.03584285
145	0x3a2f7189	0.0006692638
146	0x3f0599c6	0.52187765
147	0x3f0abb07	0.5419163
148	0xbd139902	-0.03603459
149	0x20cb7bb7	3.4471405e-19
150	0x00097da9	8.71598e-40
151	0x8010ce4e	-1.543376e-39
152	0x3ed2eb57	0.41195175
153	0xbd12915e	-0.035783164
154	0x3f1738e9	0.59071213
155	0x3f0d5ce1	0.55219847
156	0x3f18c313	0.5967266
157	0x3bcd7d2b	0.0062710247
158	0x80149717	-1.890911e-39
159	0x000df961	1.283322e-39
160	0x3f13bbab	0.57708234
161	0x0004093c	3.70655e-40
162	0x3f169f5a	0.588369
163	0xacda4d45	-6.2045113e-12
164	0x800b3eb7	-1.032688e-39
165	0x8006a5d3	-6.105e-40
166	0x3f1047f4	0.5635979
167	0xbd14a52d	-0.036290336
168	0x3f1c8508	0.6114049
169	0x3a1c4252	0.000596081
170	0xb678cba3	-3.7073412e-06
171	0x3f2fdb01	0.6869355
172	0x32866708	1.5646506e-08
173	0x3f0ce3c0	0.5503502
174	0x3f14cb4e	0.5812272
175	0x3f0e3694	0.5555203
176	0xbd13e0cb	-0.03610305
177	0xbd12d386	-0.035846256
178	0x00168199	2.066872e-39
179	0xbac4b854	-0.0015008547
180	0xbd1283c3	-0.03577019
181	0xbd13605f	-0.03598058
182	0x3f481403	0.78155535
183	0xbd12e50e	-0.035862975
184	0x3f0e93b0	0.55694103
185	0x3ece7bdd	0.40328875
186	0xbd150e86	-0.036390804
187	0xbd1326c6	-0.03592565
188	0x000b3dc1	1.032344e-39
189	0x3f12bd2c	0.57319903
190	0x000f293e	1.392327e-39
191	0x3f3215f2	0.69564736
192	0x3f07e2b2	0.53080285
193	0x3f2d5594	0.67708707
194	0x3f1c45a1	0.61043745
195	0x8001f174	-1.78453e-40
196	0x80015100	-1.20893e-40
197	0xbd136aa3	-0.03599037
198	0x3f50c83c	0.81555533
199	0xbd13ec6a	-0.036114134
200	0x3f1a232b	0.6020991
201	0xbd142ab8	-0.036173552
202	0x00174917	2.138436e-39
203	0x3f17675a	0.59142077
204	0x3f0c9a42	0.5492288
205	0xbd13bb86	-0.03606751
206	0xba83a578	-0.001004382
207	0x3f144393	0.5791561
208	0x3f13dac1	0.57755667
209	0x800001b9	-6.18e-43
210	0x801a77d1	-2.430705e-39
211	0x3f257393	0.6462948
212	0x3f0c712d	0.5486019
213	0x80049df0	-4.23999e-40
214	0x930b214c	-1.7560683e-27
215	0xbd133418	-0.035938352
216	0x3a91160f	0.0011069196
217	0xbd12c6cf	-0.03583413
218	0x000a8d67	9.6908e-40
219	0x3f3e1072	0.74243844
220	0x29bc79a5	8.369979e-14
221	0x000b220e	1.022407e-39
222	0xbafc818d	-0.0019264683
223	0x3f222625	0.63339454
224	0x3f0a8a17	0.5411696
225	0x000f3802	1.397624e-39
226	0x3a127c76	0.0005588004
227	0x3f125bfc	0.57171607
228	0x3141367b	2.8116165e-09
229	0x3efeddcb	0.4977859
230	0x33b68c1e	8.5005226e-08
231	0xbd111338	-0.03541872
232	0x80009050	-5.177e-41
233	0x3f04d818	0.5189223
234	0x04afb5f5	4.1309403e-36
235	0x34b3ac3e	3.346667e-07
236	0x39ef7833	0.00045675188
237	0x3f0a68d2	0.54066193
238	0xbbc01536	-0.0058619035
239	0x800c9b4a	-1.157733e-39
240	0x8001d7be	-1.69229e-40
241	0x3f289f55	0.6586812
242	0x33ace7b4	8.051521e-08
243	0x39b8f4f4	0.0003527772
244	0x3f2cdc25	0.67523414
245	0x3f375656	0.71616113
246	0x80201566	-2.946412e-39
247	0x3f563d7d	0.83687574
248	0x3f3b5d1d	0.73188955
249	0x8006de85	-6.30838e-40
250	0x3f31e312	0.69487107
251	0x38e9e6f0	0.00011153321
252	0x801316ab	-1.753006e-39
253	0x3f07c1b0	0.5302992
254	0x3f14e9a6	0.5816902
255	0xbd12dd98	-0.03585586
