swarm/minimax/model_0.25_relaxation/Q-4000082.pth (torch, 338399 bytes, 10 tensors)

net.0.0.weight f4 [128, 8]
000000 cc d7 29 3f 19 e9 00 bf 17 73 08 bf 27 c3 e8 be
       0.66344905 -0.5035568 -0.53300613 -0.4546139
000010 0e e2 64 bf 0e a4 86 3e 0b 20 87 3e aa 90 69 3e
       -0.8940743 0.2629704 0.26391634 0.22809091
000020 00 eb 15 80 76 51 15 80 8c cd 16 80 ed 6a 15 80
       -2.012848e-39 -1.957768e-39 -2.094117e-39 -1.966903e-39
000030 28 15 16 80 08 21 16 80 d5 01 14 80 d1 ba 15 80
       -2.02797e-39 -2.03223e-39 -1.837367e-39 -1.995563e-39
000040 99 61 e2 b8 f3 c7 32 b8 70 13 9e b6 de 0b d4 b8
       -0.00010794699 -4.2624724e-05 -4.7110298e-06 -0.00010111158
000050 3a 2a cf b7 e2 e8 ef b7 d2 31 93 b8 4a b9 cf b8
       -2.4695986e-05 -2.8599465e-05 -7.018786e-05 -9.905042e-05
000060 b9 cf de be b4 68 26 3f c2 2c a2 be 3d 92 b4 be
       -0.43517855 0.65003514 -0.31674773 -0.3526782
000070 92 c0 4a 3e 56 3c 5e bf 36 e7 c9 3d b9 c0 04 3e
       0.19800022 -0.86810815 0.09858553 0.12964143
000080 65 84 21 80 2a 62 47 80 70 e4 22 80 48 03 27 00
       -3.078066e-39 -6.555535e-39 -3.204355e-39 3.582761e-39
000090 92 bd 45 80 91 6a 2f 80 b5 d0 01 80 04 55 3e 80
       -6.404654e-39 -4.354497e-39 -1.66705e-40 -5.724299e-39
0000a0 58 a9 03 b8 01 d0 b3 b8 4f ec 9c b9 bf 3a 92 b8
       -3.1390548e-05 -8.574129e-05 -0.00029930702 -6.972765e-05
0000b0 91 ba f5 b7 df 67 01 b9 3a 07 4b b9 a4 aa f4 b8
       -2.9293153e-05 -0.00012341094 -0.0001936228 -0.00011666611
0000c0 63 d4 26 b7 e4 37 63 b7 cc 9f 58 b7 56 3b 46 b7
       -9.943821e-06 -1.3543267e-05 -1.2911809e-05 -1.1815535e-05
0000d0 88 a5 3d b7 2b a1 3f b7 4e 90 34 b7 10 9f 37 b7
       -1.1303819e-05 -1.1422012e-05 -1.0762435e-05 -1.0944685e-05
0000e0 37 6a 20 80 de 70 3f 00 1b f3 01 00 2e 93 43 00
       -2.976839e-39 5.826125e-39 1.79045e-40 6.205776e-39
0000f0 af 0f 06 80 bf f5 15 00 cb 55 21 00 64 39 20 00
       -5.56639e-40 2.016703e-39 3.061348e-39 2.959324e-39
000100 a3 ff 1c 80 0e 46 07 80 10 7a 03 80 7d b9 05 80
       -2.663099e-39 -6.6798e-40 -3.19294e-40 -5.25718e-40
000110 58 95 07 80 2b 05 05 80 a5 42 09 80 33 b7 19 80
       -6.96423e-40 -4.61031e-40 -8.50427e-40 -2.361607e-39
000120 13 79 8a 37 68 7d 85 b8 74 0f d9 38 b5 7c d3 b7
       1.6507262e-05 -6.365293e-05 0.00010350245 -2.5211231e-05
000130 8c 97 58 36 08 22 85 b8 3c 96 bc 38 74 fd c9 b7
       3.227472e-06 -6.348273e-05 8.992522e-05 -2.407909e-05
000140 a9 fd e6 be 73 9c db be d3 3c a5 be 75 17 1f 3f
       -0.45115402 -0.428928 -0.32272968 0.6214517
000150 f1 ca 6f 3e 26 b3 5c 3e f5 b1 1c 3e a2 f8 53 bf
       0.2341726 0.21552715 0.1530226 -0.8280126
000160 59 d5 46 80 3d 08 41 80 44 da 36 80 7b f2 27 80
       -6.50502e-39 -5.972263e-39 -5.037416e-39 -3.66857e-39
000170 bb cc 44 80 80 eb 3a 80 32 65 3b 80 de 9a 2d 80
       -6.318257e-39 -5.41094e-39 -5.454596e-39 -4.188153e-39
000180 5d 2a 4e bb a7 9c 56 bb 25 c7 62 bb 60 5c 12 3a
       -0.0031458356 -0.003274718 -0.0034603563 0.0005583223
000190 0c 8c 4f bb 92 ff 60 bb ad d2 5f bb a5 e5 62 bb
       -0.0031669168 -0.003433202 -0.0034152672 -0.0034621742
0001a0 18 e3 c9 be 4d a8 d3 be 22 59 3c 3f 57 fd e1 be
       -0.3943107 -0.4133934 0.73573506 -0.44138595
0001b0 10 64 6a 3e c4 0e 65 3e e0 a2 60 bf d1 f4 71 3e
       0.22889733 0.22368914 -0.8774853 0.23628546
0001c0 41 69 40 80 5e 61 44 80 f8 f3 43 80 8a dd 30 80
       -5.91523e-39 -6.279743e-39 -6.240498e-39 -4.487577e-39
0001d0 99 72 10 80 54 66 22 80 2a 56 22 80 d5 4c 39 80
       -1.510478e-39 -3.159115e-39 -3.153317e-39 -5.262185e-39
0001e0 17 98 68 be 3c 46 08 bf 12 90 3d 3c 8b 53 a9 be
       -0.22714268 -0.5323217 0.011569994 -0.3307155
0001f0 8c 4e 27 3d d9 28 a9 be 40 ab a4 3e 8b 01 ab be
       0.040846393 -0.33038977 0.32161903 -0.33399615
000200 2f c0 13 80 07 d1 00 00 a2 a7 09 00 55 ab 0f 80
       -1.813817e-39 7.4985e-41 8.86655e-40 -1.438995e-39
000210 95 d3 01 80 3b fe 18 80 ba 96 10 80 95 a9 06 80
       -1.67737e-40 -2.295253e-39 -1.523438e-39 -6.11848e-40
000220 c9 2a 31 80 5f 7d 32 80 86 c7 39 80 16 4e 02 80
       -4.515288e-39 -4.63675e-39 -5.306199e-39 -2.11683e-40
000230 88 b8 2d 80 31 6b 26 80 ec 9f 3f 80 90 0c 36 80
       -4.198795e-39 -3.528202e-39 -5.843005e-39 -4.963623e-39
000240 fe 83 17 80 e0 db 4a 80 09 4c 3d 80 b3 f7 39 80
       -2.159566e-39 -6.874703e-39 -5.629242e-39 -5.323481e-39
000250 0c 33 3c 80 ce 9d 3d 80 a5 c8 11 80 67 ba 3e 80
       -5.528442e-39 -5.658575e-39 -1.633181e-39 -5.76067e-39
000260 58 98 3c bb 63 98 39 bb 69 99 3b bb 8f 42 3e bb
       -0.0028777327 -0.002831959 -0.0028625375 -0.0029031371
000270 79 9c 41 bb 57 64 3b bb a7 56 35 bb 9d 00 3b bb
       -0.0029542728 -0.0028593743 -0.0027670057 -0.00285343
000280 4d ee 2b 80 92 73 06 80 48 50 0d 80 53 a1 48 80
       -4.034413e-39 -5.92472e-40 -1.222661e-39 -6.670028e-39
000290 2b e0 42 80 5e 06 42 80 e3 ca 43 80 9c 22 11 80
       -6.141559e-39 -6.063427e-39 -6.22576e-39 -1.573619e-39
0002a0 05 36 17 3f a7 75 a6 be 1a 7c 0d 3f 49 d0 d4 bd
       0.590668 -0.32511637 0.5526749 -0.1039129
0002b0 4d 98 b2 3b ba b4 f0 3e 3d ad 33 be a8 4c d7 3e
       0.0054502846 0.47012883 -0.17546554 0.42050672
0002c0 f1 6b 75 ba 4e 1f ef b9 b0 5f ad ba 9c 9f 98 ba
       -0.0009362093 -0.00045608956 -0.001322737 -0.0011644247
0002d0 cc 81 15 ba b0 d3 54 ba 80 70 a3 ba 62 e6 b0 ba
       -0.000570324 -0.0008118702 -0.0012469441 -0.0013496394
0002e0 c0 fc 3d 80 14 2a 29 80 7f 29 0c 80 56 4e 2e 80
       -5.692635e-39 -3.78035e-39 -1.116912e-39 -4.252534e-39
0002f0 8d 43 48 80 b7 a2 40 80 a2 36 39 80 c4 4d 41 80
       -6.636388e-39 -5.935843e-39 -5.254222e-39 -5.997204e-39
000300 ca 6c 3d 80 39 9e 31 80 f1 82 34 80 d5 c6 3e 80
       -5.640991e-39 -4.556699e-39 -4.822419e-39 -5.765128e-39
000310 91 b2 4a 80 1a f1 40 80 bd 46 3a 80 b2 f3 27 80
       -6.859884e-39 -5.963963e-39 -5.351835e-39 -3.669006e-39
000320 e0 13 f2 be 86 9e ef be dd 5b 1d 3f 5d 47 f3 be
       -0.47280788 -0.4680063 0.614683 -0.47515383
000330 04 68 0b 3e 6f c4 31 3e 74 b3 6e bf 5a 04 ae 3d
       0.13613898 0.1736009 -0.93242574 0.08496924
000340 3a 91 83 be 1b 3a 94 3b 58 96 ea 3e bc a6 02 3f
       -0.25696737 0.0045235283 0.45817828 0.51035666
000350 e6 17 0f 3f fe 59 0c 3f fd 51 c5 bd ef 78 7a be
       0.5589584 0.5482482 -0.09634779 -0.24460195
000360 0b 21 03 00 3c 3c 0f 00 1f 95 97 88 9a c3 8f 9d
       2.8736e-40 1.39914e-39 -9.12304e-34 -3.8054032e-21
000370 ed c8 db 8f 49 9a 0a 00 44 08 b4 90 1e 73 0a 00
       -2.1672461e-29 9.73702e-40 -7.1010217e-29 9.59651e-40
000380 97 94 0f 80 15 e8 2c 80 54 e9 2f 80 93 e1 47 80
       -1.430836e-39 -4.124017e-39 -4.39997e-39 -6.601241e-39
000390 2f 14 49 80 47 00 34 80 00 83 1c 80 ca bb 49 80
       -6.711232e-39 -4.775545e-39 -2.618388e-39 -6.771357e-39
0003a0 db 41 35 80 4b 11 40 80 69 bc 1e 80 a2 ba 18 80
       -4.890906e-39 -5.883675e-39 -2.822654e-39 -2.271003e-39
0003b0 dd 9a 24 80 f5 c1 47 80 9b 11 32 80 5c 42 25 80
       -3.361632e-39 -6.589899e-39 -4.59809e-39 -3.421719e-39
0003c0 b4 f9 4f bb a8 dc 4f bb 2a d3 4f bb 68 13 50 bb
       -0.0031734528 -0.0031717215 -0.0031711557 -0.0031749848
0003d0 df ee 4f bb ac f6 4f bb a5 e9 4f bb 97 09 50 bb
       -0.0031728072 -0.0031732721 -0.0031724956 -0.0031743997
0003e0 c6 4d 1f 80 26 ee 04 00 47 10 31 80 05 5f 1d 80
       -2.8748e-39 4.52774e-40 -4.505779e-39 -2.697316e-39
0003f0 7c f8 34 80 72 de 2a 80 da 5b 00 80 14 74 33 80
       -4.864585e-39 -3.936889e-39 -3.295e-41 -4.725251e-39

net.0.0.bias f4 [128]
000000 37 7c c5 bc 3b 95 1f 80 63 58 8a ba aa 9c 18 3d
       -0.024107082 -2.900434e-39 -0.0010554906 0.03725878
000010 e4 e0 01 80 da 42 b6 ba c9 13 4c ba 31 6f 42 a0
       -1.72511e-40 -0.0013905421 -0.00077849306 -1.6469229e-19
000020 a8 90 1b 80 3e c5 71 b9 c6 9c e7 bc 92 9c 0c 00
       -2.531451e-39 -0.0002305703 -0.028272998 1.158193e-39
000030 78 e0 5e bb 31 f4 c5 bd 52 ee 0d 00 d6 3d 95 bb
       -0.0034008306 -0.096657164 1.279355e-39 -0.0045544906
000040 6c fe 24 80 4d 10 1c 00 43 19 07 00 31 6c 47 bb
       -3.397347e-39 2.577242e-39 6.5191e-40 -0.0030429477
000050 e1 6c 09 00 75 1a a6 3e db 85 98 ba 6c 6c 06 00
       8.65578e-40 0.3244206 -0.0011636572 5.89907e-40
000060 77 89 10 00 a3 78 d2 3d 3b 34 0a 3e 18 78 60 b0
       1.518681e-39 0.10276916 0.13496487 -8.166139e-10
000070 da 40 06 00 06 e3 14 00 48 0c 50 bb e6 f8 1d 00
       5.74277e-40 1.91815e-39 -0.0031745601 2.752517e-39
000080 b9 b2 04 00 67 c2 07 80 b0 ba 0e 80 72 6e 96 bd
       4.31456e-40 -7.12587e-40 -1.352668e-39 -0.073452845
000090 cf f7 34 bb c0 88 14 00 23 1a 07 80 93 51 71 bb
       -0.0027613526 1.885767e-39 -6.52225e-40 -0.0036822304
0000a0 ba d6 36 00 ac b4 46 bb d2 e4 13 b8 e2 0c 08 80
       5.036146e-39 -0.0030320091 -3.5260637e-05 -7.39305e-40
0000b0 c0 16 96 ba 4b f8 00 00 60 45 0d 80 2b 11 ea ba
       -0.0011450872 8.9071e-41 -1.218749e-39 -0.00178579
0000c0 29 63 fb 3e 94 99 72 ba e5 09 22 b8 77 0e 15 00
       0.4909909 -0.00092544523 -3.8633025e-05 1.933734e-39
0000d0 97 2a 01 00 63 8f 0b 80 7a 60 97 ba a7 16 23 00
       1.07114e-40 -1.061628e-39 -0.0011549138 3.222368e-39
0000e0 40 5b aa b5 c3 11 08 80 3e e7 62 3d eb 1e 77 bd
       -1.2692544e-06 -7.41056e-40 0.05539631 -0.06033222
0000f0 10 91 13 00 83 06 0d 80 7d 2a 13 80 17 15 59 bb
       1.796913e-39 -1.196197e-39 -1.760116e-39 -0.0033124143
000100 35 95 24 00 4f 80 00 ba cc fe 07 80 ac b4 a3 3d
       3.359603e-39 -0.0004901932 -7.34252e-40 0.07993445
000110 58 36 08 80 82 9e 16 00 39 14 5b bb 0d e7 13 00
       -7.54179e-40 2.077243e-39 -0.0033428802 1.82776e-39
000120 aa 1d 80 bc 7b 73 0d 80 7c ec 48 3e d6 cb 21 80
       -0.015639145 -1.235288e-39 0.19621462 -3.103694e-39
000130 4a 7a 00 00 74 68 07 00 a2 c0 19 00 95 b4 1f 80
       4.3869e-41 6.80319e-40 2.364991e-39 -2.911681e-39
000140 60 f1 21 80 dc 2d 0f 80 c7 73 07 00 37 34 16 80
       -3.11716e-39 -1.393984e-39 6.84382e-40 -2.039112e-39
000150 5a 25 a3 ba 6d 1c 0e 80 22 0d 27 a1 7d ca f7 b5
       -0.0012447045 -1.295894e-39 -5.659918e-19 -1.8461866e-06
000160 fc 2d 50 bb e6 33 70 3c eb d4 13 80 4a 6b 05 00
       -0.003176569 0.014660811 -1.821255e-39 4.97666e-40
000170 82 d6 a9 b5 07 97 17 00 19 21 1d 80 27 cd 4f bb
       -1.2653911e-06 2.166395e-39 -2.675103e-39 -0.0031707974
000180 d0 e6 14 00 d1 a1 05 80 29 3e 14 00 2e fc 06 80
       1.91951e-39 -5.17226e-40 1.859009e-39 -6.41478e-40
000190 44 e0 7c a8 ea 06 0a 80 8d 62 19 80 f8 7d 0d 00
       -1.403744e-14 -9.20835e-40 -2.331241e-39 1.23905e-39
0001a0 fa b7 13 00 86 7f 13 00 f6 1f 9c b9 0f ec 0c 80
       1.810873e-39 1.790621e-39 -0.0002977845 -1.186708e-39
0001b0 8d da 08 80 67 71 1e 00 29 a9 28 bb 2e fe 53 bb
       -8.13085e-40 2.795746e-39 -0.0025735593 -0.0032347548
0001c0 66 c6 16 80 50 86 6c bd dc 97 41 bb bd 11 02 bb
       -2.091553e-39 -0.057745278 -0.0029539978 -0.0019846999
0001d0 4d 22 26 3d 3c ef e0 ba de c3 c7 a3 31 7a 02 80
       0.040560056 -0.0017161141 -2.1658576e-17 -2.27505e-40
0001e0 a6 9d 43 bb e3 fd 25 bb 34 5b ef 3c 9a 44 49 bb
       -0.0029848604 -0.002532833 0.029218294 -0.0030711056
0001f0 0c e4 d1 3d 1a 2f b1 b2 39 b4 60 bb df ad 19 00
       0.102485746 -2.0626931e-08 -0.0034287109 2.35826e-39

net.1.0.weight f4 [128, 128]
000000 2b a9 3c 02 ee 81 01 00 80 0b c3 81 47 e5 15 00
       1.3860607e-37 1.38445e-40 -7.164819e-38 2.010795e-39
000010 00 91 51 01 c0 7d 01 00 80 92 92 01 40 57 1b 02
       3.849127e-38 1.36946e-40 5.3842147e-38 1.1412641e-37
000020 4f d5 03 80 00 80 45 80 35 fc 00 00 20 07 07 82
       -3.52027e-40 -6.382567e-39 9.0475e-41 -9.920278e-38
000030 28 80 3f 80 c2 99 8f 81 c7 73 00 00 ce 11 ef 01
       -5.83161e-39 -5.2750535e-38 4.1533e-41 8.782028e-38
000040 ca 1b 06 80 23 bb 19 02 6b 58 01 00 bf fd 15 82
       -5.60982e-40 1.129437e-37 1.23554e-40 -1.1019613e-37
000050 46 75 16 00 55 a5 44 bb 00 b9 96 01 c8 bf e9 01
       2.06245e-39 -0.0030005772 5.536676e-38 8.5865875e-38
000060 b8 68 3b 00 d0 7e 13 80 b8 4c 33 bb b2 19 f1 81
       5.45586e-39 -1.790366e-39 -0.002735896 -8.856629e-38
000070 7c b3 91 01 84 f2 06 80 a8 3a c1 02 80 85 95 01
       5.3522135e-38 -6.38011e-40 2.8392468e-37 5.492552e-38
000080 00 e3 f9 01 61 1f 01 00 87 bb 04 00 20 9a 30 82
       9.1793883e-38 1.03092e-40 4.34614e-40 -1.297467e-37
000090 4a cc 01 00 40 bc 7c 82 4a 7a 05 00 b7 49 2e 00
       1.6512e-40 -1.8568061e-37 5.03047e-40 4.250877e-39
0000a0 04 52 a4 81 60 a7 37 02 0e 08 27 00 ea 0d 03 00
       -6.036177e-38 1.3492751e-37 3.584474e-39 2.80498e-40
0000b0 00 da ca 81 75 f9 01 80 81 a9 01 00 a0 8d 1f 02
       -7.4515896e-38 -1.81324e-40 1.52642e-40 1.172212e-37
0000c0 90 05 58 bb 5d 7b 79 82 68 7c 3e 03 00 b6 45 81
       -0.00329623 -1.8329034e-37 5.5978793e-37 -3.6313764e-38
0000d0 01 67 06 80 63 e3 00 00 80 0b 61 81 35 38 d5 81
       -5.87964e-40 8.1571e-41 -4.1334224e-38 -7.8324496e-38
0000e0 40 d9 45 02 b2 47 03 80 8b 69 40 80 9c 89 72 01
       1.4535622e-37 -3.01226e-40 -5.915333e-39 4.454711e-38
0000f0 ea 6a 06 00 58 27 01 00 f5 aa 03 00 00 b0 77 01
       5.89367e-40 1.0595e-40 3.36834e-40 4.549301e-38
000100 df 23 03 00 60 e8 3f 82 72 88 06 00 a1 80 1e 00
       2.88375e-40 -1.4099152e-37 5.9996e-40 2.801208e-39
000110 ef 74 02 00 40 cc b4 81 48 54 04 80 fc 2f a7 01
       2.25619e-40 -6.641464e-38 -3.97576e-40 6.1414966e-38
000120 00 a2 a6 01 56 4d 00 00 a4 00 2e bb c0 36 02 00
       6.121123e-38 2.7743e-41 -0.0026550675 2.03312e-40
000130 ef ce 01 80 2c e7 06 80 99 7e 01 00 fb 4e 0c 00
       -1.66069e-40 -6.33942e-40 1.3725e-40 1.130359e-39
000140 8e f9 04 00 50 23 dc 01 40 4b f6 81 ea 1e 01 00
       4.56865e-40 8.086591e-38 -9.0474107e-38 1.02925e-40
000150 40 38 ae 02 72 8d 04 80 2c 9b 01 00 e0 9c 9e 80
       2.5599288e-37 -4.18083e-40 1.475e-40 -1.4566285e-38
000160 20 4e 4a 02 22 aa 05 80 81 b8 06 00 11 eb 06 80
       1.4863037e-37 -5.2021e-40 6.172e-40 -6.35339e-40
000170 00 35 48 81 ee 74 73 82 0b 01 03 00 80 f6 1f 82
       -3.6772224e-38 -1.7886378e-37 2.7588e-40 -1.1752217e-37
000180 d3 52 07 80 23 d4 02 80 04 93 cb 01 1a 04 01 00
       -6.7256e-40 -2.59771e-40 7.478138e-38 9.3307e-41
000190 e0 3e ce 82 c0 28 07 00 86 4c 02 80 20 05 3e 82
       -3.0305068e-37 6.57467e-40 -2.11122e-40 -1.3960466e-37
0001a0 40 c0 8a 81 22 83 3e 02 40 ca 29 02 5c d8 02 80
       -5.096906e-38 1.3996629e-37 1.2474202e-37 -2.61286e-40
0001b0 f0 7c 00 80 d1 f4 11 80 40 8e c7 01 00 0e fc 80
       -4.4819e-41 -1.649027e-39 7.3305174e-38 -2.3147567e-38
0001c0 73 0d 02 80 ac 49 c4 81 fa c6 02 00 51 ab d5 01
       -1.88496e-40 -7.2104743e-38 2.5505e-40 7.848967e-38
0001d0 a5 86 cd b8 40 62 b2 01 ce 71 45 80 33 a7 06 80
       -9.800241e-05 6.5527855e-38 -6.377475e-39 -6.10993e-40
0001e0 8b a0 32 82 60 bb 00 00 e0 21 09 00 c8 dd 00 80
       -1.3123448e-37 6.7217e-41 8.38672e-40 -7.956e-41
0001f0 9b 20 37 80 30 d3 2f 01 c0 a7 ab 81 00 9d 3d 00
       -5.062649e-39 3.2293943e-38 -6.305619e-38 5.658286e-39
000200 8f 48 2f c0 18 43 09 00 60 a6 df 31 d9 30 3f bf
       -2.7388036 8.50588e-40 6.509069e-09 -0.7468391
000210 78 6d 11 00 cb 94 2b 80 97 20 3a 30 37 fa 20 80
       1.600473e-39 -4.002303e-39 6.771272e-10 -3.028496e-39
000220 47 1a 07 80 a4 35 be 2e ea 7f 6a bf c4 4c 2b 80
       -6.52275e-40 8.649728e-11 -0.9160143 -3.976465e-39
000230 54 ce 49 38 f9 32 53 c0 3f 2d 39 00 ef c8 5a 3d
       4.8114292e-05 -3.2999861 5.250855e-39 0.05341428
000240 1d 03 07 80 c2 e1 27 80 82 30 8f 01 48 22 4d bb
       -6.43965e-40 -3.662571e-39 5.259951e-38 -0.003130095
000250 f4 4a ce 82 7c ec 0a be 85 f4 ad ba 92 2f 32 00
       -3.0312e-37 -0.13566774 -0.0013271725 4.60884e-39
000260 d9 7e 2d 00 bd 7c d6 bf c0 c3 1a bd ac f2 09 80
       4.178102e-39 -1.6756817 -0.037784338 -9.13574e-40
000270 c8 5a 48 00 fc 56 1a 80 c8 b5 23 3b 4d ec 25 00
       6.644722e-39 -2.418927e-39 0.0024980176 3.482682e-39
000280 5a c3 20 80 21 5d 02 00 8e 01 16 80 27 e3 db bf
       -3.008815e-39 2.1708e-40 -2.020939e-39 -1.7178696
000290 26 98 20 bb a6 eb 37 80 ab 2b 02 00 2b 63 17 bb
       -0.002450475 -5.135487e-39 1.99336e-40 -0.002309988
0002a0 88 35 1c 80 68 ba 06 80 f7 a3 05 80 ae 9c 00 00
       -2.590597e-39 -6.17883e-40 -5.17997e-40 5.6206e-41
0002b0 f2 e8 15 9e 83 49 06 80 5c c8 0b 80 38 42 0d ba
       -7.936166e-21 -5.77384e-40 -1.082066e-39 -0.00053885905
0002c0 80 cf b3 3d 4b 64 5e ac f8 d6 03 00 b6 72 26 00
       0.08779812 -3.1603771e-12 3.52623e-40 3.5309e-39
0002d0 a6 05 02 80 4d ad 05 00 f4 cb 13 3b 79 94 3c 80
       -1.85697e-40 5.21346e-40 0.0022551985 -5.563392e-39
0002e0 7f b1 35 80 a3 7a 07 00 af dd 1a c0 9c 5c cc bf
       -4.930955e-39 6.86842e-40 -2.4197805 -1.5965762
0002f0 dc b6 1d 00 ab aa 06 00 51 1e 0a 80 1c e8 5f b8
       2.728827e-39 6.12237e-40 -9.2923e-40 -5.3383512e-05
000300 7b 73 09 80 41 83 58 aa 76 1b 02 80 1e 11 04 c0
       -8.67946e-40 -1.9230192e-13 -1.93522e-40 -2.0635448
000310 e1 de 02 80 4b 9c 32 82 b6 14 30 bb 06 c9 01 80
       -2.63625e-40 -1.3122229e-37 -0.0026867813 -1.63949e-40
000320 20 77 4b c0 dc 57 07 80 d0 0f 1d be 19 8e 1c 00
       -3.1791458 -6.74366e-40 -0.15338063 2.622369e-39
000330 5e 3a f0 81 d4 42 05 80 25 f8 05 80 2a a1 07 80
       -8.824583e-38 -4.83151e-40 -5.48195e-40 -7.00663e-40
000340 e4 c1 15 80 1e 3d 0e 80 15 24 09 00 21 b8 11 00
       -1.9981e-39 -1.307622e-39 8.39463e-40 1.627256e-39
000350 55 90 22 80 2f 38 06 80 21 f8 27 00 26 01 06 00
       -3.174183e-39 -5.71168e-40 3.670596e-39 5.51425e-40
000360 a7 c7 8b 3a 55 bd 0e bf 50 35 3f 82 ba e3 0a 80
       0.001066436 -0.5575765 -1.4047764e-37 -1.000048e-39
000370 4b 12 05 80 ae 4d 48 00 71 5a 1c 80 98 c5 19 00
       -4.6574e-40 6.640022e-39 -2.603838e-39 2.36677e-39
000380 e1 6a 09 00 eb 90 03 80 3f 27 39 80 f1 cd 01 80
       8.6486e-40 -3.27493e-40 -5.248702e-39 -1.65713e-40
000390 cf cb 09 00 bd e3 09 00 c7 38 02 80 b8 d0 10 80
       8.99632e-40 9.08217e-40 -2.04039e-40 -1.544242e-39
0003a0 95 e2 16 00 2c 24 13 80 a1 c6 55 a9 6f 07 07 00
       2.101663e-39 -1.75785e-39 -4.7467784e-14 6.45515e-40
0003b0 43 fe 05 00 cf d9 1a 00 da 56 36 ba 33 07 5e bb
       5.5039e-40 2.465858e-39 -0.0006955691 -0.0033878803
0003c0 62 eb 0e 80 5a 45 fc bf a2 ca df b9 ee e7 08 3b
       -1.370136e-39 -1.9708664 -0.00042684848 0.0020890194
0003d0 af 43 74 be f6 9e 0b 00 6b 4b 87 2e 51 3a 01 80
       -0.23853944 1.067215e-39 6.152486e-11 -1.12755e-40
0003e0 b0 d4 2c 3b 88 10 0b 80 9b 0d 9b bf 14 2b 50 3b
       0.0026371889 -1.016121e-39 -1.2113527 0.0031763958
0003f0 85 90 82 bf ca 7d 1e 80 5b d6 4a 3b b3 84 0a 80
       -1.0200354 -2.80019e-39 0.003095052 -9.65958e-40

net.1.0.bias f4 [128]
000000 4a 84 53 bb b4 4d ae 3e 53 47 1f 3f ae d2 88 b5
       -0.0032274895 0.34043658 0.6221821 -1.0194105e-06
000010 d5 32 89 b9 38 8b 4d bb f7 b9 3b bb 1b 19 10 80
       -0.0002616855 -0.0031363498 -0.002864478 -1.478374e-39
000020 e8 96 ac 3d 39 31 b9 3f 31 b6 f4 b7 8e 3d da 3e
       0.084272206 1.4468147 -2.9171906e-05 0.42625087
000030 93 49 12 ba 1f f3 b4 ba 94 54 a5 3e e5 46 9b 3e
       -0.00055804214 -0.0013805366 0.3229109 0.30327526
000040 0f 1d b4 3e 54 44 4c bb da 6a 31 3f 97 4b 15 ba
       0.3517842 -0.0031168656 0.6930367 -0.00056951627
000050 c6 08 0d bb b9 2c a6 b9 27 e0 04 80 52 8c 20 80
       -0.0021520122 -0.00031695308 -4.47753e-40 -2.989073e-39
000060 3c 4c 13 80 59 84 9a 3e 9d 94 2b bb 5c 70 b0 ba
       -1.772222e-39 0.30179098 -0.002618111 -0.001346122
000070 68 6d 99 3f a6 20 4a 3e 9e 62 08 3f 62 32 85 3e
       1.1986513 0.19739017 0.5327548 0.26015002
000080 9a 12 95 b8 c7 b5 a3 86 ef e5 3e bb 0d 62 eb ba
       -7.1083385e-05 -6.1580883e-35 -0.002912875 -0.0017958299
000090 1a 0f 20 3b bd 8e 4e bb 75 e9 a5 3f 67 82 09 b8
       0.0024423064 -0.0031518184 1.296187 -3.2784792e-05
0000a0 d1 cf d4 9c 0e aa 55 bb 01 de 93 3e 29 85 4f ba
       -1.4082702e-21 -0.0032602581 0.28880313 -0.0007916266
0000b0 99 db 21 b8 c5 47 de 3e 68 ae f7 3e b7 9f 0e 80
       -3.8589907e-05 0.4341413 0.4837525 -1.342992e-39
0000c0 c2 cc ea ba 99 52 4a 3e ff 11 f2 b9 3b 1d 28 bb
       -0.0017913806 0.19758071 -0.00046171245 -0.0025652188
0000d0 10 d0 16 00 98 25 4d bb db e2 78 3f 03 b1 48 bb
       2.09502e-39 -0.0031302925 0.97221154 -0.0030623085
0000e0 cd 05 9b 3e 55 a0 7b b9 27 65 31 bb d3 a3 11 bb
       0.30277863 -0.00023996954 -0.0027068348 -0.002222289
0000f0 97 02 b6 b5 9b c2 65 bb 18 f4 8f aa 19 fe 1e b8
       -1.356081e-06 -0.003505862 -2.5571277e-13 -3.7906782e-05
000100 12 a8 69 3e e0 f3 2d 3f 7d 74 39 3e 28 84 1f aa
       0.2281802 0.6795025 0.18110843 -1.4167888e-13
000110 95 be 30 b8 06 d4 4f 3f 6a a3 47 3f 23 e3 b1 3e
       -4.2139163e-05 0.811829 0.77983725 0.34743604
000120 2d fb 00 00 41 00 2f bb 02 02 07 b6 b0 d8 91 3e
       9.0105e-41 -0.0026703032 -2.0117736e-06 0.28485632
000130 09 c4 a0 ba fa 63 1a bb 17 b3 6d 3e fe 4a a3 a9
       -0.0012265454 -0.0023558126 0.23212849 -7.251663e-14
000140 6b 6a 4d bb 0d 1e 2d bb 12 ee 61 ba f8 79 4f 95
       -0.0031343948 -0.0026415617 -0.0008618544 -4.1899533e-26
000150 b7 03 57 bb e8 1c 11 80 8b 1e d1 b9 72 d5 5e 3e
       -0.003280861 -1.571573e-39 -0.00039886343 0.2176111
000160 bc 05 88 3e 1a 84 c3 02 ad a3 23 3f 85 f1 ef ba
       0.26566875 2.8728497e-37 0.63921624 -0.0018306231
000170 5b ca 31 bb b0 e8 0c bb 77 8e 7d 3f 91 5b 9f ba
       -0.002712867 -0.0021500997 0.9904551 -0.0012158026
000180 09 41 3c bb c2 38 81 9f 21 8e 92 3d a5 54 16 80
       -0.0028725287 -5.472752e-20 0.07156015 -2.050746e-39
000190 a8 b3 b2 b8 e7 7b 05 80 93 58 1f a8 d0 47 1d 00
       -8.521165e-05 -5.03625e-40 -8.8454795e-15 2.688991e-39
0001a0 45 ef 12 80 0a 7d 64 af 2d 08 7b 9d e5 63 61 3e
       -1.738873e-39 -2.0780902e-10 -3.32238e-21 0.22010763
0001b0 1f 49 00 bb b9 b2 85 3f d9 af 9d af 51 29 45 3f
       -0.0019574834 1.0445167 -2.868308e-10 0.7701617
0001c0 55 fb 4d ad 3d 57 53 bb 42 77 31 b5 2e f7 01 bb
       -1.1708708e-11 -0.0032248043 -6.611118e-07 -0.0019831168
0001d0 9d 35 8f ac 5b ab 10 bb ae cb fb 3e 54 4a 13 80
       -4.0702567e-12 -0.0022074792 0.49178833 -1.771538e-39
0001e0 39 a0 0d 00 93 7c 84 3d 05 15 6e 3f 3e 9d 49 bb
       1.251339e-39 0.06469073 0.93000823 -0.003076389
0001f0 e8 30 42 bb 9b 9c 29 bb 13 8e 84 3c ed 6d 2a bb
       -0.0029631201 -0.0025880698 0.016181028 -0.0026005462

net.2.0.weight f4 [128, 128]
000000 5f c9 46 b4 67 7a 0b c0 32 28 3f bf 22 ab 05 00
       -1.8513445e-07 -2.1793458 -0.7467071 5.20568e-40
000010 cc 5a 85 8d cb db ef 0c 60 e3 4a 00 eb ef 04 80
       -8.218616e-31 3.6956064e-31 6.877393e-39 -4.53408e-40
000020 01 8a 78 3f a6 21 15 3f 08 79 72 00 75 5c 0f c0
       0.9708558 0.5825447 1.0512664e-38 -2.2400181
000030 40 e5 9d 80 fc f5 ec 37 90 d7 cd bf 4c e4 02 c0
       -1.4500412e-38 2.8247938e-05 -1.608141 -2.0451841
000040 8c 1b 0c c0 5c 72 1d 02 a0 3f 67 3f b7 c0 a5 27
       -2.1891813 1.1567358e-37 0.9033146 4.600564e-15
000050 66 4b 21 80 72 48 88 3a d1 a3 18 00 fd 4c 0d 80
       -3.057619e-39 0.0010397567 2.262818e-39 -1.22148e-39
000060 ae 65 00 80 db 08 11 c0 d3 f9 31 80 0c 97 1b 02
       -3.6476e-41 -2.2661655 -4.58956e-39 1.143095e-37
000070 33 e7 7a 3e 06 07 12 c0 8d 19 93 3f c1 48 39 c0
       0.24502258 -2.2816787 1.1492172 -2.8950655
000080 70 62 2d 80 54 ff 01 80 5f de 89 b8 2b e9 84 b6
       -4.16791e-39 -1.8343e-40 -6.574089e-05 -3.961051e-06
000090 7c c6 8d 3f a0 d3 20 80 0e 22 0d 3e 7c a1 b1 81
       1.1076198 -3.014653e-39 0.13782522 -6.525125e-38
0000a0 5c 26 20 82 91 9b 4a b7 02 6f 11 c0 80 84 c3 16
       -1.1765952e-37 -1.2076359e-05 -2.2724004 3.1587568e-25
0000b0 37 e4 0c 80 83 0d b4 bf 95 9e b6 bf 02 31 0f 80
       -1.183894e-39 -1.4066623 -1.4267145 -1.395113e-39
0000c0 43 e8 38 3a a1 0d 56 3f bf 0d 20 80 55 2a 68 32
       0.00070536527 0.83614546 -2.943667e-39 1.35138025e-08
0000d0 73 28 03 80 72 f7 35 ba cd 3d 99 bd fe 34 03 00
       -2.90017e-40 -0.0006941474 -0.07482491 2.94517e-40
0000e0 dd ee f2 bf 20 ea 06 80 94 ac 3c 37 f7 6e 18 00
       -1.8979145 -6.35001e-40 1.1245855e-05 2.243859e-39
0000f0 4b 6f 09 00 70 d4 be 3a 18 10 be 01 38 cc 05 00
       8.66444e-40 0.0014559161 6.981807e-38 5.32437e-40
000100 2d 85 0f c0 d7 04 d2 be 1b c5 30 c0 e5 b1 0c 80
       -2.2425034 -0.41019318 -2.7620304 -1.165842e-39
000110 45 7c 44 00 8c d0 e5 be a5 1f 76 be c0 25 1e c0
       6.289393e-39 -0.4488567 -0.24035509 -2.471054
000120 f0 d1 63 81 40 e5 0f 80 5a 67 02 80 de 56 3b c0
       -4.1843938e-38 -1.459772e-39 -2.20747e-40 -2.927177
000130 87 91 10 31 38 a4 12 3b 60 b9 23 c0 b6 f0 3b 00
       2.103748e-09 0.0022375714 -2.5581894 5.504645e-39
000140 68 fb 22 80 5f 35 0c bb 21 9b 0c 80 03 7a 0b 80
       -3.212594e-39 -0.0021394116 -1.157676e-39 -1.05396e-39
000150 c0 27 e4 3a db 8a 39 80 4f 5b 0f 00 4c 73 a3 3f
       0.0017406866 -5.284435e-39 1.410288e-39 1.2769561
000160 b5 cf 45 3f 0a 04 18 80 79 8b 66 3f 10 4f 8f b8
       0.7727006 -2.205501e-39 0.9005657 -6.833498e-05
000170 39 03 18 00 ef 00 b8 35 9c 36 9f bd e2 8e 32 80
       2.205208e-39 1.370934e-06 -0.07774088 -4.643032e-39
000180 d0 97 56 3b b7 d3 14 00 4f 2b 99 3f 94 65 00 00
       0.0032744296 1.912659e-39 1.1966342 3.644e-41
000190 64 2b c8 9c ee be 2b 80 a7 30 bf 82 5e 51 01 00
       -1.3246106e-21 -4.017419e-39 -2.8092853e-37 1.21025e-40
0001a0 24 6b 05 80 a6 0a 4b 00 df f9 0f 80 64 cb 21 c0
       -4.97612e-40 6.891482e-39 -1.46717e-39 -2.528039
0001b0 e8 c8 1a 00 7f 63 dc 3d 8c 65 2a 02 86 30 ba be
       2.459794e-39 0.10761165 1.251877e-37 -0.36365145
0001c0 5e 2d e0 81 fc b0 2c 3b 03 02 05 80 fc 4e 9d 01
       -8.2349703e-38 0.0026350608 -4.59899e-40 5.778603e-38
0001d0 17 e3 23 80 55 55 27 82 6f 63 5f bf 75 14 07 80
       -3.295707e-39 -1.2293711e-37 -0.872611 -6.50187e-40
0001e0 95 d8 0e 80 67 9b 96 3f f2 d1 89 bd d4 53 01 01
       -1.363392e-39 1.1766175 -0.06729497 2.3753702e-38
0001f0 97 68 9a 3a ec 99 07 81 4e c1 96 3f 10 b4 50 81
       0.0011780438 -2.4906017e-38 1.1777742 -3.8332755e-38
000200 80 90 28 02 fb a6 2c 80 4e 4d 28 00 c0 eb a4 01
       1.238416e-37 -4.100663e-39 3.701152e-39 6.058237e-38
000210 a0 97 5f 02 00 88 ea 00 e0 04 23 02 59 be 01 80
       1.6426967e-37 2.1538294e-38 1.1976748e-37 -1.6012e-40
000220 63 13 0d 80 b2 23 09 80 c0 0a e6 01 ab 6f 06 80
       -1.200816e-39 -8.39325e-40 8.450408e-38 -5.91072e-40
000230 e8 f0 3e 82 68 d8 69 81 2d 34 30 80 88 de 0e 00
       -1.4028132e-37 -4.2950605e-38 -4.426821e-39 1.365526e-39
000240 81 4a 21 00 34 3a be 82 b9 96 35 80 40 fa ad 81
       3.057298e-39 -2.7951398e-37 -4.92135e-39 -6.3909254e-38
000250 00 01 01 80 20 21 16 82 40 dc 3c 02 be 21 03 80
       -9.2194e-41 -1.1029766e-37 1.3875267e-37 -2.87611e-40
000260 65 86 26 02 24 1c 32 80 00 8e ca 00 40 22 cb 81
       1.2234323e-37 -4.60187e-39 1.860171e-38 -7.461957e-38
000270 37 d6 16 00 48 2b 00 00 cd 33 07 80 76 7c 1a 00
       2.097227e-39 1.5526e-41 -6.61431e-40 2.432371e-39
000280 70 e3 3e 02 00 c3 4d 00 c0 83 b2 81 79 7c 00 82
       1.4024267e-37 7.141286e-39 -6.5575925e-38 -9.439677e-38
000290 a4 40 08 80 00 ba bc 80 b6 9a 23 00 a0 0c 21 02
       -7.57873e-40 -1.7331798e-38 3.269742e-39 1.1832035e-37
0002a0 a3 e7 38 80 00 d5 7a 00 4a b2 19 00 00 29 ce 81
       -5.225883e-39 1.128034e-38 2.359845e-39 -7.573128e-38
0002b0 bf 7d 59 02 58 c4 40 80 f2 5c 2e 80 30 da d1 00
       1.597873e-37 -5.947907e-39 -4.257775e-39 1.927189e-38
0002c0 c0 1e 52 82 a7 fc 17 00 50 4b ce 00 00 c1 98 01
       -1.5437188e-37 2.202851e-39 1.8945129e-38 5.6112923e-38
0002d0 70 93 be 82 00 a5 3f 02 d6 4f 33 80 66 90 21 80
       -2.8002616e-37 1.4079816e-37 -4.71225e-39 -3.082372e-39
0002e0 6c 48 1c 80 80 fa 66 82 48 a5 04 80 c0 6b f3 01
       -2.597374e-39 -1.6969621e-37 -4.26634e-40 8.9418716e-38
0002f0 c0 84 07 82 81 8e 04 00 ec d5 62 01 16 dc 31 80
       -9.956331e-38 4.18463e-40 4.1663126e-38 -4.578891e-39
000300 24 3a 03 00 51 98 10 00 a2 56 44 00 00 b9 58 80
       2.96363e-40 1.524009e-39 6.275892e-39 -8.147889e-39
000310 20 b8 0b 02 d3 9d 06 00 24 b9 00 80 37 fb 21 00
       1.0264948e-37 6.0763e-40 -6.6416e-41 3.12069e-39
000320 80 dc 45 81 40 fc 9f 01 c0 d1 2f 82 16 c7 1a 00
       -3.6341386e-38 5.8769337e-38 -1.2917165e-37 2.459141e-39
000330 e5 1d 10 82 b1 6b 06 82 9c c4 0f 00 9d ef 32 82
       -1.0588028e-37 -9.875671e-38 1.448063e-39 -1.314614e-37
000340 80 12 2e 82 00 1c 46 82 80 30 02 02 c7 7b 00 80
       -1.278881e-37 -1.4554778e-37 9.56481e-38 -4.4403e-41
000350 00 f7 c0 00 00 41 0f 80 00 9c c6 80 8b 84 12 00
       1.7721022e-38 -1.40085e-39 -1.823939e-38 1.700586e-39
000360 4f b9 3d 80 ad 6a 04 82 d0 39 03 80 c3 d1 02 80
       -5.668441e-39 -9.728443e-38 -2.96246e-40 -2.5892e-40
000370 80 36 6e 01 00 31 a2 81 81 55 1d 80 20 0a 9d 82
       4.3752798e-38 -5.9579713e-38 -2.693902e-39 -2.3074888e-37
000380 0c eb 03 80 c0 fa ef 01 45 62 0a 80 c5 e9 13 80
       -3.59825e-40 8.8154543e-38 -9.53607e-40 -1.828735e-39
000390 00 bb 41 00 c0 20 e3 81 40 e8 bf 02 c0 12 4d 02
       6.03639e-39 -8.3433624e-38 2.8198233e-37 1.5066402e-37
0003a0 40 37 a0 81 00 ce 08 82 00 47 67 01 0c 5e 45 00
       -5.8854e-38 -1.0050821e-37 4.247894e-38 6.370387e-39
0003b0 40 6d 8d 81 e1 20 13 80 80 d7 01 80 73 b8 10 00
       -5.1951986e-38 -1.756669e-39 -1.69142e-40 1.535536e-39
0003c0 f0 b9 78 00 c0 8d db 81 20 df 6a 82 00 63 5c 80
       1.1086961e-38 -8.0651296e-38 -1.7255639e-37 -8.48438e-39
0003d0 00 42 12 80 92 b3 4b 82 6c 3c 3f 80 d5 d7 01 00
       -1.676715e-39 -1.4965619e-37 -5.807312e-39 1.69261e-40
0003e0 70 3f ae 82 3d d1 05 80 35 a9 37 80 4c 17 c0 02
       -2.5603413e-37 -5.34238e-40 -5.111652e-39 2.8225236e-37
0003f0 a0 48 09 82 00 e6 d1 80 38 0f 10 00 84 fb fe 81
       -1.0086013e-37 -1.9276127e-38 1.474827e-39 -9.366577e-38

net.2.0.bias f4 [128]
000000 5f 5c 1b 3f 2c 91 38 80 67 ee aa 3f 6e 56 41 80
       0.6068782 -5.194866e-39 1.3354005 -6.000312e-39
000010 92 25 00 3f 60 e9 15 3f 7c 6a 1b 3f 0a dd 03 00
       0.5005733 0.58559227 0.6070936 3.548e-40
000020 24 9c b4 3f 8e df 0e 80 b3 f1 10 3f 23 a5 aa 3f
       1.411015 -1.365893e-39 0.56618804 1.3331646
000030 56 e2 a2 3f e2 ae a6 3f f3 3a 24 3f df 90 32 8e
       1.2725322 1.302212 0.6415245 -2.2009947e-30
000040 99 15 11 00 e9 3a 19 00 1e 47 a4 3f e3 eb 10 3f
       1.568951e-39 2.31702e-39 1.2834203 0.56609935
000050 43 d6 21 80 48 aa 28 00 32 bb a7 3f be fa 80 b8
       -3.107434e-39 3.734505e-39 1.3104002 -6.15022e-05
000060 c2 e7 33 80 8c 7f aa 3f 53 4f 00 09 ac 3f a8 3f
       -4.76675e-39 1.3320174 1.5444738e-33 1.3144431
000070 79 89 b6 3f d5 db 37 80 e7 91 09 80 fd 43 b0 3f
       1.4260703 -5.129813e-39 -8.7886e-40 1.3770748
000080 5a 05 3f 80 51 ac 3b 80 b1 0d 41 80 0c 2b f9 3e
       -5.787556e-39 -5.48011e-39 -5.974219e-39 0.48665655
000090 91 80 af 3f b9 ca 17 80 d8 00 a9 3f 52 44 b0 3f
       1.371111 -2.18494e-39 1.3203382 1.377085
0000a0 87 19 41 80 5b e3 0e 00 93 9e f7 3e 4e 91 0a 80
       -5.978465e-39 1.367257e-39 0.4836317 -9.7048e-40
0000b0 51 01 08 b8 46 0b 22 80 08 cf 27 80 cc c8 b2 3f
       -3.2426153e-05 -3.126451e-39 -3.655853e-39 1.3967528
0000c0 bf 87 0a 3f 21 0f 13 3f 7a 0e b1 b8 1b 52 64 9b
       0.5411338 0.5744496 -8.442714e-05 -1.8886248e-22
0000d0 93 b9 03 00 8d 10 12 3f 7b 27 0b 3f 11 b6 29 80
       3.42078e-40 0.57056504 0.5435712 -3.830568e-39
0000e0 73 25 f8 b9 61 4a 0d 80 b4 b4 2b 80 1e 34 01 80
       -0.00047330148 -1.220544e-39 -4.01375e-39 -1.10532e-40
0000f0 9e 7e a6 3f 91 f3 1b 80 42 fb 41 b8 b0 66 3a 00
       1.300739 -2.566934e-39 -4.6248788e-05 5.363296e-39
000100 1a 51 36 80 06 5a 33 00 50 50 a1 3f 9d 29 b5 3f
       -4.98821e-39 4.715905e-39 1.2602634 1.4153324
000110 5c 3d f9 3e 4d f9 09 3f ae a5 15 3f 55 84 40 80
       0.48679626 0.5389603 0.5845593 -5.924944e-39
000120 5b f2 06 3f b0 44 10 80 3a ab a8 3f 60 6b eb ba
       0.52713555 -1.494008e-39 1.3177254 -0.0017961077
000130 a1 1e 15 80 48 8f 1f 00 11 65 1a 3f 10 c1 17 3f
       -1.939533e-39 2.8983e-39 0.60310465 0.59278965
000140 37 9b 0b 80 03 05 19 3f e7 fc 14 3f a5 a1 24 80
       -1.065871e-39 0.5977327 0.581984 -3.364065e-39
000150 e4 7a e8 ba fa 89 a3 3f d0 5a ab 3f eb 6c 09 3f
       -0.001773682 1.2776482 1.3387089 0.5368182
000160 3e 2a 16 80 80 ef 0a 80 1a 49 73 03 a2 38 11 80
       -2.035535e-39 -1.004271e-39 7.14952e-37 -1.58152e-39
000170 0b 3d 14 80 fa 1b 4a 80 a2 6d 14 80 ef a6 09 3f
       -1.858608e-39 -6.805863e-39 -1.876039e-39 0.53770345
000180 1a c5 b4 3f d6 61 0b bb 38 85 b0 3f 01 ab 57 b3
       1.4122651 -0.0021268032 1.3790655 -5.0214116e-08
000190 27 ea 1e 00 68 79 13 3f 7e 46 0c 3f d1 f0 1c 80
       2.839063e-39 0.57607126 0.5479506 -2.657783e-39
0001a0 fa 9e 3b 80 af b8 3c bb 9f 5d ad 3f a2 19 0f 80
       -5.475324e-39 -0.0028796603 1.3544196 -1.386728e-39
0001b0 ca db e3 3e a7 5d 03 3f cd c4 02 3f 48 f9 16 3f
       0.44503623 0.5131478 0.51081544 0.58974123
0001c0 57 e1 02 ae c1 fa 1d 80 17 c1 1e 80 d7 23 de b8
       -2.975872e-11 -2.753183e-39 -2.824332e-39 -0.000105924606
0001d0 4c d7 ac 3f 17 c5 e2 3e 78 d2 0b 3f 7c b1 12 3f
       1.3503203 0.44290993 0.54618025 0.5730207
0001e0 a9 72 34 80 ad 74 11 80 4f 9f 21 80 05 97 42 80
       -4.816578e-39 -1.603059e-39 -3.08772e-39 -6.115318e-39
0001f0 f1 10 af 3f a8 34 f8 b7 4e fe 0f 3f a1 52 08 3f
       1.3677045 -2.9588424e-05 0.56247413 0.5325108

net.3.0.weight f4 [128, 128]
000000 68 1f 4a 3f f9 4a 06 80 e4 43 90 3c 5d 09 39 80
       0.7895417 -5.77908e-40 0.017610498 -5.237982e-39
000010 bd 06 8b 3e 58 e0 7f 3e 20 fd 32 3f 64 c9 05 00
       0.27153578 0.24987924 0.6991749 5.31423e-40
000020 8b ff 06 bd 50 99 0a 00 7f ff 2e 3e db 3f 3e bc
       -0.03295855 9.73353e-40 0.17089652 -0.011611904
000030 08 19 b6 b6 f8 27 2b bc 89 ac 09 3f 36 cc 0f 80
       -5.4269367e-06 -0.010446541 0.5377889 -1.45079e-39
000040 e0 e2 08 00 10 9d 06 00 d2 d5 d1 bc 25 2d 14 3f
       8.16071e-40 6.07356e-40 -0.025614653 0.57881385
000050 96 a0 15 80 a0 4e 03 00 92 6b 64 bb 64 16 06 9f
       -1.986153e-39 3.03712e-40 -0.0034854156 -2.8394125e-20
000060 cd b3 01 00 50 a2 b8 39 28 1a da 81 92 8a 0a bc
       1.56336e-40 0.00035216147 -8.0118085e-38 -0.008455889
000070 e3 d2 c9 bb 6d 7f 05 80 52 c1 0b 80 00 94 21 3d
       -0.006159173 -5.04889e-40 -1.079541e-39 0.039447784
000080 1b a2 10 00 85 d5 30 00 d2 92 1d 00 41 b8 7f 3e
       1.52752e-39 4.4847e-39 2.715899e-39 0.24972631
000090 af cb 06 bc 1c 0e 01 00 b0 1e 4e bb 49 2d ce bb
       -0.008227273 9.6897e-41 -0.0031451397 -0.0062920195
0000a0 44 f3 0d 80 a2 31 03 80 5f ce 88 3e 76 f0 24 80
       -1.281129e-39 -2.93311e-40 0.2671995 -3.392339e-39
0000b0 53 3b 86 ae 15 51 40 80 d6 a8 14 00 5f b3 7f bc
       -6.1041526e-11 -5.906559e-39 1.897277e-39 -0.01560673
0000c0 17 83 2b 3e 49 fe 59 3e 6d f5 dc 31 b0 09 37 00
       0.16749226 0.21288408 6.4307444e-09 5.054428e-39
0000d0 64 b0 24 00 53 d9 6c 3e fb bb de 3e 34 5a 19 00
       3.369355e-39 0.23129778 0.43502793 2.328246e-39
0000e0 9c 34 2d 80 c4 21 c4 01 80 42 28 00 60 83 44 00
       -4.15147e-39 7.204748e-38 3.697276e-39 6.291942e-39
0000f0 c9 b7 c4 3c aa 03 0e 80 c8 2f 09 80 c9 b4 1a 80
       0.024013417 -1.287011e-39 -8.4366e-40 -2.452576e-39
000100 58 57 04 00 52 d4 b6 01 2b 79 22 bc a7 f9 de 3c
       3.98675e-40 6.7160906e-38 -0.009916584 0.027218653
000110 28 9c 76 3e 29 91 4f 3e c5 eb bc 3e c6 58 0b 80
       0.24083006 0.20270218 0.36898628 -1.042036e-39
000120 0e 52 2f 3e 1d ce 18 80 cd c7 5b bc fb f5 22 02
       0.17121145 -2.277991e-39 -0.013414335 1.1972473e-37
000130 83 3d 08 00 e3 1f 30 00 f4 f5 5f 3e ae c7 bf 3e
       7.5675e-40 4.419543e-39 0.21871167 0.3745703
000140 41 c8 10 80 c5 25 66 3e b7 ea 12 3f 44 e5 0e 00
       -1.541206e-39 0.22475345 0.57389396 1.367942e-39
000150 66 58 fb 19 70 f1 c4 3b 67 a2 bf bc 1d e2 02 3f
       2.5988496e-23 0.006010227 -0.02339287 0.5112627
000160 68 23 09 80 e3 ce 09 80 7f 12 30 80 33 7b 0b 00
       -8.39221e-40 -9.00736e-40 -4.414739e-39 1.054386e-39
000170 40 ff 0f 00 19 c8 02 00 f2 f8 f1 81 96 fa 93 3e
       1.469099e-39 2.55453e-40 -8.888664e-38 0.2890212
000180 f9 51 1f 3d 6e 9b 27 21 41 dc 97 3b 74 e3 05 00
       0.038896535 5.678751e-19 0.0046344106 5.40772e-40
000190 92 b0 08 80 5f 91 bf 3e cf 3f 4a 3f e0 56 2a 00
       -7.98025e-40 0.37415597 0.79003614 3.888256e-39
0001a0 6c 29 4a 00 dc b1 1b b1 4c 70 f2 39 91 d4 18 00
       6.810686e-39 -2.265657e-09 0.00046241505 2.280306e-39
0001b0 77 ed a2 3e 50 6b 1e 3e 88 41 73 3e 67 a4 a6 3e
       0.31821796 0.15470624 0.23755467 0.32547304
0001c0 13 7d 00 00 3f a9 26 80 3a 75 1b 80 97 f9 cd 3a
       4.4868e-41 -3.550463e-39 -2.521611e-39 0.0015714642
0001d0 3f 51 a6 bb ad b3 a4 3e 1e 94 23 3e 0f f8 63 3e
       -0.0050756033 0.32168332 0.15974471 0.22262596
0001e0 3b 52 06 00 4a 67 12 00 af 39 22 00 dd 2e 27 00
       5.80512e-40 1.690092e-39 3.1431e-39 3.598396e-39
0001f0 d0 17 29 3c 45 4e 46 00 66 cc 70 3e e9 45 54 3f
       0.010320619 6.456563e-39 0.23515472 0.82919174
000200 9f 0e 49 3f a0 13 1c 80 36 a5 90 3c cd a4 16 00
       0.78537935 -2.578434e-39 0.017656904 2.0795e-39
000210 9d 8b 84 3e f5 6e 72 3e 96 cc 31 3f 6f d4 1d 80
       0.25887766 0.23675139 0.694528 -2.739436e-39
000220 43 cc 00 bd e5 e3 5e 02 da e4 1f 3e 55 cf 34 bc
       -0.0314448 1.6375387e-37 0.15614644 -0.01103576
000230 05 ce 16 38 7d a5 19 bc 00 ac 07 3f 14 26 46 00
       3.5954658e-05 -0.009377834 0.52996826 6.442145e-39
000240 18 55 0d 00 65 b8 05 80 cd 6f cd bc a4 6e 12 3f
       1.224387e-39 -5.25326e-40 -0.025077725 0.57200074
000250 d4 bb 16 80 76 db 37 80 80 0a 45 bb 54 79 21 1e
       -2.087761e-39 -5.12968e-39 -0.0030066073 8.548359e-21
000260 e3 0a 03 00 1d 3f 0d 3b 30 1f 58 81 0a 01 07 bc
       2.79412e-40 0.002155251 -3.969531e-38 -0.008239994
000270 c1 32 cb bb a6 7d 03 80 c3 f0 16 80 c1 21 20 3d
       -0.0062011187 -3.2058e-40 -2.10675e-39 0.03909469
000280 82 54 0a 00 41 c7 3d 00 13 9e 12 00 17 63 75 3e
       9.4867e-40 5.673444e-39 1.709745e-39 0.23963581
000290 74 3b 17 bc ac dd 05 00 a0 ee 1b ba 86 cd c4 bb
       -0.009230483 5.38698e-40 -0.00059483387 -0.0060059456
0002a0 50 52 0c 80 98 c5 04 00 2a 08 82 3e 98 70 01 00
       -1.131554e-39 4.38225e-40 0.25396854 1.32227e-40
0002b0 a9 e3 89 ae 2c 42 3c 80 85 94 39 00 a5 d8 84 bc
       -6.270479e-11 -5.533868e-39 5.287902e-39 -0.016216585
0002c0 fb 41 1c 3e 1b 74 4c 3e 9e 43 ab 31 a1 f6 37 00
       0.15259545 0.19966166 4.984442e-09 5.139426e-39
0002d0 60 05 25 00 95 4b 5f 3e 8e 33 da 3e d0 0b 13 00
       3.399842e-39 0.21806176 0.42617458 1.749112e-39
0002e0 2c 4f 4b 00 5d 60 43 82 d7 a6 26 80 10 b3 20 00
       6.916064e-39 -1.4353992e-37 -3.5496e-39 3.002971e-39
0002f0 8c a6 c6 3c 9b 56 09 80 d5 04 1d 00 a4 20 19 00
       0.024249338 -8.57588e-40 2.664963e-39 2.307597e-39
000300 50 77 21 82 f4 aa 35 81 99 42 20 bc fc 9e dd 3c
       -1.1862653e-37 -3.3367102e-38 -0.009781503 0.027053349
000310 53 b7 6b 3e ca 7e 41 3e 9f 31 b8 3e c9 fc 16 00
       0.23019151 0.18896022 0.35975358 2.111063e-39
000320 30 85 20 3e 47 86 25 00 81 2a 4e bc d0 a2 38 80
       0.15675807 3.446083e-39 -0.012583376 -5.201194e-39
000330 39 63 09 00 01 83 45 80 ec 4f 52 3e 3e e4 b9 3e
       8.62114e-40 -6.383645e-39 0.205383 0.36306947
000340 a5 71 03 00 ad f9 58 3e 6f 29 11 3f 9c f0 52 82
       3.16274e-40 0.21188994 0.5670385 -1.5497415e-37
000350 72 ca 0e 19 02 a3 e5 3b 82 98 cd bc 38 c3 00 3f
       7.3821114e-24 0.0070079574 -0.025097135 0.5029788
000360 10 c1 0a 81 08 fa 91 01 b7 6a 01 00 f5 3f 0e 80
       -2.5485112e-38 5.3623365e-38 1.30118e-40 -1.30864e-39
000370 dc 83 11 00 c7 66 06 00 10 8d f6 01 0d 7a 8d 3e
       1.608506e-39 5.87883e-40 9.0568543e-38 0.2763218
000380 5c b2 1b 3d 19 9c 12 1c ef c2 54 3b a4 56 37 80
       0.038011894 4.85091e-22 0.0032464822 -5.082033e-39
000390 ee a3 08 80 db 62 ba 3e bd 65 49 3f d0 b7 42 00
       -7.93491e-40 0.36403546 0.78670865 6.127082e-39
0003a0 8e 61 42 00 d0 9e f1 00 37 4d e7 3a 6c 53 16 80
       6.096139e-39 2.2189326e-38 0.0017646913 -2.050307e-39
0003b0 69 ae 9e 3e 58 e2 0f 3e cc b5 64 3e 22 ec a0 3e
       0.3099244 0.14051187 0.22334975 0.31430155
0003c0 30 e2 05 80 21 54 1f 80 e6 09 18 80 a3 43 c8 3a
       -5.40318e-40 -2.87708e-39 -2.207603e-39 0.0015278946
0003d0 e2 85 ba bb 77 33 a0 3e 56 9f 14 3e d1 9a 55 3e
       -0.0056922296 0.31289265 0.14513907 0.20859839
0003e0 97 d7 10 80 43 e6 12 00 1a 9f 12 80 02 17 40 00
       -1.546707e-39 1.735641e-39 -1.710114e-39 5.885725e-39
0003f0 29 12 5e 3c c8 6e 1e 80 39 39 62 3e a7 a3 53 3f
       0.013554134 -2.794806e-39 0.22092141 0.8267159

net.3.0.bias f4 [128]
000000 d9 d2 06 3d f2 1f 08 3d 8a 93 8b 3f af f2 80 3f
       0.032915924 0.03323359 1.09044 1.0074061
000010 62 d9 04 3f 08 d0 03 3d 95 2d 14 80 49 b5 05 80
       0.518942 0.032180816 -1.853062e-39 -5.2421e-40
000020 43 5b 1f b1 77 ae 05 3d 8a 7b 88 3f 7b 05 08 3d
       -2.3189421e-09 0.032637086 1.0662701 0.03320835
000030 54 e0 8a 3f 63 4a 90 3f 87 10 0a 80 e4 ee 8d 3f
       1.084971 1.1272701 -9.24284e-40 1.1088529
000040 b8 86 05 3d 9d f1 62 b2 6b bb d8 3e a8 d1 8f 3f
       0.03259918 -1.3209868e-08 0.4233049 1.1235857
000050 db 8c 08 3d fa 2b 2b b8 08 9d 04 80 e0 72 1e 80
       0.033337455 -4.0810533e-05 -4.23674e-40 -2.796274e-39
000060 80 b4 0b 3f d5 b6 0e 3d d6 8d 93 3f b5 45 8f 3f
       0.54572296 0.03484233 1.152766 1.1193148
000070 eb 9b 8f 3f 44 e2 07 80 d6 69 0c 80 7d f6 04 80
       1.1219457 -7.24017e-40 -1.139993e-39 -4.55765e-40
000080 bc 59 84 3f fc fa 06 80 49 f3 85 3f d8 20 fc b2
       1.0339885 -6.41049e-40 1.046487 -2.9351597e-08
000090 36 23 0a 80 3c 35 0a 80 55 97 94 3f de 66 0c 3d
       -9.30986e-40 -9.37452e-40 1.1608683 0.03427779
0000a0 b3 8a 91 3f 51 45 14 80 1d d5 0a 80 1a 74 85 3f
       1.1370453 -1.861576e-39 -9.94806e-40 1.0426056
0000b0 05 cc c3 b9 6c 01 8f 3f ff 54 8c 3f f3 99 dc 3e
       -0.00037345305 1.1172309 1.0963439 0.43086204
0000c0 1d d3 0b 3d e0 63 07 3d db 86 0d 80 13 eb 23 bb
       0.03413688 0.033054233 -1.242238e-39 -0.0025011941
0000d0 70 7e 08 3d de 79 07 3d 31 c1 88 3f 28 e8 0e 3d
       0.033323705 0.033075206 1.0683957 0.03488937
0000e0 48 8c 06 3f de 56 0b 3f 27 11 0c 3d 44 4f 0a 3d
       0.525578 0.54429424 0.034196045 0.033767
0000f0 d1 81 08 80 f5 ef 85 3f 2a 6d 0c 80 2d 5f 87 3f
       -7.81253e-40 1.0463854 -1.141187e-39 1.057592
000100 2a 14 01 3f ed ab 9e 3f 23 70 90 3f 04 32 0d 80
       0.5042139 1.2396218 1.1284221 -1.211804e-39
000110 2d 87 1e 80 53 f4 01 3d b9 58 8d 3f b1 14 09 3d
       -2.803557e-39 0.031727146 1.1042701 0.033467
000120 e7 b4 85 3f f3 15 07 3d 9a 50 0a 80 29 7e 94 3f
       1.0445832 0.032979917 -9.4727e-40 1.1601001
000130 ef c6 8e 3f 20 4e 04 3d 15 ac 22 80 ef 15 94 3f
       1.115446 0.03230107 -3.184138e-39 1.1569194
000140 9f 3d 8b 3f 1b 5a 09 80 4d 4c 0a 80 fa b9 8b 3f
       1.087818 -8.58843e-40 -9.45727e-40 1.091613
000150 b6 55 7f 3f 1a 87 05 80 65 69 02 00 21 af 02 3d
       0.9974016 -5.07643e-40 2.2148e-40 0.031905297
000160 1b 43 80 98 e3 21 0a 3d 08 41 1d 80 cf b4 91 3f
       -3.3154984e-24 0.033723723 -2.686558e-39 1.1383303
000170 ff c0 e9 b9 42 be 09 80 9c af 94 ba db e8 8b 3f
       -0.00044585016 -8.94771e-40 -0.001134384 1.0930437
000180 6d e8 dc 3e ea 29 08 80 ca 6a 87 b7 c2 c8 02 3f
       0.43146077 -7.4972e-40 -1.6142982e-05 0.5108758
000190 c1 a2 1c 80 1b 27 87 3f bf c4 1f 80 71 5c 07 3d
       -2.629779e-39 1.0558809 -2.91748e-39 0.033047143
0001a0 03 66 1b 80 b7 e0 f3 3e 6f 74 b9 a1 83 25 07 bb
       -2.516153e-39 0.4763238 -1.2566907e-18 -0.0020621724
0001b0 e8 b7 4b ab c2 6c 91 3f f5 6e 10 80 2c ba 27 80
       -7.237531e-13 1.1361315 -1.509172e-39 -3.64837e-39
0001c0 b9 e6 09 80 16 ce 8a 3f 72 fe 2d b8 75 76 2d ba
       -9.09287e-40 1.0844142 -4.1483385e-05 -0.0006617078
0001d0 43 4b 8d 3f f3 78 8c 3f 19 bb 17 80 4a e6 8f 3f
       1.1038593 1.0974411 -2.179334e-39 1.1242154
0001e0 9a c7 93 3f 64 7b 0b 80 12 88 8d 3f 34 6b 5c af
       1.1545289 -1.054455e-39 1.105715 -2.004697e-10
0001f0 e2 ba 09 80 95 84 8b 3f 1d f2 84 3f b7 d4 0a 3d
       -8.9356e-40 1.0899836 1.0386387 0.033894267
