swarm/minimax/model_0.25_relaxation/Q-500069.pth (torch, 338387 bytes, 10 tensors)

net.0.0.weight f4 [128, 8]
0	0x8019440b	-2.320297e-39
1	0x8008cd3f	-8.08312e-40
2	0x800fe387	-1.459154e-39
3	0x8005bcd3	-5.26915e-40
4	0x801973b7	-2.337398e-39
5	0x800d2dc6	-1.210282e-39
6	0x800d73b2	-1.235365e-39
7	0x801a6b50	-2.42622e-39
8	0x0000c5d1	7.0963e-41
9	0x80068643	-5.99177e-40
10	0x800b77e0	-1.053194e-39
11	0x80107880	-1.512595e-39
12	0x800ed5e0	-1.362421e-39
13	0x000c2f98	1.1191e-39
14	0x000205ba	1.85725e-40
15	0x800e98f6	-1.340569e-39
16	0x80012df9	-1.08327e-40
17	0x8010e562	-1.551655e-39
18	0x80160e63	-2.025542e-39
19	0x801642db	-2.044364e-39
20	0x000010d1	6.033e-42
21	0x8012eeca	-1.7387e-39
22	0x800f8e29	-1.42853e-39
23	0x8015afcc	-1.99161e-39
24	0x3e8886a3	0.2666522
25	0x3e863953	0.2621561
26	0x3e815c34	0.25265658
27	0x3e83517e	0.2564811
28	0x3e85ce3a	0.261339
29	0x3e847512	0.25870568
30	0x3e84dc28	0.25949216
31	0x3e8424fb	0.25809464
32	0x8015a17e	-1.986478e-39
33	0x8019ba94	-2.362819e-39
34	0x80103f36	-1.492044e-39
35	0x001699b9	2.075526e-39
36	0x0009a201	8.84636e-40
37	0x80090379	-8.27765e-40
38	0x800821ea	-7.4685e-40
39	0x00126711	1.690012e-39
40	0x3eb0aaec	0.34505403
41	0x3eae4115	0.3403403
42	0x3ea8cc66	0.32968444
43	0x3eaa2542	0.3323155
44	0x3eadc9c1	0.3394299
45	0x3eabe088	0.3356974
46	0x3eacad5e	0.3372602
47	0x3eab535d	0.3346204
48	0x3ea979e6	0.33100814
49	0x3ea7167a	0.32634336
50	0x3ea1b8d1	0.31586316
51	0x3ea32e7c	0.31871402
52	0x3ea69da5	0.32542148
53	0x3ea4cfab	0.32189688
54	0x3ea58ac8	0.32332444
55	0x3ea44eaf	0.3209128
56	0x80179c6d	-2.168331e-39
57	0x801db1fc	-2.727078e-39
58	0x80193e39	-2.318209e-39
59	0x8012892f	-1.702251e-39
60	0x801c8d26	-2.622028e-39
61	0x8013ce09	-1.818786e-39
62	0x801a3a34	-2.408602e-39
63	0x8018e66c	-2.286712e-39
64	0x801b59e4	-2.511805e-39
65	0x8010b438	-1.534018e-39
66	0x8017c003	-2.181097e-39
67	0x801593ff	-1.981636e-39
68	0x8018db8d	-2.282812e-39
69	0x801497b7	-1.891135e-39
70	0x801b9f06	-2.536605e-39
71	0x8018d964	-2.282037e-39
72	0x80164e07	-2.048372e-39
73	0x0000f754	8.8725e-41
74	0x00020d9e	1.88556e-40
75	0x80128e4b	-1.704084e-39
76	0x8000eddb	-8.5326e-41
77	0x000460c6	4.02058e-40
78	0x0001a7d4	1.52041e-40
79	0x80067d10	-5.95877e-40
80	0x80057eac	-5.04619e-40
81	0x80111500	-1.568737e-39
82	0x80092190	-8.3856e-40
83	0x8017f66a	-2.200613e-39
84	0x8009d66c	-9.0344e-40
85	0x80049156	-4.19479e-40
86	0x0000dc8f	7.9122e-41
87	0x801b2a38	-2.494704e-39
88	0x80070278	-6.43734e-40
89	0x800bb28c	-1.074241e-39
90	0x800b50df	-1.039202e-39
91	0x800cf406	-1.189565e-39
92	0x801b7c0a	-2.524055e-39
93	0x800024a6	-1.3147e-41
94	0x80171535	-2.119824e-39
95	0x0003336a	2.9395e-40
96	0x80111fcd	-1.572611e-39
97	0x80027b2c	-2.27857e-40
98	0x8006ff86	-6.42678e-40
99	0x80123a10	-1.673868e-39
100	0x800807c8	-7.37475e-40
101	0x000f02b7	1.378506e-39
102	0x8019178b	-2.304333e-39
103	0x801569db	-1.966519e-39
104	0x800ed6d5	-1.362764e-39
105	0x800f1032	-1.383342e-39
106	0x800749c5	-6.69312e-40
107	0x8003a295	-3.3383e-40
108	0x800b1384	-1.017191e-39
109	0x800dad97	-1.256134e-39
110	0x8005cdfb	-5.3307e-40
111	0x8011ba29	-1.627985e-39
112	0x8006eae5	-6.35277e-40
113	0x800ea910	-1.346345e-39
114	0x8003c973	-3.47773e-40
115	0x801e25dd	-2.768648e-39
116	0x8013541f	-1.775051e-39
117	0x800eb4a6	-1.350501e-39
118	0x800db79f	-1.259732e-39
119	0x801c5006	-2.600101e-39
120	0x3ea3a7a7	0.31963846
121	0x3ea148be	0.3150081
122	0x3e9bfeeb	0.30467924
123	0x3e9d8bdf	0.30770776
124	0x3ea0cfba	0.31408483
125	0x3e9f1790	0.31072664
126	0x3e9fc427	0.3120434
127	0x3e9ea036	0.30981606
128	0x801cf2f7	-2.658553e-39
129	0x800d75d3	-1.236129e-39
130	0x801129a8	-1.576147e-39
131	0x0003f6bd	3.6402e-40
132	0x8012d30d	-1.72875e-39
133	0x801d7190	-2.703968e-39
134	0x8017a7a9	-2.172362e-39
135	0x8003a389	-3.34172e-40
136	0x3eb4d15c	0.3531598
137	0x3eb26385	0.34841552
138	0x3eace2c6	0.33766764
139	0x3eae2a42	0.34016615
140	0x3eb1edf7	0.34751865
141	0x3eaff4f6	0.34366578
142	0x3eb0cbc1	0.34530452
143	0x3eaf6041	0.34253123
144	0x80181e8d	-2.215011e-39
145	0x8019a4ae	-2.354963e-39
146	0x800e3a80	-1.306683e-39
147	0x800aee31	-1.003802e-39
148	0x801258fb	-1.684959e-39
149	0x801b46ab	-2.504909e-39
150	0x8016fb1c	-2.110462e-39
151	0x8010242b	-1.482343e-39
152	0x8003d718	-3.52668e-40
153	0x0004349d	3.86216e-40
154	0x00060aee	5.54934e-40
155	0x8004bbfa	-4.34775e-40
156	0x0008c353	8.04753e-40
157	0x8000d315	-7.5722e-41
158	0x000b56bc	1.041305e-39
159	0x0004c3ae	4.37539e-40
160	0x3ea6cda9	0.3257878
161	0x3ea46c55	0.321139
162	0x3e9f17b2	0.31072766
163	0x3ea09810	0.31366014
164	0x3ea3f369	0.32021645
165	0x3ea22f67	0.3167679
166	0x3ea2e3e6	0.31814498
167	0x3ea1b2c8	0.31581712
168	0x8015006a	-1.928694e-39
169	0x800dc061	-1.262874e-39
170	0x801d036a	-2.664454e-39
171	0x801963ff	-2.331759e-39
172	0x80146b1d	-1.875135e-39
173	0x8012d55d	-1.729579e-39
174	0x800fd411	-1.453608e-39
175	0x801a0286	-2.388628e-39
176	0x3eb0688e	0.3445477
177	0x3eadff00	0.33983612
178	0x3ea88b21	0.32918647
179	0x3ea9e504	0.33182538
180	0x3ead878d	0.3389248
181	0x3eab9f5e	0.33520025
182	0x3eac6b93	0.33675823
183	0x3eab12a0	0.33412647
184	0x3ea8afbb	0.32946572
185	0x3ea64ce0	0.32480526
186	0x3ea0f200	0.3143463
187	0x3ea26ac1	0.31722072
188	0x3ea5d401	0.3238831
189	0x3ea408f8	0.32038093
190	0x3ea4c22b	0.32179388
191	0x3ea38953	0.31940708
192	0x8011c141	-1.63053e-39
193	0x8018c8e6	-2.27612e-39
194	0x8014e0fa	-1.917416e-39
195	0x801104f8	-1.562986e-39
196	0x801d3451	-2.681997e-39
197	0x80157ac1	-1.972581e-39
198	0x80123d49	-1.675024e-39
199	0x801b1962	-2.488664e-39
200	0x0000d10f	7.4996e-41
201	0x0008dd6d	8.14117e-40
202	0x000a8050	9.64385e-40
203	0x00036b42	3.13983e-40
204	0x00099bed	8.82455e-40
205	0x800bc2a9	-1.080021e-39
206	0x00074eb7	6.71086e-40
207	0x000ab03c	9.81576e-40
208	0x801d3fb4	-2.686082e-39
209	0x80160e48	-2.025504e-39
210	0x80167776	-2.063235e-39
211	0x8015b926	-1.994964e-39
212	0x800f5adf	-1.410131e-39
213	0x8014eb98	-1.921225e-39
214	0x8018ce58	-2.278074e-39
215	0x80104d71	-1.497149e-39
216	0x801a596e	-2.419804e-39
217	0x8003db9a	-3.54285e-40
218	0x8010b0d8	-1.532808e-39
219	0x801d076a	-2.665889e-39
220	0x8019d861	-2.37351e-39
221	0x801730c2	-2.129707e-39
222	0x8013d4b4	-1.821178e-39
223	0x800a77d1	-9.61337e-40
224	0x3ea4478d	0.3208584
225	0x3ea1e821	0.31622413
226	0x3e9c9c1c	0.30587852
227	0x3e9e26aa	0.30888873
228	0x3ea16f1d	0.31530085
229	0x3e9fb4b4	0.31192553
230	0x3ea062cc	0.31325376
231	0x3e9f3c33	0.31100616
232	0x3eb24207	0.34816
233	0x3eafd69c	0.3434342
234	0x3eaa5d86	0.33274478
235	0x3eabaf84	0.33532345
236	0x3eaf6005	0.34252945
237	0x3ead70d6	0.3387515
238	0x3eae4178	0.34034324
239	0x3eace0d3	0.33765277
240	0x801550f5	-1.957587e-39
241	0x8012093b	-1.65635e-39
242	0x801c1d5d	-2.581927e-39
243	0x800dcbdf	-1.266997e-39
244	0x80148324	-1.883754e-39
245	0x801672b5	-2.06153e-39
246	0x80055a45	-4.9156e-40
247	0x80136768	-1.78197e-39
248	0x80171006	-2.117965e-39
249	0x80156401	-1.96442e-39
250	0x8011eac9	-1.645428e-39
251	0x80021e18	-1.94467e-40
252	0x80103ea1	-1.491835e-39
253	0x8014089c	-1.839798e-39
254	0x8018e85e	-2.28741e-39
255	0x8012ca47	-1.725602e-39

net.0.0.bias f4 [128]
0	0x8014073c	-1.839305e-39
1	0x801797d6	-2.166685e-39
2	0x8016bdad	-2.088424e-39
3	0x3f8116be	1.0085065
4	0x800faded	-1.439925e-39
5	0x3fa78267	1.3086671
6	0x3fa09ee0	1.2548485
7	0x8014db59	-1.915397e-39
8	0x000601c6	5.51649e-40
9	0x8005fccf	-5.49868e-40
10	0x801671f1	-2.061255e-39
11	0x800ab91e	-9.84762e-40
12	0x00057667	5.01652e-40
13	0x801030dc	-1.486895e-39
14	0x801d57e4	-2.694759e-39
15	0x3f9b0b7e	1.2112882
16	0x800c2894	-1.116583e-39
17	0x3fab7ca9	1.3397418
18	0x80018a70	-1.41498e-40
19	0x80186089	-2.238682e-39
20	0x3f9e0f7b	1.2348474
21	0x8016da2e	-2.098649e-39
22	0x3fa742dd	1.306728
23	0x3f9fdd3c	1.248939
24	0x001494c8	1.890083e-39
25	0x8011e6f5	-1.644055e-39
26	0x801accba	-2.461165e-39
27	0x8018e9ad	-2.287879e-39
28	0x3f9ba4a3	1.2159618
29	0x3fa90899	1.3205749
30	0x8016ccb6	-2.093817e-39
31	0x801799c9	-2.167384e-39
32	0x3faf729e	1.3706853
33	0x3f454351	0.7705584
34	0x3fb39cfa	1.403228
35	0x801882e9	-2.251014e-39
36	0x800e4aab	-1.312483e-39
37	0x3fa4bd17	1.2870206
38	0x00075eac	6.7681e-40
39	0x3fad6478	1.3546286
40	0x801560ec	-1.963314e-39
41	0x001a101c	2.393502e-39
42	0x3f66d485	0.9016803
43	0x000d3e18	1.216136e-39
44	0x3f8f9d2c	1.121984
45	0x3fad5313	1.3540977
46	0x00052184	4.712e-40
47	0x80012557	-1.0523e-40
48	0x3f62862e	0.8848599
49	0x8015fa32	-2.018299e-39
50	0x3fafe375	1.3741289
51	0x801468d0	-1.87431e-39
52	0x801bc6d0	-2.550879e-39
53	0x80188ccc	-2.25456e-39
54	0x3fb2e41b	1.3975862
55	0x3f8b388b	1.087663
56	0x3f73b250	0.9519396
57	0x00045891	3.99114e-40
58	0x80072f8c	-6.59905e-40
59	0x80093f15	-8.49149e-40
60	0x3f98453c	1.1896129
61	0x3fa4c712	1.2873251
62	0x001720b6	2.123951e-39
63	0x800afb60	-1.008531e-39
64	0x8008fde7	-8.25767e-40
65	0x800d8c7d	-1.244259e-39
66	0x0004e100	4.48057e-40
67	0x3fa4d270	1.287672
68	0x800d7366	-1.235259e-39
69	0x3f983beb	1.1893286
70	0x800fdd7c	-1.456986e-39
71	0x00079ff8	7.00234e-40
72	0x0015317f	1.946301e-39
73	0x80121f76	-1.664325e-39
74	0x80122c1f	-1.668867e-39
75	0x801a1a82	-2.397232e-39
76	0x00178278	2.15902e-39
77	0x801c69a7	-2.609295e-39
78	0x3fb41171	1.4067823
79	0x3fa35b7a	1.2762291
80	0x000eb9ac	1.352303e-39
81	0x3f8b1d67	1.0868348
82	0x800e23b9	-1.298512e-39
83	0x0003216d	2.87497e-40
84	0x3f9b8e3d	1.2152783
85	0x0000c416	7.0342e-41
86	0x800a97eb	-9.72853e-40
87	0x801aa7a0	-2.447855e-39
88	0x80071f66	-6.54112e-40
89	0x3f8896d3	1.0671028
90	0x00060e0e	5.56055e-40
91	0x80079797	-6.97229e-40
92	0x3f4d5dc1	0.8022118
93	0x800a4579	-9.43277e-40
94	0x80095e93	-8.60446e-40
95	0x001b2e85	2.496246e-39
96	0x800c153d	-1.109645e-39
97	0x801c4b1e	-2.598341e-39
98	0x800fe77f	-1.460578e-39
99	0x3f739b9e	0.9515933
100	0x801817ce	-2.212591e-39
101	0x80188f42	-2.255443e-39
102	0x80126cf1	-1.69212e-39
103	0x8010a850	-1.529747e-39
104	0x3f99f4ac	1.2027793
105	0x801166ea	-1.598122e-39
106	0x000420da	3.79127e-40
107	0x3fa372a7	1.2769364
108	0x800ca655	-1.161695e-39
109	0x3fad6d8a	1.3549054
110	0x8004318a	-3.85113e-40
111	0x8012bdda	-1.721145e-39
112	0x00123f54	1.675757e-39
113	0x3f82d7f0	1.0222149
114	0x3f9eaf8d	1.2397324
115	0x0005c48e	5.29688e-40
116	0x00190a2d	2.299538e-39
117	0x3f9f473e	1.2443616
118	0x8013eaeb	-1.829147e-39
119	0x801724c2	-2.125403e-39
120	0x3fa376c2	1.2770617
121	0x800529a6	-4.74118e-40
122	0x8019cb84	-2.368895e-39
123	0x0004b892	4.33553e-40
124	0x3f6b7180	0.9197006
125	0x8011cd4d	-1.634851e-39
126	0x3f893595	1.0719477
127	0x8015459e	-1.95352e-39

net.1.0.weight f4 [128, 128]
0	0x01879b94	4.981441e-38
1	0x81f07f80	-8.834503e-38
2	0x8254e710	-1.5641612e-37
3	0x80185b66	-2.23684e-39
4	0x81990708	-5.6213413e-38
5	0x80159ccb	-1.984792e-39
6	0x80086bc0	-7.73337e-40
7	0x0202ec61	9.618729e-38
8	0x020e4a94	1.0453915e-37
9	0x01bb239c	6.874405e-38
10	0x005ba860	8.417432e-39
11	0x81a68cd8	-6.118087e-38
12	0x81fdfd26	-9.330077e-38
13	0x0159e7b0	4.0022833e-38
14	0x02490cff	1.4770877e-37
15	0x80119de3	-1.617843e-39
16	0x81945b14	-5.4497304e-38
17	0x80164427	-2.04483e-39
18	0x0205beee	9.826091e-38
19	0x025ea8d0	1.6358431e-37
20	0x8011d514	-1.637641e-39
21	0x021c98ee	1.1504959e-37
22	0x800ff88c	-1.466694e-39
23	0x80164d91	-2.048206e-39
24	0x00bf3560	1.7559727e-38
25	0x824ed5e0	-1.5195869e-37
26	0x02044eb7	9.720418e-38
27	0x8165d798	-4.2215338e-38
28	0x8014d218	-1.912077e-39
29	0x800cf06b	-1.188272e-39
30	0x82155904	-1.0972337e-37
31	0x00634040	9.114763e-39
32	0x8008abd9	-7.96331e-40
33	0x00267efc	3.535302e-39
34	0x800d06e3	-1.196332e-39
35	0x01a7857c	6.153765e-38
36	0x822ee1be	-1.2848286e-37
37	0x80187407	-2.245675e-39
38	0x025a599a	1.6041825e-37
39	0x8018a8a0	-2.264543e-39
40	0x81c6f07c	-7.307879e-38
41	0x003681b0	5.00564e-39
42	0x800c9433	-1.15519e-39
43	0x01ca4708	7.4305006e-38
44	0x8012bf02	-1.72156e-39
45	0x800bdacf	-1.088684e-39
46	0x80293960	-3.785838e-39
47	0x0206f867	9.916053e-38
48	0x800a7f70	-9.64071e-40
49	0x01eefa40	8.7786483e-38
50	0x800c2fd4	-1.119183e-39
51	0x816c31bc	-4.3382037e-38
52	0x02118db0	1.069358e-37
53	0x81838790	-4.831632e-38
54	0x800bab4c	-1.07164e-39
55	0x801be0d2	-2.560209e-39
56	0x801d2f85	-2.680276e-39
57	0x021fa4f0	1.172881e-37
58	0x80395208	-5.26405e-39
59	0x8220f92c	-1.1826452e-37
60	0x800ec7e9	-1.357411e-39
61	0x800a71d0	-9.59183e-40
62	0x81c90ce0	-7.3854214e-38
63	0x81371d50	-3.3632822e-38
64	0x017f4cd8	4.6891236e-38
65	0x81c134e6	-7.097291e-38
66	0x822ad59a	-1.2550928e-37
67	0x800a56fe	-9.49562e-40
68	0x822af4f4	-1.2559926e-37
69	0x80097033	-8.66769e-40
70	0x0229b459	1.2467916e-37
71	0x015cb290	4.053573e-38
72	0x81f303c4	-8.9269506e-38
73	0x821d1bde	-1.1542536e-37
74	0x01a4ac1c	6.049105e-38
75	0x80afd9e0	-1.614937e-38
76	0x82509a70	-1.5325748e-37
77	0x00b02240	1.6175334e-38
78	0x800c3a32	-1.122902e-39
79	0x8009af11	-8.89321e-40
80	0x000eef50	1.371546e-39
81	0x80133b07	-1.76605e-39
82	0x8150f440	-3.8378807e-38
83	0x8296f488	-2.2180873e-37
84	0x800868de	-7.72303e-40
85	0x81b3a35c	-6.5988624e-38
86	0x015ba2c0	4.0340715e-38
87	0x002c5270	4.070335e-39
88	0x00c89780	1.8421447e-38
89	0x800fcf9b	-1.452007e-39
90	0x829d6010	-2.3124214e-37
91	0x021a7054	1.134637e-37
92	0x00107885	1.512602e-39
93	0x018f54f8	5.265183e-38
94	0x01ddaf00	8.143369e-38
95	0x012212a0	2.9768064e-38
96	0x0187a390	4.982587e-38
97	0x0186d974	4.9535856e-38
98	0x021b1a68	1.139518e-37
99	0x80107418	-1.511015e-39
100	0x81b03694	-6.4730505e-38
101	0x81e0d4d0	-8.2589976e-38
102	0x820e9f60	-1.0478251e-37
103	0x0077cde0	1.1002278e-38
104	0x801a3bc7	-2.409167e-39
105	0x8194dec8	-5.468629e-38
106	0x8197a8a8	-5.571065e-38
107	0x80182e02	-2.220556e-39
108	0x003c5360	5.540039e-39
109	0x8018bace	-2.271065e-39
110	0x80473818	-6.540443e-39
111	0x01a39824	6.0095055e-38
112	0x81f155ec	-8.865271e-38
113	0x801e663e	-2.791742e-39
114	0x8014b582	-1.901823e-39
115	0x81aee60c	-6.4247606e-38
116	0x025446ea	1.5595651e-37
117	0x8011bbd8	-1.628589e-39
118	0x8259a70f	-1.5990586e-37
119	0x825bccc8	-1.6148348e-37
120	0x80158fdf	-1.980157e-39
121	0x00b803e0	1.6899121e-38
122	0x819f10b4	-5.8431343e-38
123	0x023165aa	1.3033082e-37
124	0x8009fc72	-9.1708e-40
125	0x019a9818	5.678891e-38
126	0x80149777	-1.891045e-39
127	0x019d8bd0	5.787331e-38
128	0x8012d41f	-1.729134e-39
129	0x801656b9	-2.051491e-39
130	0x000ebdcf	1.353787e-39
131	0x3e7ca333	0.2467163
132	0x00063726	5.70797e-40
133	0x3ea40ebb	0.32042488
134	0x3e9d49ab	0.30720267
135	0x8002dd5d	-2.63081e-40
136	0x000ce331	1.183527e-39
137	0x800d2386	-1.206605e-39
138	0x000a2d27	9.34553e-40
139	0x0001acb3	1.53788e-40
140	0x0003ce7a	3.49576e-40
141	0x80093846	-8.46707e-40
142	0x0000dfaa	8.0236e-41
143	0x3e97cf55	0.2965037
144	0x800d36f4	-1.213575e-39
145	0x3ea7f77d	0.32806006
146	0x00005bf5	3.2988e-41
147	0x00028e0a	2.34625e-40
148	0x3e9ac5bd	0.30228987
149	0x80069aeb	-6.06587e-40
150	0x3ea3d04b	0.31994852
151	0x3e9c8b5e	0.3057508
152	0x000ab631	9.83713e-40
153	0x80141029	-1.842507e-39
154	0x0008b84f	8.00801e-40
155	0x800efe1c	-1.376854e-39
156	0x3e9865d0	0.29765177
157	0x3ea58e46	0.3233511
158	0x8010ad75	-1.531593e-39
159	0x8008ef1a	-8.20457e-40
160	0x3eabdc0a	0.33566314
161	0x3e40dc05	0.18833931
162	0x3eaff450	0.34366083
163	0x00055917	4.91137e-40
164	0x0008e87d	8.18085e-40
165	0x3ea155a1	0.31510642
166	0x000b1e59	1.021077e-39
167	0x3ea9d6de	0.33171743
168	0x000261ad	2.1871e-40
169	0x80132294	-1.757279e-39
170	0x3e61cb1e	0.2205014
171	0x801c4ae6	-2.598262e-39
172	0x3e8c94d0	0.27457285
173	0x3ea9c5c8	0.33158708
174	0x000058c0	3.1838e-41
175	0x80059385	-5.12098e-40
176	0x3e5d9167	0.21637498
177	0x800787dc	-6.91586e-40
178	0x3eac4af5	0.33650938
179	0x00040536	3.69211e-40
180	0x00179b66	2.167963e-39
181	0x8005e2f0	-5.40587e-40
182	0x3eaf3ea0	0.34227467
183	0x3e884451	0.2661462
184	0x3e6e6c27	0.23283444
185	0x8010f992	-1.558897e-39
186	0x8004c745	-4.38826e-40
187	0x000f3cad	1.399299e-39
188	0x3e9515a5	0.29118076
189	0x3ea15f74	0.31518137
190	0x00060252	5.51845e-40
191	0x00023b5f	2.0497e-40
192	0x000d43d0	1.218188e-39
193	0x800d20d4	-1.205638e-39
194	0x8018a2ce	-2.262455e-39
195	0x3ea16a9e	0.31526655
196	0x8009302b	-8.43799e-40
197	0x3e950c81	0.29111102
198	0x00025904	2.15604e-40
199	0x801151e6	-1.590583e-39
200	0x80158021	-1.97451e-39
201	0x8004fcd8	-4.58045e-40
202	0x0007c1ba	7.12344e-40
203	0x8006544b	-5.81252e-40
204	0x001a09e5	2.391272e-39
205	0x80044543	-3.92188e-40
206	0x3eb066ce	0.34453434
207	0x3e9ffa24	0.3124553
208	0x0016f772	2.109148e-39
209	0x3e8829a3	0.26594266
210	0x800b884d	-1.059086e-39
211	0x00096d33	8.65693e-40
212	0x3e984fcc	0.2974838
213	0x00026daa	2.23011e-40
214	0x000fed84	1.462737e-39
215	0x001561fb	1.963694e-39
216	0x800cb682	-1.167497e-39
217	0x3e85aeb4	0.2610985
218	0x80021a5a	-1.93124e-40
219	0x8005c8b5	-5.31178e-40
220	0x3e48cf00	0.19610214
221	0x0018194f	2.213131e-39
222	0x800a26ab	-9.32226e-40
223	0x8007dcaa	-7.22008e-40
224	0x801239f0	-1.673823e-39
225	0x00052030	4.70724e-40
226	0x000dfa4e	1.283654e-39
227	0x3e6e55dd	0.23274942
228	0x001ae4c4	2.469789e-39
229	0x00010a5a	9.5549e-41
230	0x800e8eed	-1.336969e-39
231	0x0006fe7f	6.42309e-40
232	0x3e96bd7f	0.2944145
233	0x80088660	-7.82889e-40
234	0x00186d4d	2.243262e-39
235	0x3ea010ec	0.3126291
236	0x80094ab9	-8.53325e-40
237	0x3ea9dfc5	0.33178535
238	0x8000d998	-7.8058e-41
239	0x001382f1	1.791847e-39
240	0x000ecf4b	1.36006e-39
241	0x3e800a93	0.25008067
242	0x3e9b62ff	0.30348966
243	0x801472b4	-1.877858e-39
244	0x80108241	-1.516094e-39
245	0x3e9bf805	0.3046266
246	0x800169d9	-1.29806e-40
247	0x8007f573	-7.30899e-40
248	0x3ea014f5	0.3126599
249	0x0002855d	2.31513e-40
250	0x0006e6fb	6.33873e-40
251	0x800e9889	-1.340416e-39
252	0x3e66523c	0.22492307
253	0x000ef185	1.372338e-39
254	0x3e864a9c	0.26228797
255	0x000a0ab7	9.22199e-40

net.1.0.bias f4 [128]
0	0x00160c85	2.024872e-39
1	0x3e29a1b9	0.16565599
2	0x80154230	-1.952289e-39
3	0x001a17cc	2.39626e-39
4	0x001c14ee	2.578902e-39
5	0x801190bf	-1.613129e-39
6	0x000079fb	4.3758e-41
7	0x000b0095	1.010399e-39
8	0x3dde966e	0.10868536
9	0x3e1a25fa	0.1505355
10	0x801a736a	-2.429126e-39
11	0x3dd93d24	0.10607365
12	0x00095e62	8.60378e-40
13	0x800d2f40	-1.210812e-39
14	0x3e0d2337	0.13782965
15	0x80259219	-3.450323e-39
16	0x3e268425	0.16261347
17	0x80126206	-1.688203e-39
18	0x3df5cf61	0.12002445
19	0x3e23ab32	0.15983275
20	0x3e27aba1	0.16374065
21	0x3e0ddc68	0.1385361
22	0x000b492e	1.036442e-39
23	0x0002a216	2.41816e-40
24	0x3dfeebe5	0.12447337
25	0x80007b6c	-4.4275e-41
26	0x00011c7b	1.02052e-40
27	0x00131100	1.750973e-39
28	0x3e0ea966	0.13931808
29	0x0011b381	1.625597e-39
30	0x8007327a	-6.60956e-40
31	0x00097838	8.69646e-40
32	0x8017d21e	-2.187592e-39
33	0x3e11d321	0.14240696
34	0x3db32908	0.087480605
35	0x000fb7ed	1.443513e-39
36	0x800f7c0f	-1.422036e-39
37	0x3dfbc886	0.12294106
38	0x3dfbc7c4	0.12293962
39	0x800a214a	-9.30297e-40
40	0x800e93d7	-1.338732e-39
41	0x800c427b	-1.125875e-39
42	0x8011f4a5	-1.648965e-39
43	0x800ab219	-9.82244e-40
44	0x800dd1df	-1.269149e-39
45	0x000f79ba	1.4212e-39
46	0x3e18cc20	0.14921618
47	0x3dec42b0	0.11536157
48	0x80127e22	-1.698287e-39
49	0x002356aa	3.245332e-39
50	0x801a404d	-2.41079e-39
51	0x0003fe79	3.66794e-40
52	0x801053cf	-1.499433e-39
53	0x8000ad9e	-6.2282e-41
54	0x8018c93a	-2.276238e-39
55	0x8006ba1a	-6.17774e-40
56	0x00026b16	2.22086e-40
57	0x000d6f5f	1.233814e-39
58	0x800778a8	-6.86132e-40
59	0x00121ddf	1.663755e-39
60	0x0003aba2	3.37077e-40
61	0x3dbb3aa2	0.09142043
62	0x80108d6d	-1.520102e-39
63	0x3dc6f67f	0.09714984
64	0x00008c01	5.0224e-41
65	0x80084e78	-7.62833e-40
66	0x3e12527e	0.14289281
67	0x00092dce	8.42951e-40
68	0x800f1bd4	-1.387515e-39
69	0x3e25dc77	0.16197382
70	0x801780a1	-2.15836e-39
71	0x00062ec5	5.67791e-40
72	0x80049839	-4.21949e-40
73	0x800af521	-1.00629e-39
74	0x800a9af5	-9.73943e-40
75	0x3dd7e4fa	0.10541721
76	0x80074ca7	-6.70346e-40
77	0x0009833d	8.73599e-40
78	0x80078a13	-6.9238e-40
79	0x8016b355	-2.084713e-39
80	0x000e5e89	1.31961e-39
81	0x3e10b13e	0.14130113
82	0x00016695	1.28635e-40
83	0x0019ea16	2.379862e-39
84	0x800b1773	-1.018602e-39
85	0x80075be7	-6.75817e-40
86	0x0000b781	6.5829e-41
87	0x3e168924	0.14700752
88	0x00041b53	3.77144e-40
89	0x80087e60	-7.80019e-40
90	0x3e08a56e	0.13344356
91	0x80172690	-2.12605e-39
92	0x0016dd74	2.099823e-39
93	0x0007a056	7.00366e-40
94	0x00104193	1.492892e-39
95	0x8003e667	-3.58159e-40
96	0x3e2bfca1	0.16795589
97	0x000ba2a4	1.068535e-39
98	0x3e04144e	0.1289837
99	0x3e23ab1d	0.15983243
100	0x3e0133a9	0.12617363
101	0x3e05d197	0.13068233
102	0x8010f984	-1.558877e-39
103	0x000ac956	9.9058e-40
104	0x000a3854	9.38562e-40
105	0x00150043	1.92864e-39
106	0x000404a2	3.69004e-40
107	0x80044c58	-3.94729e-40
108	0x80161d31	-2.030853e-39
109	0x80024f11	-2.12035e-40
110	0x3dfbc32d	0.12293086
111	0x3e0503e7	0.1298977
112	0x0013ac01	1.806578e-39
113	0x0005f0fc	5.45626e-40
114	0x80030f9a	-2.81103e-40
115	0x000c2ce4	1.11813e-39
116	0x3e265e68	0.1624695
117	0x0017c72b	2.183664e-39
118	0x00175a8c	2.144699e-39
119	0x3e16696c	0.14688653
120	0x3e18bb74	0.14915258
121	0x3dc14238	0.09436458
122	0x3e105440	0.14094639
123	0x00008dea	5.0909e-41
124	0x80054691	-4.84492e-40
125	0x800a9164	-9.70511e-40
126	0x3e2077db	0.15670721
127	0x0005217e	4.71192e-40

net.2.0.weight f4 [128, 128]
0	0x8004c87b	-4.39261e-40
1	0x3e8e1a9e	0.27754682
2	0x000d171b	1.20215e-39
3	0x00115b99	1.594062e-39
4	0x0007e50f	7.25019e-40
5	0x8008db59	-8.13371e-40
6	0x00060f69	5.56541e-40
7	0x0016bc7a	2.087994e-39
8	0x3e3b4c44	0.18290812
9	0x3e814925	0.25251117
10	0x8005b7a0	-5.2505e-40
11	0x3e36d5d9	0.17855014
12	0x0006beb9	6.19431e-40
13	0x00089eda	7.91669e-40
14	0x3e6cfb36	0.23142704
15	0x80159a49	-1.983893e-39
16	0x3e8b86f0	0.27251387
17	0x000af75f	1.007095e-39
18	0x3e4ea7d7	0.20181213
19	0x3e892bcd	0.2679123
20	0x3e8c7b5a	0.2743786
21	0x3e6e2ed7	0.23260055
22	0x000a7805	9.6141e-40
23	0x0002b59f	2.48824e-40
24	0x3e563da7	0.20921956
25	0x80033bb9	-2.96931e-40
26	0x8014f189	-1.923356e-39
27	0x800cdb73	-1.18075e-39
28	0x3e6f834c	0.2338993
29	0x80303b1f	-4.429312e-39
30	0x800db542	-1.258885e-39
31	0x0002887a	2.3263e-40
32	0x0006e4da	6.3311e-40
33	0x3e74c37e	0.239027
34	0x3e17028f	0.1474707
35	0x800a1f26	-9.29529e-40
36	0x000c4190	1.125545e-39
37	0x3e53a0e7	0.20666848
38	0x3e53a049	0.20666613
39	0x8003f114	-3.61989e-40
40	0x0005dabe	5.37647e-40
41	0x0009fc8a	9.17113e-40
42	0x800ec0dd	-1.354883e-39
43	0x001257f1	1.684586e-39
44	0x80183e96	-2.226504e-39
45	0x800c5004	-1.13073e-39
46	0x3e802a4c	0.2503227
47	0x3e46b32b	0.19404285
48	0x0010d487	1.545608e-39
49	0x8035f506	-4.955179e-39
50	0x00172c2a	2.12806e-39
51	0x0007129d	6.49526e-40
52	0x000987ab	8.75188e-40
53	0x801b9dda	-2.536185e-39
54	0x800dc6f2	-1.26523e-39
55	0x800cc75a	-1.17354e-39
56	0x801cbd67	-2.639339e-39
57	0x00131dea	1.755606e-39
58	0x80086e15	-7.74174e-40
59	0x8001bdb7	-1.59892e-40
60	0x0015a64d	1.988203e-39
61	0x3e1dc2fc	0.15406412
62	0x00190e6d	2.301062e-39
63	0x3e279297	0.16364513
64	0x801aaf8c	-2.450697e-39
65	0x000c87b6	1.15071e-39
66	0x3e7596df	0.23983334
67	0x8014f2c5	-1.923799e-39
68	0x800674be	-5.92892e-40
69	0x3e8afc33	0.27145538
70	0x800de085	-1.274404e-39
71	0x801642a9	-2.044294e-39
72	0x800b1c0c	-1.020252e-39
73	0x001772ed	2.153444e-39
74	0x000b7e7d	1.055566e-39
75	0x3e35b68f	0.17745422
76	0x801b5e54	-2.513397e-39
77	0x80092ec2	-8.43293e-40
78	0x0010afde	1.532457e-39
79	0x8009676d	-8.63622e-40
80	0x8010d26f	-1.544857e-39
81	0x3e72e240	0.2371912
82	0x8010faa1	-1.559277e-39
83	0x8012c419	-1.723386e-39
84	0x8007bcdf	-7.10603e-40
85	0x0006f7f6	6.39965e-40
86	0x8015747f	-1.970336e-39
87	0x3e7c949a	0.24666062
88	0x0013f3b8	1.832304e-39
89	0x801a5e00	-2.421444e-39
90	0x3e658505	0.22414024
91	0x80173094	-2.129643e-39
92	0x001351bc	1.774195e-39
93	0x8011cf08	-1.635472e-39
94	0x00019c7e	1.47974e-40
95	0x00148916	1.885887e-39
96	0x3e900d05	0.28134933
97	0x800a1690	-9.26449e-40
98	0x3e5ded1c	0.21672481
99	0x3e892bb9	0.2679117
100	0x3e592381	0.2120495
101	0x3e60d173	0.21954899
102	0x80136ede	-1.784646e-39
103	0x0012cf7f	1.727475e-39
104	0x000afdcc	1.0094e-39
105	0x00055851	4.9086e-40
106	0x0014ce1d	1.91065e-39
107	0x00086127	7.69536e-40
108	0x001cca90	2.64406e-39
109	0x000cdc7c	1.181121e-39
110	0x3e539c77	0.20665155
111	0x3e5f7b84	0.21824461
112	0x0008405a	7.57769e-40
113	0x800903e0	-8.2791e-40
114	0x000ffe1c	1.46869e-39
115	0x00292745	3.779343e-39
116	0x3e8b67bd	0.27227584
117	0x80183bdb	-2.225524e-39
118	0x80071d4a	-6.53355e-40
119	0x3e7c6001	0.24645998
120	0x3e801c94	0.25021803
121	0x3e22cdd8	0.15898836
122	0x3e7247de	0.23660228
123	0x801ada80	-2.466106e-39
124	0x800d0ed1	-1.199177e-39
125	0x8009d5a2	-9.03156e-40
126	0x3e868587	0.26273748
127	0x801995f6	-2.349683e-39
128	0x000f3614	1.396932e-39
129	0x3e9abf2e	0.30223984
130	0x00120ec8	1.658341e-39
131	0x0015c019	1.997457e-39
132	0x00091673	8.34573e-40
133	0x8006fdac	-6.42013e-40
134	0x800166e2	-1.28743e-40
135	0x0010af7f	1.532324e-39
136	0x3e4be140	0.19910145
137	0x3e8cc589	0.27494457
138	0x80081e3f	-7.45534e-40
139	0x3e4704de	0.1943545
140	0x800d43c2	-1.218168e-39
141	0x0008991b	7.89608e-40
142	0x3e810185	0.25196472
143	0x802832bd	-3.691621e-39
144	0x3e97f005	0.29675308
145	0x000a014b	9.18819e-40
146	0x3e60f7b8	0.21969497
147	0x3e955e56	0.29173535
148	0x3e98fa83	0.29878625
149	0x3e81a93e	0.25324434
150	0x000f5aea	1.410146e-39
151	0x80028078	-2.29757e-40
152	0x3e693b73	0.22776584
153	0x80042603	-3.80978e-40
154	0x000c7240	1.143011e-39
155	0x800252ee	-2.1342e-40
156	0x3e8262a9	0.25465897
157	0x801d1ad0	-2.672848e-39
158	0x8018f09b	-2.290365e-39
159	0x800e4105	-1.309022e-39
160	0x8001f48d	-1.79564e-40
161	0x3e853f16	0.26024693
162	0x3e245bea	0.16050687
163	0x800e70c8	-1.326155e-39
164	0x0001e32f	1.73334e-40
165	0x3e6662cf	0.2249863
166	0x3e66621c	0.22498363
167	0x800a9806	-9.7289e-40
168	0x8002e445	-2.65559e-40
169	0x000d3a3a	1.214749e-39
170	0x00171fe2	2.123654e-39
171	0x8004d830	-4.44895e-40
172	0x80173bf3	-2.133722e-39
173	0x800f71d3	-1.418365e-39
174	0x3e8b8d0f	0.27256057
175	0x3e584ccd	0.21123047
176	0x0013fa79	1.834727e-39
177	0x80249128	-3.35815e-39
178	0x001af2fc	2.474889e-39
179	0x80014bc5	-1.19016e-40
180	0x00087091	7.75065e-40
181	0x80117f72	-1.606922e-39
182	0x800dc31e	-1.263856e-39
183	0x800d1f62	-1.20512e-39
184	0x801b192d	-2.48859e-39
185	0x0016a34a	2.078958e-39
186	0x801139ca	-1.581934e-39
187	0x0002e9fb	2.67607e-40
188	0x0001a582	1.51209e-40
189	0x3e2bb5ff	0.16768645
190	0x001474df	1.878635e-39
191	0x3e36653a	0.17812052
192	0x801bc534	-2.550302e-39
193	0x0004ede0	4.52675e-40
194	0x3e85b255	0.2611262
195	0x80138c19	-1.795132e-39
196	0x80159c5e	-1.98464e-39
197	0x3e9758b7	0.29559872
198	0x000da1eb	1.251947e-39
199	0x800eaaec	-1.347012e-39
200	0x800ee962	-1.369419e-39
201	0x000b6998	1.04807e-39
202	0x0003d268	3.50986e-40
203	0x3e45cbed	0.19316073
204	0x801a5b4f	-2.420478e-39
205	0x800ad7f8	-9.9583e-40
206	0x00083d46	7.56665e-40
207	0x00020887	1.8673e-40
208	0x80072a3d	-6.58001e-40
209	0x3e8438dd	0.25824633
210	0x800d1a9c	-1.203407e-39
211	0x80027eab	-2.29111e-40
212	0x80012402	-1.04753e-40
213	0x0001a4a1	1.50893e-40
214	0x00001922	9.016e-42
215	0x3e8981c0	0.26856804
216	0x000f038c	1.378805e-39
217	0x80195a79	-2.328343e-39
218	0x3e79e198	0.24402463
219	0x801a1f1f	-2.398887e-39
220	0x000e6adc	1.324031e-39
221	0x800ac76e	-9.89897e-40
222	0x800035e0	-1.9327e-41
223	0x0002b84b	2.49783e-40
224	0x3e9cde92	0.30638558
225	0x8003ff32	-3.67053e-40
226	0x3e719b36	0.23594365
227	0x3e955e43	0.29173478
228	0x3e6c63d4	0.23084956
229	0x3e74c21b	0.2390217
230	0x801049f8	-1.495903e-39
231	0x0019c1ea	2.36545e-39
232	0x0005f344	5.46445e-40
233	0x000f62f2	1.413027e-39
234	0x001457df	1.868232e-39
235	0x000af99c	1.007898e-39
236	0x0015d8bd	2.006296e-39
237	0x00114dbc	1.589089e-39
238	0x3e665df6	0.22496781
239	0x3e734d6d	0.23760004
240	0x000ae600	1.000863e-39
241	0x800affe0	-1.010146e-39
242	0x00165010	2.049102e-39
243	0x00017538	1.33886e-40
244	0x3e97cdfc	0.2964934
245	0x801cf83c	-2.660444e-39
246	0x00009669	5.3957e-41
247	0x3e896516	0.26834935
248	0x3e8b7e01	0.2724457
249	0x3e31339f	0.17304848
250	0x3e83e4c1	0.25760463
251	0x800e8a69	-1.335349e-39
252	0x800f9375	-1.43043e-39
253	0x80076e12	-6.82334e-40
254	0x3e927ad1	0.28609326
255	0x801205c0	-1.655102e-39

net.2.0.bias f4 [128]
0	0x3c499c95	0.0123053985
1	0x3c5b8660	0.013398737
2	0x00042068	3.78967e-40
3	0x01631834	4.171068e-38
4	0x3c7b608b	0.015342842
5	0x3c8420be	0.016128894
6	0x3c643bb8	0.013930254
7	0x8009fb0f	-9.16582e-40
8	0x8011a78f	-1.621312e-39
9	0x80320920	-4.595048e-39
10	0x3c42f232	0.011898564
11	0x8019b3c5	-2.360377e-39
12	0x3c003cdb	0.007827009
13	0x8109ffa0	-2.5346328e-38
14	0x01ee5086	8.754294e-38
15	0x801c9abc	-2.626902e-39
16	0x3c59a381	0.013283611
17	0x2042de75	1.6506044e-19
18	0x81fe7e11	-9.348576e-38
19	0x817ea268	-4.6768953e-38
20	0x80125103	-1.6821e-39
21	0x0002f8ae	2.7288e-40
22	0xa519b1ce	-1.3330877e-16
23	0x00025ea3	2.1762e-40
24	0x32649150	1.3304387e-08
25	0x8012f169	-1.73964e-39
26	0x800e1748	-1.294049e-39
27	0x221d85b8	2.1348258e-18
28	0x01ad524c	6.3668254e-38
29	0x0046c7c9	6.500154e-39
30	0x800fbb20	-1.44466e-39
31	0x3c803a28	0.015652731
32	0x01bdb075	6.968084e-38
33	0x8000a981	-6.0807e-41
34	0x819a7c7a	-5.674928e-38
35	0x01d8f6d5	7.9700055e-38
36	0x3c5a9bd7	0.013342819
37	0x0016a5b7	2.079828e-39
38	0x3c468019	0.012115502
39	0x2f3bf547	1.7094691e-10
40	0x81ecdfa2	-8.7013606e-38
41	0xb2269d78	-9.698276e-09
42	0x01bf1737	7.019563e-38
43	0x000f0fcb	1.383198e-39
44	0x96238c14	-1.3211236e-25
45	0x01b25871	6.551378e-38
46	0x0003d9b5	3.53605e-40
47	0x002027d4	2.953024e-39
48	0x01e4d240	8.4055666e-38
49	0x018d4080	5.188777e-38
50	0x34f67fd8	4.591409e-07
51	0x80376df0	-5.09039e-39
52	0x3c6b2d54	0.014354069
53	0x3c783012	0.01514818
54	0x002624a2	3.50289e-39
55	0x8117cea4	-2.7882577e-38
56	0x3c741d48	0.014899559
57	0x0198f2b2	5.618423e-38
58	0x0002b78b	2.49514e-40
59	0x31c62ab9	5.7674154e-09
60	0x01b51922	6.6524963e-38
61	0x3c63a863	0.013895127
62	0x819af68c	-5.6924443e-38
63	0x8003ee3f	-3.60973e-40
64	0x801d0849	-2.666202e-39
65	0x2aaa38de	3.0237526e-13
66	0x3c6d65df	0.01448962
67	0x81f02820	-8.8219653e-38
68	0x3c5179e6	0.0127854105
69	0x81f8308c	-9.1170474e-38
70	0x3c71230d	0.014717829
71	0xa04f8dce	-1.7580501e-19
72	0x3c5f79e3	0.0136399
73	0xb59fc733	-1.1904398e-06
74	0x01441a0c	3.6018202e-38
75	0x3c81df6e	0.01585361
76	0x0ba9df70	6.5432624e-32
77	0x3c49cff7	0.012317649
78	0x3c82193d	0.015881175
79	0x3c599c61	0.013281913
80	0x821ae91c	-1.1381032e-37
81	0x810fd7e8	-2.6419857e-38
82	0x3c1b3db1	0.009475158
83	0xb255d621	-1.2446919e-08
84	0x3c83bc82	0.016081098
85	0x81e4f488	-8.410486e-38
86	0x35390d57	6.893728e-07
87	0x3c5a606d	0.013328654
88	0x801889fc	-2.253551e-39
89	0x3c3ad130	0.011402413
90	0x81d85ba4	-7.9477367e-38
91	0xa231daf2	-2.4103882e-18
92	0x01448310	3.6093547e-38
93	0x001428a6	1.851292e-39
94	0x3c78aefc	0.015178438
95	0x382668a3	3.9674935e-05
96	0x0198c610	5.612019e-38
97	0x3c86a0ce	0.0164341
98	0x801b5d56	-2.513041e-39
99	0xae217071	-3.670703e-11
100	0x3c37c83a	0.011217171
101	0x3c723bdb	0.0147847785
102	0x800c1978	-1.111162e-39
103	0x3c29d22c	0.01036505
104	0x802adf7a	-3.937259e-39
105	0x3c84914a	0.01618256
106	0x00074a3c	6.69479e-40
107	0x81647b70	-4.1965548e-38
108	0x3c236436	0.009972623
109	0x801982d2	-2.342817e-39
110	0x801c3d78	-2.593445e-39
111	0x81db93d6	-8.066003e-38
112	0x3c436efa	0.011928314
113	0x36b95d4c	5.524291e-06
114	0xb8547179	-5.065042e-05
115	0x817f2160	-4.6860048e-38
116	0x3c486d19	0.012233042
117	0x3c722990	0.014780417
118	0x3c6f6833	0.014612245
119	0x804b245e	-6.900708e-39
120	0x0021c2fe	3.100521e-39
121	0x000e17e5	1.294269e-39
122	0x81be9a58	-7.001645e-38
123	0x13ee476a	6.0150066e-27
124	0x3c70875f	0.0146807125
125	0x01d256e3	7.7266493e-38
126	0xa6878448	-9.403362e-16
127	0x018c7d3e	5.160759e-38

net.3.0.weight f4 [128, 128]
0	0xb69c644d	-4.660839e-06
1	0xb6968104	-4.4853678e-06
2	0x01dae168	8.0403995e-38
3	0x023ab5b6	1.371727e-37
4	0xb6cd5baf	-6.1201495e-06
5	0xb6f7b2f3	-7.382006e-06
6	0xb69dae58	-4.699261e-06
7	0x81a0ba00	-5.9041614e-38
8	0x009ad700	1.4219794e-38
9	0x823f2556	-1.4043179e-37
10	0xb6a5fe9a	-4.9470227e-06
11	0x01a1d600	5.9449134e-38
12	0xb754c1e6	-1.268133e-05
13	0x021aac28	1.136354e-37
14	0x81afe71c	-6.4616473e-38
15	0x0232c374	1.3133467e-37
16	0xb695ca64	-4.4641074e-06
17	0x986373ee	-2.9397592e-24
18	0x01e4ae20	8.400383e-38
19	0x0112fd28	2.6997596e-38
20	0x008d7320	1.2990104e-38
21	0x00d31948	1.9386359e-38
22	0x1fb57fc6	7.6867865e-20
23	0x01d82aaa	7.940709e-38
24	0xaf41a6cb	-1.7612505e-10
25	0x01262ab4	3.0520023e-38
26	0x826d99d5	-1.7456158e-37
27	0x1eff6e58	2.7044812e-20
28	0x01e8ef82	8.556702e-38
29	0x81af251a	-6.4338085e-38
30	0x80ef2490	-2.19618e-38
31	0xb6dcd20a	-6.5809627e-06
32	0x8161a220	-4.1442292e-38
33	0x815a0174	-4.004132e-38
34	0x0033a0a0	4.741232e-39
35	0x0280c26e	1.8919507e-37
36	0xb6961e86	-4.4739018e-06
37	0x00db88f0	2.0161098e-38
38	0xb6a05dbe	-4.7792846e-06
39	0x2946e8ca	4.4166744e-14
40	0x00e54760	2.1055933e-38
41	0xaa9c5a86	-2.777398e-13
42	0x807ffae8	-1.1753116e-38
43	0x82655e80	-1.6851383e-37
44	0x8e97ebe3	-3.7451525e-30
45	0x0216d15c	1.1080343e-37
46	0x017039a4	4.4122393e-38
47	0x825a6443	-1.6044884e-37
48	0x80d469e0	-1.9507106e-38
49	0x8251e9f1	-1.5422033e-37
50	0xadbde70b	-2.1589416e-11
51	0x819e3aec	-5.812458e-38
52	0xb6a7ccd4	-5.000833e-06
53	0xb6c48224	-5.8564056e-06
54	0x8193ba38	-5.426648e-38
55	0x81cb2f9e	-7.463875e-38
56	0xb6ba36ff	-5.5496344e-06
57	0x82111cff	-1.0661239e-37
58	0x814ec0f4	-3.7974661e-38
59	0x2d590a66	1.2337331e-11
60	0x819ff566	-5.8759505e-38
61	0xb69d0381	-4.6793725e-06
62	0x00304b90	4.43521e-39
63	0x000bbce8	1.077957e-39
64	0x01ba9eaa	6.855328e-38
65	0x2487a8ab	5.883265e-17
66	0xb6abd2ea	-5.1207508e-06
67	0x8187c0e0	-4.986793e-38
68	0xb69647b9	-4.478698e-06
69	0x80a40948	-1.5064351e-38
70	0xb6b36e25	-5.347438e-06
71	0x9b115d3d	-1.2024246e-22
72	0xb698faaa	-4.559134e-06
73	0x2fc0311d	3.4959494e-10
74	0x00472e58	6.536945e-39
75	0xb6e7b679	-6.905579e-06
76	0x05f464e1	2.2982707e-35
77	0xb69c2a6a	-4.6541e-06
78	0xb6e94213	-6.951633e-06
79	0xb695c84a	-4.4638628e-06
80	0x81631a54	-4.1712205e-38
81	0x81685b34	-4.2677105e-38
82	0xb7167af2	-8.969322e-06
83	0x2db0906c	2.007302e-11
84	0xb6f4d651	-7.2967164e-06
85	0x0182bed0	4.802826e-38
86	0xae0260c8	-2.9644537e-11
87	0xb6960884	-4.4713397e-06
88	0x01a79f90	6.157507e-38
89	0xb6b73482	-5.4599377e-06
90	0x81c0dcc2	-7.0846433e-38
91	0x1d13c314	1.9556141e-21
92	0x01c54c18	7.247556e-38
93	0x822a5cf5	-1.2516305e-37
94	0xb6c5d6b5	-5.8960527e-06
95	0x326cd50e	1.3785451e-08
96	0x020206f3	9.552886e-38
97	0xb705654b	-7.951002e-06
98	0x0205d400	9.832138e-38
99	0x2778e778	3.4542393e-15
100	0xb6bf27fc	-5.6968984e-06
101	0xb6b5db0f	-5.419722e-06
102	0x01cac80c	7.4490134e-38
103	0xb6edc27c	-7.0857914e-06
104	0x80753d90	-1.0766838e-38
105	0xb6faf42a	-7.479005e-06
106	0x818bb2bc	-5.1317007e-38
107	0x81b6aa36	-6.710048e-38
108	0xb7041273	-7.872109e-06
109	0x021a10fa	1.1319005e-37
110	0x81c8146e	-7.349771e-38
111	0x825082fb	-1.5319016e-37
112	0xb6a52757	-4.921963e-06
113	0xafc0bb83	-3.5057832e-10
114	0x33d1943a	9.759283e-08
115	0x0202ee48	9.619275e-38
116	0xb69dcd28	-4.702848e-06
117	0xb6b5b1e8	-5.4149314e-06
118	0xb6afc889	-5.238752e-06
119	0x81d434ac	-7.795208e-38
120	0x017119a4	4.4283105e-38
121	0x8203f868	-9.695649e-38
122	0x015b2510	4.0250538e-38
123	0x8faae298	-1.6850575e-29
124	0xb6b21f86	-5.308483e-06
125	0x02cf98a6	3.0503532e-37
126	0x217246f8	8.2086716e-19
127	0x801a4518	-2.412509e-39
128	0x2eafe5d7	7.9989064e-11
129	0x2e9f6fe2	7.250357e-11
130	0x01a6c78c	6.1265105e-38
131	0x01397b84	3.4067752e-38
132	0x2e757763	5.5812587e-11
133	0x2e41ced4	4.406682e-11
134	0x2e97378e	6.8765535e-11
135	0x8253174a	-1.5508515e-37
136	0x8182fb98	-4.811548e-38
137	0x0249eebc	1.4835661e-37
138	0x2eb5d861	8.269364e-11
139	0x01511160	3.8399703e-38
140	0x2e529c50	4.7887305e-11
141	0x001394c0	1.798236e-39
142	0x01cb0b3e	7.4586555e-38
143	0x01f0e348	8.848821e-38
144	0x2ea12cdb	7.3294e-11
145	0x11b38687	2.832413e-28
146	0x022a1301	1.2495081e-37
147	0x817e2c10	-4.6684045e-38
148	0x803ba180	-5.47623e-39
149	0x8296be66	-2.2149802e-37
150	0x9845afc4	-2.5550392e-24
151	0x823f8463	-1.4070457e-37
152	0x25339111	1.5574926e-16
153	0x823c3c38	-1.382934e-37
154	0x81e87be4	-8.5401115e-38
155	0x16175fcf	1.2227915e-25
156	0x0108c640	2.5121492e-38
157	0x01a47ed6	6.0426086e-38
158	0x020ddd3a	1.0422533e-37
159	0x2e638492	5.173157e-11
160	0x820f8702	-1.0544726e-37
161	0x821b46bc	-1.1407901e-37
162	0x82074284	-9.937323e-38
163	0x819abd28	-5.684209e-38
164	0x2ea04852	7.288804e-11
165	0x818acd70	-5.098798e-38
166	0x2eb2b649	8.126883e-11
167	0xa2465098	-2.687667e-18
168	0x80122128	-1.664933e-39
169	0x27ff6be0	7.0893676e-15
170	0x007657b0	1.0868045e-38
171	0x80514f30	-7.467082e-39
172	0x896207c8	-2.720742e-33
173	0x020c566d	1.0310379e-37
174	0x00354aa8	4.894063e-39
175	0x01db0b40	8.046404e-38
176	0x817481a0	-4.4908724e-38
177	0x8240022d	-1.4106557e-37
178	0x26367870	6.330716e-16
179	0x01a4e770	6.057618e-38
180	0x2e901b43	6.5532045e-11
181	0x2e7f69c0	5.8074212e-11
182	0x022e6bb5	1.2814411e-37
183	0x81ad0df8	-6.357021e-38
184	0x2e856ead	6.0678e-11
185	0x819be368	-5.726432e-38
186	0x8178e684	-4.5715793e-38
187	0x25049cda	1.1502318e-16
188	0x0154d198	3.9088627e-38
189	0x2e97c70d	6.9020435e-11
190	0x01994838	5.630695e-38
191	0x0199fe5c	5.656831e-38
192	0x81bb9c7a	-6.8917484e-38
193	0x9dbebd67	-5.048842e-21
194	0x2e8da64e	6.441479e-11
195	0x0143d91c	3.5971612e-38
196	0x2ea8ace6	7.6704684e-11
197	0x00423af0	6.082286e-39
198	0x2e893d5a	6.240937e-11
199	0x930247d0	-1.6443713e-27
200	0x2e9bc33e	7.083266e-11
201	0xa95be258	-4.882409e-14
202	0x01283128	3.0891995e-38
203	0x2e5648c2	4.872259e-11
204	0x815b17ac	-4.024093e-38
205	0x2eafb701	7.990587e-11
206	0x2e545cb0	4.8285542e-11
207	0x2ea13371	7.33057e-11
208	0x829e354a	-2.32466e-37
209	0x01c95ce2	7.396902e-38
210	0x2eb744ad	8.334076e-11
211	0x2789edd4	3.8282992e-15
212	0x2e45924c	4.4922552e-11
213	0x82339e60	-1.3196294e-37
214	0xa63666ea	-6.328341e-16
215	0x2ea07f00	7.298517e-11
216	0x0228eb0e	1.2410148e-37
217	0x2ebc5645	8.564575e-11
218	0x82449acd	-1.4444231e-37
219	0x94177af9	-7.647804e-27
220	0x01bb5c9c	6.882584e-38
221	0x0164172c	4.189361e-38
222	0x2e7ded6b	5.773641e-11
223	0x27d688d8	5.95453e-15
224	0x01960286	5.510492e-38
225	0x2e2785a1	3.809009e-11
226	0x819a9152	-5.677919e-38
227	0xa1c1d82d	-1.313541e-18
228	0x2ebe5ce5	8.656701e-11
229	0x2e87dee4	6.1786826e-11
230	0x012e4ef0	3.2015388e-38
231	0x2ec272ef	8.842515e-11
232	0x81912604	-5.331914e-38
233	0x2e3d78cf	4.3080924e-11
234	0x82cfaef8	-3.0516343e-37
235	0x021a8852	1.1353255e-37
236	0x2ebff779	8.7296344e-11
237	0x8193b058	-5.425231e-38
238	0x010c5450	2.577443e-38
239	0x81a7342c	-6.1420974e-38
240	0x2eb56c3a	8.250152e-11
241	0x270c2a91	1.9451978e-15
242	0x271d4a88	2.182853e-15
243	0x020816a3	9.998198e-38
244	0x2eb0f9c5	8.0479214e-11
245	0x2e87f600	6.1827876e-11
246	0x2e8b53ab	6.3358506e-11
247	0x8127a080	-3.078821e-38
248	0x022c2890	1.2648205e-37
249	0x02230b6c	1.1978627e-37
250	0x821e76f8	-1.1642149e-37
251	0x0547ab30	9.388377e-36
252	0x2e89fbba	6.274754e-11
253	0x820b2d79	-1.0225157e-37
254	0x98710348	-3.1150177e-24
255	0x82057755	-9.805543e-38

net.3.0.bias f4 [128]
0	0xb399ab04	-7.155725e-08
1	0x2c768bf1	3.5036386e-12
2	0xb1ed3c04	-6.904431e-09
3	0xb5397844	-6.909288e-07
4	0xb3999b1b	-7.152831e-08
5	0xb6ee48c4	-7.1014238e-06
6	0x3692e8ac	4.3782256e-06
7	0x359ccde5	1.1682829e-06
8	0xb30f8008	-3.3411226e-08
9	0xb4248a91	-1.53241e-07
10	0x370264eb	7.772101e-06
11	0x367524b6	3.6529214e-06
12	0xb562a6d0	-8.4434305e-07
13	0xaf5b988c	-1.997213e-10
14	0x3b6158df	0.0034385247
15	0x348095e8	2.395093e-07
16	0x383675fb	4.350206e-05
17	0x33ab0534	7.9637545e-08
18	0x3328b662	3.9281424e-08
19	0x34de04b8	4.1354156e-07
20	0xb662460d	-3.37174e-06
21	0xb17aadac	-3.647851e-09
22	0x35c34a7b	1.4550309e-06
23	0x3b331cb6	0.0027330345
24	0x35e107bf	1.6766061e-06
25	0xb0ad22cc	-1.2597297e-09
26	0x36f3f55a	7.270527e-06
27	0xb11e681e	-2.305121e-09
28	0xb697f924	-4.5291545e-06
29	0x36308dec	2.6308653e-06
30	0x3b19ab9b	0.0023448232
31	0xb1421dcb	-2.824765e-09
32	0x37100afb	8.585625e-06
33	0x36031a9e	1.9536014e-06
34	0xb33749b1	-4.267503e-08
35	0xb4e37d7e	-4.2373352e-07
36	0x2f2012c2	1.455858e-10
37	0x380fc976	3.4281482e-05
38	0x30c55e67	1.4360467e-09
39	0x333f47f4	4.4536094e-08
40	0xb1d5df5b	-6.2245085e-09
41	0xb58f6559	-1.0683826e-06
42	0x3b324d1c	0.0027206605
43	0x33c0529b	8.9557226e-08
44	0xb82d42dd	-4.1308685e-05
45	0x33d7c1f0	1.0046995e-07
46	0xb8c0469e	-9.168427e-05
47	0xb04ccfe6	-7.451021e-10
48	0xb2cc7fcb	-2.380684e-08
49	0x32aba2de	1.9981083e-08
50	0x371c8fb8	9.331787e-06
51	0xb3fbc142	-1.1723252e-07
52	0x32d2a66e	2.4522901e-08
53	0xb6413e40	-2.8795475e-06
54	0x310247d9	1.895833e-09
55	0x35be3f7e	1.4174582e-06
56	0xb59f73f1	-1.1880167e-06
57	0xb3933d22	-6.856341e-08
58	0xb948cbfa	-0.00019149474
59	0x3a507c6d	0.0007953111
60	0xb2a0b43a	-1.8708409e-08
61	0x3746f058	1.1857679e-05
62	0xb165cc30	-3.3439953e-09
63	0x3205c10c	7.785513e-09
64	0xb51cbfc2	-5.8393573e-07
65	0x35859570	9.952764e-07
66	0x31e85b80	6.762491e-09
67	0x3b8a2436	0.0042157425
68	0x33d70a13	1.001355e-07
69	0x3180fc18	3.75395e-09
70	0x350d74b5	5.2696424e-07
71	0xb06c6dac	-8.6012153e-10
72	0x380f4932	3.4162025e-05
73	0x3290c758	1.6854457e-08
74	0x30cf7d06	1.5096766e-09
75	0xb207a2ce	-7.895052e-09
76	0xad71fab8	-1.3754935e-11
77	0x31b7f93d	5.354336e-09
78	0x35508858	7.7684444e-07
79	0x348d6b86	2.634153e-07
80	0x359737c6	1.1266609e-06
81	0x2fcf0d3f	3.7662493e-10
82	0x33c0ccfc	8.977983e-08
83	0xb6b75006	-5.463141e-06
84	0xb4d5c6a0	-3.981886e-07
85	0x38bad2fe	8.9084715e-05
86	0x33f38ca6	1.1341153e-07
87	0xb31a72cd	-3.596033e-08
88	0x35db4a03	1.6338312e-06
89	0xb1841e54	-3.8451535e-09
90	0xb0443964	-7.138594e-10
91	0x3b63a65b	0.0034736607
92	0xb54d8b70	-7.657136e-07
93	0x32a29eb0	1.8931445e-08
94	0x38877522	6.459119e-05
95	0xb6bd59b7	-5.643083e-06
96	0x35a1803b	1.2032755e-06
97	0x32f09540	2.8007548e-08
98	0x37c038c3	2.2914615e-05
99	0xb4951910	-2.7771648e-07
100	0xb7eaed5d	-2.8005505e-05
101	0x37e5fd2c	2.741682e-05
102	0x34d22114	3.9139616e-07
103	0xb2b52f00	-2.1092546e-08
104	0x37074176	8.061868e-06
105	0x2b8e5f2c	1.0116122e-12
106	0xb57b339c	-9.357989e-07
107	0xb287b1a2	-1.5796846e-08
108	0xb1858ec3	-3.8870396e-09
109	0xb4255af2	-1.5399908e-07
110	0x3b6e7a73	0.0036388903
111	0x31ad8ce7	5.0509814e-09
112	0x29df36c6	9.912691e-14
113	0x37f80b6e	2.9569226e-05
114	0x363b703e	2.7930505e-06
115	0x329a9a25	1.7998056e-08
116	0xb6a1ff08	-4.8278634e-06
117	0x36a153cd	4.8079296e-06
118	0xb02bb5c0	-6.246772e-10
119	0x31109360	2.103853e-09
120	0xb71904e3	-9.120648e-06
121	0x30b2e825	1.3017184e-09
122	0xb73d40e8	-1.128039e-05
123	0xb3129354	-3.4127268e-08
124	0x33e20524	1.052488e-07
125	0xb22e16d8	-1.0133327e-08
126	0x3542a978	7.251724e-07
127	0x362130ae	2.4019205e-06

net.4.0.weight f4 [256, 128]
0	0x3642967d	2.8995848e-06
1	0x2d4d8c26	1.168402e-11
2	0x318378c9	3.8263335e-09
3	0xb7579836	-1.2850438e-05
4	0x37f5883d	2.9269717e-05
5	0xb5bb796f	-1.3967928e-06
6	0xb7ab0c41	-2.0390495e-05
7	0xb80d031b	-3.3619912e-05
8	0x35e90241	1.7360509e-06
9	0xb393e3cd	-6.8866576e-08
10	0xb7c161ea	-2.3052988e-05
11	0x36e70930	6.885406e-06
12	0xb7550e3d	-1.2699104e-05
13	0xb059e913	-7.927536e-10
14	0x3e73d1d7	0.23810516
15	0x34436bf3	1.8200062e-07
16	0xb96a7665	-0.00022360084
17	0xb44a57e8	-1.8844696e-07
18	0xb44c44d4	-1.902402e-07
19	0xb83ceaec	-4.504148e-05
20	0xb6ee8600	-7.1085524e-06
21	0xb2428420	-1.1322328e-08
22	0x3490377c	2.686246e-07
23	0x3e4287e9	0.18997158
24	0xb81462e4	-3.537805e-05
25	0x31bc49ae	5.4798965e-09
26	0xb96c959c	-0.00022562448
27	0xb1d54bd6	-6.2077374e-09
28	0x3672754a	3.6129081e-06
29	0xb6f73267	-7.3670412e-06
30	0x3e276975	0.16348822
31	0xafb01b49	-3.20336e-10
32	0xb76036c3	-1.3364191e-05
33	0xb899ba01	-7.3302544e-05
34	0xb335a3ab	-4.22912e-08
35	0x3440921e	1.793455e-07
36	0xaf2496ed	-1.4969333e-10
37	0x38045dc5	3.1558582e-05
38	0xaec0c0d4	-8.765402e-11
39	0xb2fc1f6c	-2.935095e-08
40	0x33793766	5.8025215e-08
41	0x338a27d4	6.4333705e-08
42	0x3e41aaa1	0.18912746
43	0xb62a1c77	-2.5348543e-06
44	0x38500ce6	4.9603077e-05
45	0xb75f35fd	-1.3304406e-05
46	0xb94fff0f	-0.00019836075
47	0xb2553088	-1.24092665e-08
48	0xb345a34c	-4.6016154e-08
49	0xb3b6395f	-8.485471e-08
50	0xb859938c	-5.1874245e-05
51	0xb5927650	-1.0912281e-06
52	0x34533400	1.9669824e-07
53	0xb6dbdf80	-6.5527274e-06
54	0xaf63fa27	-2.0734402e-10
55	0xb8390e87	-4.4120967e-05
56	0xb83c3743	-4.487416e-05
57	0xb4654a6f	-2.1354366e-07
58	0xb970f79f	-0.0002298043
59	0x3d6d48a2	0.057930596
60	0xaf735ed8	-2.2134417e-10
61	0xb92955bd	-0.00016149036
62	0xb2f62109	-2.8653192e-08
63	0xb2c39fc3	-2.2773639e-08
64	0x38d462eb	0.00010127373
65	0x35dcb33a	1.6443439e-06
66	0xb5f85122	-1.8501053e-06
67	0x3e950b45	0.2911016
68	0xb31a4ca3	-3.592562e-08
69	0xb2ab1bd4	-1.9919675e-08
70	0x356a9bae	8.7398337e-07
71	0xb2969432	-1.752969e-08
72	0xb90e5cbc	-0.00013576722
73	0x3197c7d6	4.417397e-09
74	0xb3623c62	-5.2674643e-08
75	0xb1c28605	-5.6613794e-09
76	0xad8c0b04	-1.592105e-11
77	0x30001e4b	4.660918e-10
78	0x37ef6971	2.854012e-05
79	0xb82dbddd	-4.1423238e-05
80	0xb55048ca	-7.759196e-07
81	0xb19120a6	-4.223767e-09
82	0xb4a0ea99	-2.9973015e-07
83	0xb7bcb7f1	-2.2497e-05
84	0xb6270bcc	-2.4891806e-06
85	0xb9647682	-0.00021787922
86	0xb5fff2c2	-1.9069632e-06
87	0x36fc2c0e	7.515314e-06
88	0xb7615277	-1.3430245e-05
89	0xb2e10bd4	-2.6198826e-08
90	0xb371a200	-5.6259523e-08
91	0x3e764644	0.24050242
92	0x382a4358	4.0593877e-05
93	0xb3238557	-3.8072667e-08
94	0xb8ad016f	-8.24955e-05
95	0x3a0a2fda	0.00052714127
96	0xb4e7f6ec	-4.3206762e-07
97	0xb68e51cf	-4.2414536e-06
98	0x36b53db0	5.4014017e-06
99	0xb67ae2ff	-3.7385032e-06
100	0xba70193a	-0.00091590325
101	0xb7fcbb90	-3.0128082e-05
102	0x363a99e1	2.780573e-06
103	0xb43ef464	-1.7784038e-07
104	0x37eb045f	2.8016218e-05
105	0xae24e861	-3.7495677e-11
106	0xb7881fe6	-1.6227317e-05
107	0xb692b2fc	-4.3719756e-06
108	0x33808848	5.985254e-08
109	0xba6893ba	-0.00088721106
110	0x3e80e7a9	0.25176743
111	0xb16e495a	-3.4675254e-09
112	0xab8ca392	-9.992998e-13
113	0xb8440a6e	-4.6739755e-05
114	0xb6813070	-3.8501385e-06
115	0x322dbb76	1.0112549e-08
116	0x373dc7d9	1.13118085e-05
117	0xb96ff24d	-0.0002288308
118	0x310cc6ec	2.0485755e-09
119	0xb17c579c	-3.6720627e-09
120	0xb851fcca	-5.006491e-05
121	0x31bc4dd4	5.480368e-09
122	0xb859c96c	-5.192442e-05
123	0xb3c485a7	-9.1512725e-08
124	0x360ae33e	2.0695875e-06
125	0xb57c96f3	-9.4096976e-07
126	0xb44dd03d	-1.916787e-07
127	0x378394ae	1.5685651e-05
128	0xb54a0906	-7.5263995e-07
129	0xae1caeb6	-3.5625468e-11
130	0x32503c48	1.21209e-08
131	0xb81f5c2e	-3.7994403e-05
132	0xb582482d	-9.706761e-07
133	0xb6a7a69c	-4.9963837e-06
134	0xb5bc57c0	-1.403263e-06
135	0x38068195	3.2068772e-05
136	0x33f80347	1.1548996e-07
137	0xb60ef4cd	-2.1302142e-06
138	0xb8510ba8	-4.984034e-05
139	0x378dbd78	1.6896738e-05
140	0xb6d2deb2	-6.284413e-06
141	0xafefd7b1	-4.3627105e-10
142	0x3e73d2e7	0.23810922
143	0x35858991	9.949309e-07
144	0xb91d4faa	-0.00015002364
145	0xb48c8f64	-2.6181363e-07
146	0x35e5a135	1.7108747e-06
147	0x3886f7cd	6.4357744e-05
148	0x376c7248	1.4093304e-05
149	0xb313d42a	-3.4419067e-08
150	0xb836e8e0	-4.3609063e-05
151	0x3e428e6e	0.18999645
152	0xb8e31e25	-0.00010829818
153	0x312e584d	2.5370526e-09
154	0xb960164e	-0.00021370614
155	0xb328bc68	-3.9286903e-08
156	0x37b92fc1	2.2075956e-05
157	0xb7a59b90	-1.9741972e-05
158	0x3e2772db	0.16352408
159	0xafe4aac4	-4.1594295e-10
160	0xb7c2d6eb	-2.3226681e-05
161	0xb82a83e1	-4.065398e-05
162	0xb381c158	-6.0421996e-08
163	0xb5422a37	-7.233206e-07
164	0x2f911504	2.639028e-10
165	0x390ff223	0.00013727746
166	0xb0a29642	-1.1829757e-09
167	0xb0eebe01	-1.7370781e-09
168	0x3515c355	5.579107e-07
169	0xb4a590b2	-3.0838925e-07
170	0x3e41b15f	0.18915318
171	0xb5185365	-5.674577e-07
172	0x3a6b8a82	0.0008985178
173	0x36984531	4.538008e-06
174	0xb8992990	-7.30335e-05
175	0xb1b042b9	-5.1298596e-09
176	0xb2f11e3c	-2.8069842e-08
177	0x307ae7e8	9.127903e-10
178	0xb7b4c414	-2.1548978e-05
179	0x355f0203	8.30769e-07
180	0xb5aa1138	-1.2670998e-06
181	0xb77d07b6	-1.50817705e-05
182	0x31839542	3.8295704e-09
183	0xb8c217c3	-9.255067e-05
184	0xb7fd0bac	-3.0165385e-05
185	0xb67c808c	-3.762575e-06
186	0xb8fea410	-0.00012142223
187	0x3d6d8c25	0.05799498
188	0xb1a2123f	-4.716895e-09
189	0xba283647	-0.00064167794
190	0xb3840009	-6.1467354e-08
191	0x338acea4	6.4637135e-08
192	0x380a64e8	3.299574e-05
193	0x3612c1f6	2.1868595e-06
194	0xb69b0a10	-4.6205314e-06
195	0x3e951213	0.29115352
196	0xb487052c	-2.5149473e-07
197	0xb138bddb	-2.6883444e-09
198	0xb73b37fe	-1.1159105e-05
199	0xb07c0146	-9.1678876e-10
200	0xb6fe2aec	-7.5747867e-06
201	0x31ea5812	6.8203088e-09
202	0x320b4e14	8.108618e-09
203	0xb2aa697d	-1.9838575e-08
204	0xaecd8628	-9.3461516e-11
205	0x30e894c7	1.6922507e-09
206	0x340295a6	1.2161635e-07
207	0x36e50d3e	6.8262734e-06
208	0xb6ca7b3c	-6.0344155e-06
209	0xb0aee2af	-1.2724594e-09
210	0x34366692	1.6987386e-07
211	0x3895322f	7.114221e-05
212	0xb68cd9ee	-4.1976955e-06
213	0x385e8518	5.3052878e-05
214	0xb512782a	-5.45641e-07
215	0xb38239c9	-6.064108e-08
216	0x37c3eef7	2.3357088e-05
217	0xb30f3e16	-3.335125e-08
218	0x32ab0cc4	1.9912825e-08
219	0x3e7646be	0.24050424
220	0x37435cdd	1.1644527e-05
221	0xb380c6b4	-5.9966084e-08
222	0xba1bef90	-0.00059484784
223	0x38a04443	7.642109e-05
224	0xb7a1396d	-1.9219437e-05
225	0xb5086af3	-5.081958e-07
226	0x39fe083e	0.00048452796
227	0x357574c6	9.143954e-07
228	0x3b1d092e	0.002396177
229	0xb960b22d	-0.0002142868
230	0xb55d8c64	-8.253321e-07
231	0x3258bf40	1.261634e-08
232	0x37e0dd8b	2.6806045e-05
233	0x2d07a96c	7.711481e-12
234	0x37df794b	2.6640153e-05
235	0xb3de0a82	-1.0339592e-07
236	0x33cf6755	9.6579846e-08
237	0x3953d173	0.00020200554
238	0x3e80e94e	0.25177997
239	0x31466523	2.8870282e-09
240	0xab789e9e	-8.8327425e-13
241	0xb7d48aba	-2.5336969e-05
242	0xb722bd1e	-9.699985e-06
243	0x32dc990f	2.5680974e-08
244	0xb76b6ce5	-1.40324455e-05
245	0xb97e8cb2	-0.0002427574
246	0x3070ad81	8.7558055e-10
247	0xb1901f32	-4.194498e-09
248	0x393dac51	0.00018088637
249	0x31bf40dd	5.5662057e-09
250	0x3988191d	0.00025958652
251	0x340bb19a	1.3009995e-07
252	0x36a8f954	5.035816e-06
253	0x33a401b6	7.637156e-08
254	0xb59e35bc	-1.1787556e-06
255	0xb902b77f	-0.00012466124
