swarm/minimax/model_0.25_relaxation/Q-700000.pth (torch, 338387 bytes, 10 tensors)

net.0.0.weight f4 [128, 8]
0	0xbadaef71	-0.0016703439
1	0xbb81b922	-0.003958837
2	0xbacbee74	-0.0015558735
3	0xbb2ee187	-0.0026684718
4	0xbb480c73	-0.0030524998
5	0xbb4f966f	-0.0031675359
6	0xba572073	-0.00082064344
7	0xbb3a4236	-0.0028420812
8	0x804908eb	-6.70719e-39
9	0x803bf460	-5.50596e-39
10	0x8033b689	-4.749092e-39
11	0x8034f26c	-4.86241e-39
12	0x800164a5	-1.2794e-40
13	0x800b6031	-1.044697e-39
14	0x803cf186	-5.596772e-39
15	0x803aca94	-5.39913e-39
16	0xbaf84731	-0.0018942115
17	0xbaf18a3e	-0.001842804
18	0xbabc4c12	-0.0014365932
19	0xbae82545	-0.0017711302
20	0xbae305aa	-0.0017320414
21	0xbae416e8	-0.0017401846
22	0xbaee3ce7	-0.0018176109
23	0xbad562d1	-0.001628006
24	0x800ddef2	-1.273839e-39
25	0x800d0384	-1.195123e-39
26	0x800db9e2	-1.260544e-39
27	0x800e7121	-1.32628e-39
28	0x800b9d2c	-1.066573e-39
29	0x800bbb0d	-1.077292e-39
30	0x800cdc05	-1.180954e-39
31	0x800bf4d6	-1.098021e-39
32	0x02168758	1.1059101e-37
33	0x8d4f208e	-6.3825986e-31
34	0x0001c05c	1.60841e-40
35	0x80006abd	-3.829e-41
36	0x8612b7b9	-2.7594526e-35
37	0x00045cc6	4.00623e-40
38	0x0005efc2	5.45186e-40
39	0x00032b94	2.9114e-40
40	0x8005f36a	-5.46498e-40
41	0x8006dc71	-6.30092e-40
42	0x8007b396	-7.07272e-40
43	0x8006baf1	-6.18075e-40
44	0x800616a9	-5.59142e-40
45	0x8006b84f	-6.1713e-40
46	0x80073697	-6.62432e-40
47	0x80076957	-6.80637e-40
48	0xbb1e618d	-0.0024167032
49	0xbb05db0b	-0.002042475
50	0x39021564	0.00012405735
51	0xbb4e81ec	-0.0031510545
52	0xbaaaddd1	-0.0013036077
53	0xba98fefb	-0.001167267
54	0xbb58abdb	-0.0033061418
55	0xbad60b8b	-0.0016330344
56	0x8002c8fa	-2.55768e-40
57	0x8002d3aa	-2.59602e-40
58	0x80026bb6	-2.2231e-40
59	0x8003dbd6	-3.54369e-40
60	0x80026fa5	-2.23722e-40
61	0x800271f7	-2.24554e-40
62	0x8002a78e	-2.43778e-40
63	0x8004f5a9	-4.55468e-40
64	0x80033047	-2.92825e-40
65	0x8004ac10	-4.29066e-40
66	0x8000b563	-6.5069e-41
67	0x0000da3d	7.8289e-41
68	0x0001ecbd	1.76761e-40
69	0x8001abfb	-1.5353e-40
70	0x00011750	1.00198e-40
71	0x8000f043	-8.619e-41
72	0x8010052c	-1.471223e-39
73	0x80028b01	-2.33536e-40
74	0x0000b656	6.541e-41
75	0x0003453c	3.00343e-40
76	0x000fa7c5	1.437717e-39
77	0x0004475a	3.92938e-40
78	0x0005a704	5.19091e-40
79	0x00006dea	3.943e-41
80	0xbb7978a3	-0.003806629
81	0xbb7fbdde	-0.0039023082
82	0xbb7e9e7a	-0.0038851784
83	0xbb562466	-0.0032675504
84	0xbb76da56	-0.003766676
85	0xbb7b23b5	-0.0038320844
86	0xbb796ae2	-0.0038058092
87	0xbb6749f3	-0.003529188
88	0x803fb253	-5.849607e-39
89	0x80351bec	-4.877298e-39
90	0x800c5ae1	-1.134627e-39
91	0x8028eda9	-3.758676e-39
92	0x8048ce16	-6.686085e-39
93	0x801f8c75	-2.897287e-39
94	0x80289fc8	-3.730739e-39
95	0x80442997	-6.259733e-39
96	0xbb3a7309	-0.0028449914
97	0xbaa4e8b6	-0.001258156
98	0xbb498961	-0.003075205
99	0xbb3fd726	-0.0029272526
100	0x3b268db2	0.0025414047
101	0xbb46a95d	-0.003031335
102	0xbb491842	-0.0030684625
103	0xbb38c6c5	-0.0028194648
104	0xbaed78b1	-0.0018117634
105	0xbb02f68c	-0.001998338
106	0xbb24da07	-0.0025154368
107	0x397c9bb4	0.00024090597
108	0xbb17e9f6	-0.0023180223
109	0xbad10029	-0.0015945482
110	0xb9ad5c8a	-0.00033066078
111	0xbafd9bad	-0.0019348763
112	0x8002bcaa	-2.51351e-40
113	0x80034920	-3.01739e-40
114	0x8003d0f2	-3.50462e-40
115	0x8003d252	-3.50955e-40
116	0x80031beb	-2.85522e-40
117	0x80074a84	-6.6958e-40
118	0x80040386	-3.68606e-40
119	0x8002e857	-2.67019e-40
120	0xbafc5aa6	-0.001925309
121	0xbb648668	-0.0034870151
122	0xbb6ce2ae	-0.0036145854
123	0xbb175b6d	-0.0023095265
124	0xbb58a2f2	-0.0033056107
125	0xbb6e06f4	-0.0036320062
126	0xbb16f7d2	-0.0023035896
127	0xbb06d062	-0.0020570983
128	0x80023c77	-2.05362e-40
129	0x00010e94	9.7065e-41
130	0x0000a919	6.0661e-41
131	0x800082ee	-4.6969e-41
132	0x80007d7f	-4.502e-41
133	0x8001fc05	-1.82243e-40
134	0x00036de5	3.14929e-40
135	0x80010110	-9.2217e-41
136	0x8026c58f	-3.56062e-39
137	0x8024d2e4	-3.381731e-39
138	0x802add31	-3.93644e-39
139	0x8029794d	-3.80877e-39
140	0x8026e434	-3.571613e-39
141	0x80246936	-3.34382e-39
142	0x002953b7	3.795287e-39
143	0x8027fea3	-3.672931e-39
144	0xb58bcc42	-1.0415754e-06
145	0xa993d0de	-6.564344e-14
146	0xa7c03a02	-5.3353597e-15
147	0xadb6f66e	-2.0800441e-11
148	0xb1703b9b	-3.4958478e-09
149	0xac8ab1a4	-3.941918e-12
150	0xae18f606	-3.477931e-11
151	0xb137274a	-2.6652338e-09
152	0xbac6231f	-0.0015116668
153	0xbac7dab4	-0.0015247674
154	0xbac8c52a	-0.0015317549
155	0xbac5a756	-0.0015079777
156	0xbac26e6c	-0.0014833934
157	0xbac8125c	-0.0015264261
158	0xbacacf40	-0.0015473142
159	0xbac76bc5	-0.0015214613
160	0xbb1eb640	-0.0024217516
161	0xbb280d70	-0.0025642775
162	0xbb276787	-0.0025543885
163	0xbb219cb6	-0.0024660057
164	0xbb23a918	-0.0024972614
165	0xbb25082a	-0.0025181868
166	0xbb263c24	-0.0025365436
167	0xbb22943b	-0.002480759
168	0xb79d9277	-1.8784061e-05
169	0xb6a80733	-5.0076283e-06
170	0xb6923e22	-4.3583723e-06
171	0xb7961df8	-1.7895349e-05
172	0xb7640d8d	-1.3593014e-05
173	0xb774a511	-1.4581966e-05
174	0xb69f2abc	-4.743544e-06
175	0xb71da33c	-9.395935e-06
176	0xb8a09cab	-7.658576e-05
177	0xb9524ef8	-0.00020056579
178	0xbad01012	-0.001587393
179	0xbb0a092c	-0.0021062596
180	0xba968761	-0.0011484438
181	0xba6e186c	-0.00090826186
182	0xba61e43f	-0.000861708
183	0xba8c9f51	-0.0010728632
184	0x333fe11b	4.4675385e-08
185	0xb993bcfb	-0.00028178826
186	0xb499256a	-2.8525693e-07
187	0xb2fbfc5a	-2.9335002e-08
188	0xb6a29a70	-4.845955e-06
189	0xb8bde3e7	-9.0546724e-05
190	0x33d8dc9b	1.0098412e-07
191	0xb46c6dd3	-2.2019167e-07
192	0x800dba80	-1.260765e-39
193	0x800c88d9	-1.151118e-39
194	0x000329de	2.90526e-40
195	0x8008951a	-7.88172e-40
196	0x80090227	-8.27292e-40
197	0x800a4201	-9.42033e-40
198	0x0002ab88	2.45205e-40
199	0x800b1d5f	-1.020727e-39
200	0x0003c06c	3.44534e-40
201	0x0005a108	5.16945e-40
202	0x0001e336	1.73343e-40
203	0x0001f56a	1.79873e-40
204	0x80030166	-2.76008e-40
205	0x00027af1	2.27774e-40
206	0x00038ccc	3.26015e-40
207	0x00027191	2.24411e-40
208	0xbf1fb56f	-0.6238622
209	0xbf11ccbf	-0.5695304
210	0x3db02975	0.08601657
211	0x3f2b9a45	0.6703227
212	0x3ed00bcb	0.40633997
213	0x3e9b88b3	0.3037773
214	0xbe4587a3	-0.19290023
215	0xbf3b9112	-0.73268235
216	0xb920c894	-0.0001533351
217	0xba715b00	-0.00092069805
218	0xbada3f10	-0.0016650874
219	0xba2d94e1	-0.0006621611
220	0xba585457	-0.0008252314
221	0xbaf41ae5	-0.0018623738
222	0x3983f9e7	0.0002517246
223	0xb9b7aed1	-0.00035034728
224	0xbad375dc	-0.0016133147
225	0xbaf965d4	-0.001902754
226	0xbb00dc5b	-0.0019662592
227	0xbad76a49	-0.0016434874
228	0xbaef300c	-0.0018248572
229	0xbaf9d0f6	-0.0019059468
230	0xbae70008	-0.0017623911
231	0xbadccab5	-0.0016845079
232	0x8004787d	-4.10565e-40
233	0x001192a9	1.613815e-39
234	0x8004fc82	-4.57925e-40
235	0x8005ece9	-5.44165e-40
236	0x8005c810	-5.30946e-40
237	0x8013c74c	-1.816369e-39
238	0x8006699b	-5.88897e-40
239	0x800515da	-4.67016e-40
240	0xbb4a3861	-0.0030856358
241	0xbb4dce5f	-0.0031403524
242	0xbb6d5694	-0.0036214935
243	0xbb469275	-0.0030299698
244	0xbb41c1f0	-0.0029565059
245	0xbb4d2517	-0.0031302625
246	0xbb632488	-0.0034659225
247	0xbb53b139	-0.0032301678
248	0x8005cb2c	-5.32062e-40
249	0x80119d1f	-1.617568e-39
250	0x8006745b	-5.92753e-40
251	0x80066621	-5.8765e-40
252	0x8005ea64	-5.43261e-40
253	0x80117425	-1.602868e-39
254	0x8006476b	-5.76633e-40
255	0x8005d295	-5.3472e-40

net.0.0.bias f4 [128]
0	0xbb22bb6a	-0.0024830946
1	0x0010d905	1.54722e-39
2	0xbae8bf9b	-0.0017757298
3	0x800e788f	-1.328945e-39
4	0xae3379b3	-4.080798e-11
5	0x80017348	-1.3319e-40
6	0xbb24f669	-0.0025171286
7	0x8005842b	-5.0659e-40
8	0x982baf6a	-2.2189793e-24
9	0x9d416971	-2.559785e-21
10	0xbb7d2fb1	-0.0038633163
11	0x00275b0f	3.61425e-39
12	0xbb4c9c27	-0.0031221004
13	0xbb00c39e	-0.0019647847
14	0x8005fa82	-5.49043e-40
15	0xbb3cd8fd	-0.0028815859
16	0xa5b33f08	-3.1094262e-16
17	0x000142f2	1.15851e-40
18	0xb884c4c9	-6.3309046e-05
19	0xbb2dfa94	-0.0026547061
20	0xbb366989	-0.00278339
21	0xba88934b	-0.0010419873
22	0xba8ad5a9	-0.001059224
23	0xba1b18ea	-0.0005916493
24	0x8010dae1	-1.547887e-39
25	0x9554dc7f	-4.2987e-26
26	0xbd7c9166	-0.0616621
27	0xba1ab8db	-0.00059021794
28	0xbb34ed70	-0.0027607344
29	0x000062b4	3.5408e-41
30	0xbb53812b	-0.0032273035
31	0x8000a3ec	-5.8804e-41
32	0xbb134750	-0.0022472925
33	0xbb0066ed	-0.0019592599
34	0x9fe189d1	-9.5519205e-20
35	0x8005531e	-4.88994e-40
36	0x80003c96	-2.1734e-41
37	0x8005a315	-5.1768e-40
38	0x80244a1d	-3.332665e-39
39	0xbb0c291a	-0.0021386803
40	0x800673c3	-5.9254e-40
41	0xba158bb8	-0.00057047186
42	0x000cf2e2	1.189156e-39
43	0xbb2859c8	-0.002568828
44	0x8018c7b3	-2.27569e-39
45	0xbb392c5b	-0.0028255198
46	0xbae36e31	-0.0017351565
47	0xbb3cd8be	-0.0028815712
48	0x3db71bf3	0.08940878
49	0x800615e7	-5.5887e-40
50	0xb6d8e1ff	-6.463611e-06
51	0xbad62c14	-0.0016340041
52	0x801cb703	-2.637046e-39
53	0xbb4b88a0	-0.0031056777
54	0x8005df81	-5.39356e-40
55	0xbb725ee3	-0.0036982826
56	0xb9b54475	-0.00034574015
57	0x8019cc2f	-2.369135e-39
58	0x3e006855	0.125398
59	0x800d8536	-1.241649e-39
60	0x8008c8b2	-8.0668e-40
61	0xba0b1ade	-0.0005306433
62	0x8008d318	-8.1041e-40
63	0x801e828b	-2.801895e-39
64	0xbab1c09f	-0.0013561434
65	0x8010d5b3	-1.546029e-39
66	0xbb528f70	-0.0032128952
67	0xa6aeeba5	-1.2137547e-15
68	0xbae16eb7	-0.0017199133
69	0xba9ae334	-0.0011816979
70	0x000198b2	1.46612e-40
71	0x80139591	-1.798529e-39
72	0x800386c4	-3.23851e-40
73	0xbb261025	-0.0025339213
74	0x3c2d7c75	0.010588755
75	0x801a4702	-2.413196e-39
76	0x3c81c412	0.015840564
77	0xbb010e95	-0.001969253
78	0x8012d1f4	-1.728356e-39
79	0x000761e7	6.77969e-40
80	0xb919eb76	-0.00014678933
81	0xb8b45992	-8.5997526e-05
82	0xbb708a29	-0.0036703444
83	0x8006ff27	-6.42544e-40
84	0xba3e37dd	-0.0007256249
85	0xb9c04db3	-0.00036678984
86	0xbb4ac846	-0.0030942126
87	0xbb4429fe	-0.0029932256
88	0x8008dff0	-8.15018e-40
89	0xba8167eb	-0.0009872889
90	0x000d0db1	1.198773e-39
91	0xb3248618	-3.8306183e-08
92	0x80104b2e	-1.496337e-39
93	0x8001f1f9	-1.78639e-40
94	0xba99a8e5	-0.0011723308
95	0xbb68f740	-0.0035547763
96	0xbb503f2f	-0.0031775942
97	0xb7309d31	-1.05270165e-05
98	0x8f3e8fc5	-9.395412e-30
99	0xbb5213fd	-0.003205537
100	0xbb091ffc	-0.0020923605
101	0x0013fcc9	1.835557e-39
102	0xbb4c9638	-0.0031217467
103	0xbb47727c	-0.0030433228
104	0x801bea43	-2.563596e-39
105	0x800d5696	-1.224923e-39
106	0xa6db9370	-1.5236141e-15
107	0xb1a74191	-4.8677937e-09
108	0xb98e4abe	-0.00027140038
109	0xb8195f41	-3.6566755e-05
110	0xbb4604e7	-0.0030215324
111	0x80034e6a	-3.03636e-40
112	0xba1f3ace	-0.0006074131
113	0xbb284738	-0.0025677215
114	0xa811296e	-8.0581006e-15
115	0x00193726	2.315671e-39
116	0xbb3476d5	-0.002753665
117	0x801a0361	-2.388935e-39
118	0xbaaa56f9	-0.001299589
119	0xbab17af7	-0.0013540675
120	0x800d7524	-1.235884e-39
121	0x80019898	-1.46576e-40
122	0x0012cb16	1.725892e-39
123	0x800811bb	-7.41044e-40
124	0x3e09b516	0.13447985
125	0xbb3744e4	-0.0027964646
126	0xb1da593f	-6.354781e-09
127	0xbb850bf9	-0.004060265

net.1.0.weight f4 [128, 128]
0	0x3a98bbf2	0.0011652692
1	0x802d2e77	-4.149266e-39
2	0xbb4f2c65	-0.0031612155
3	0x0006bfe6	6.19853e-40
4	0x8006323f	-5.69038e-40
5	0x00064f4d	5.79461e-40
6	0xb9614aac	-0.0002148549
7	0x8002996e	-2.38711e-40
8	0x00010ded	9.6831e-41
9	0x80082c82	-7.5065e-40
10	0x3b5e68e2	0.0033937027
11	0x026866dd	1.7074188e-37
12	0xa89b8f3a	-1.7270572e-14
13	0xbae8d5ff	-0.0017763971
14	0x00036c51	3.14363e-40
15	0xbaca04e9	-0.001541284
16	0x000abbfa	9.85788e-40
17	0x0000d60a	7.6783e-41
18	0xa8b8c959	-2.0515424e-14
19	0x0000c21b	6.9632e-41
20	0x3b092bf8	0.0020930748
21	0x2c0e7a79	2.02474e-12
22	0xb9d642dd	-0.00040867078
23	0xb428eca9	-1.5732316e-07
24	0x0001aba6	1.53411e-40
25	0x0002ac4e	2.45482e-40
26	0xbf17efa7	-0.59350055
27	0x3b311888	0.0027022678
28	0xbb006109	-0.0019589087
29	0x0006b2af	6.15113e-40
30	0x3b5a4b44	0.0033309022
31	0x000587b5	5.0786e-40
32	0x3b15d214	0.0022860812
33	0x3ad24860	0.0016043298
34	0x0013051f	1.746712e-39
35	0x80019160	-1.43986e-40
36	0x0008c3be	8.04903e-40
37	0x01db29c8	8.050785e-38
38	0x8016ef88	-2.106309e-39
39	0x3aa9f0ea	0.0012965475
40	0x00029e2d	2.40414e-40
41	0x3a24cfbf	0.000628706
42	0x8170279c	-4.4109456e-38
43	0xbae8f7f8	-0.0017774096
44	0x80006651	-3.6704e-41
45	0xba2eecfc	-0.00066728867
46	0xbacb62fa	-0.0015517168
47	0x3a6e5bfa	0.0009092685
48	0xc02eb8dc	-2.730033
49	0x8001e172	-1.7271e-40
50	0x00021646	1.91661e-40
51	0x80012fd7	-1.08997e-40
52	0x0016cd66	2.094064e-39
53	0x3361d704	5.258245e-08
54	0x800513cd	-4.6628e-40
55	0x3b6cf39e	0.003615595
56	0x3464fd7f	2.1326376e-07
57	0x801aec85	-2.47257e-39
58	0xbfd68fe1	-1.6762658
59	0x800e45fe	-1.310805e-39
60	0x0000615f	3.493e-41
61	0x309e412a	1.1514534e-09
62	0x80041afa	-3.7702e-40
63	0x8039f2d9	-5.32174e-39
64	0x3b4036d7	0.0029329562
65	0x800651ed	-5.80402e-40
66	0x3b164ed0	0.002293516
67	0x0005b297	5.23243e-40
68	0x3a1d0ccb	0.0005990981
69	0x3ad4e8f0	0.0016243737
70	0x8007ded6	-7.22787e-40
71	0x80020804	-1.86546e-40
72	0x0009f723	9.15175e-40
73	0x2d416357	1.0992838e-11
74	0xbf64bd13	-0.89351004
75	0x00084e17	7.62697e-40
76	0xbdd62b07	-0.104574256
77	0x3afbdaa7	0.0019214944
78	0x000cca3b	1.174573e-39
79	0x00070d49	6.47614e-40
80	0x27a4bbca	4.5722745e-15
81	0xaf4cecf0	-1.8637869e-10
82	0x3810afda	3.449605e-05
83	0x002118c7	3.03946e-39
84	0x3a12cd9b	0.00056000956
85	0xb9336979	-0.00017110062
86	0x3b4d4ee3	0.0031327538
87	0x3b6cb938	0.0036121141
88	0x00049802	4.21872e-40
89	0x391c7af4	0.00014923123
90	0x80317ae9	-4.544031e-39
91	0x800376c1	-3.18107e-40
92	0x800eeefa	-1.371426e-39
93	0x80054b0c	-4.86099e-40
94	0x3b09c391	0.0021021108
95	0xbb5551c5	-0.003254996
96	0xbaf4ac39	-0.0018667049
97	0xbb431c9f	-0.0029771698
98	0x802ed69e	-4.301423e-39
99	0x38d00b21	9.920286e-05
100	0x8032cad2	-4.664533e-39
101	0x001147b7	1.58693e-39
102	0x3ad0eb7b	0.0015939319
103	0x3a95e2b8	0.0011435365
104	0x801d6548	-2.699562e-39
105	0x01e7d7a2	8.5165416e-38
106	0x000b3e24	1.032482e-39
107	0x11042cbd	1.042675e-28
108	0x2c12975e	2.0831874e-12
109	0x0005f630	5.47493e-40
110	0x1310a806	1.8258197e-27
111	0x001e28ab	2.769654e-39
112	0xbb0ddb6a	-0.0021645674
113	0xbb147ae5	-0.0022656259
114	0x00072274	6.55208e-40
115	0x00017aac	1.35842e-40
116	0xbb3b1264	-0.0028544897
117	0x0003193d	2.8456e-40
118	0xbaf6f1aa	-0.0018840332
119	0xbab7c486	-0.001402036
120	0x8006a206	-6.09136e-40
121	0x000619ed	5.60313e-40
122	0x80393f5d	-5.257354e-39
123	0x800440d8	-3.90604e-40
124	0xc016f180	-2.35849
125	0xba81aaa3	-0.0009892773
126	0x800ac08e	-9.8743e-40
127	0xbb2d14e7	-0.0026410164
128	0x823e1e00	-1.3967605e-37
129	0x0065b9c0	9.34202e-39
130	0x80007600	-4.233e-41
131	0x80004687	-2.53e-41
132	0x800580e0	-5.05409e-40
133	0x80006476	-3.6039e-41
134	0x80042608	-3.80985e-40
135	0x0000f8b4	8.9218e-41
136	0x8004f057	-4.5356e-40
137	0x00044397	3.91589e-40
138	0x80071b0d	-6.52552e-40
139	0x80027944	-2.27173e-40
140	0x800557b5	-4.90641e-40
141	0x800114f1	-9.9348e-41
142	0x00003b50	2.1277e-41
143	0x0208ac60	1.0041171e-37
144	0x00006f9a	4.0035e-41
145	0x8001513e	-1.2098e-40
146	0x8000798f	-4.3607e-41
147	0x01e50d80	8.4140686e-38
148	0x0214d569	1.0934568e-37
149	0x0002db70	2.6239e-40
150	0x8000f998	-8.9537e-41
151	0x80018e4e	-1.42885e-40
152	0x0000dd41	7.9371e-41
153	0x0002c559	2.54466e-40
154	0x8200cc1f	-9.462535e-38
155	0x80004268	-2.3822e-41
156	0x8003898d	-3.2485e-40
157	0x80000f43	-5.475e-42
158	0x017a07c4	4.592332e-38
159	0x01c86ba0	7.362283e-38
160	0x81b7e5e8	-6.755348e-38
161	0x82538ebb	-1.5542793e-37
162	0x815dded4	-4.075116e-38
163	0x80007078	-4.0346e-41
164	0x0004425d	3.91149e-40
165	0x01019b00	2.3804765e-38
166	0x02270770	1.2271357e-37
167	0x00032092	2.8719e-40
168	0x0002bab1	2.50643e-40
169	0x0000131f	6.86e-42
170	0x000180e4	1.38073e-40
171	0x000236d2	2.03337e-40
172	0x80146f34	-1.876602e-39
173	0x0000b2bc	6.4118e-41
174	0x8007b611	-7.08162e-40
175	0x000041f7	2.3664e-41
176	0x00203f4c	2.961443e-39
177	0x000308fe	2.78732e-40
178	0x00010350	9.3024e-41
179	0x81b3e38c	-6.608073e-38
180	0x80008387	-4.7183e-41
181	0x02331068	1.3155551e-37
182	0x0004d127	4.42372e-40
183	0x02263f40	1.2213906e-37
184	0x00011dd2	1.02533e-40
185	0x8002ae08	-2.46102e-40
186	0x01f08014	8.834586e-38
187	0x80013de0	-1.14032e-40
188	0x0000f4c9	8.7812e-41
189	0x000073e9	4.1581e-41
190	0x80078581	-6.9074e-40
191	0x00017b66	1.36103e-40
192	0x00054fe0	4.87831e-40
193	0x80dbe9d0	-2.019585e-38
194	0x8004a315	-4.25845e-40
195	0x8001daea	-1.70367e-40
196	0x00006e88	3.9651e-41
197	0x80251781	-3.406345e-39
198	0x8003e745	-3.5847e-40
199	0x80013b6f	-1.13156e-40
200	0x8001b39e	-1.5627e-40
201	0x8218a546	-1.1214627e-37
202	0xb8b79bdc	-8.755151e-05
203	0x80048cab	-4.17804e-40
204	0xbad716f4	-0.0016410039
205	0x80019886	-1.4655e-40
206	0x8000fa57	-8.9805e-41
207	0x00011d74	1.02401e-40
208	0x800212cd	-1.90415e-40
209	0x00010fc1	9.7487e-41
210	0x0053df00	7.702344e-39
211	0x000438a8	3.87666e-40
212	0x0000c8c3	7.202e-41
213	0x000389de	3.24964e-40
214	0x802fb800	-4.382275e-39
215	0x0006602f	5.85517e-40
216	0x000084d4	4.765e-41
217	0x0196a768	5.5341514e-38
218	0x00013124	1.09464e-40
219	0x0005becc	5.27623e-40
220	0x00011174	9.8096e-41
221	0x00016192	1.26837e-40
222	0x00268588	3.537651e-39
223	0x00048cbe	4.17831e-40
224	0x80080523	-7.36527e-40
225	0x80055285	-4.8878e-40
226	0x00021a89	1.9319e-40
227	0x0000129e	6.679e-42
228	0x00031b0e	2.85212e-40
229	0x00014cb3	1.1935e-40
230	0x000472a3	4.08466e-40
231	0x8001e33d	-1.73353e-40
232	0x00048099	4.13474e-40
233	0x0000f617	8.828e-41
234	0x00045b86	4.00174e-40
235	0x80037f17	-3.21098e-40
236	0x80018651	-1.40019e-40
237	0x823dd9a0	-1.3947982e-37
238	0x818163c0	-4.753025e-38
239	0x8001b136	-1.55407e-40
240	0x82136e00	-1.0831423e-37
241	0x80060ca4	-5.55548e-40
242	0x000081b4	4.6529e-41
243	0x000206ab	1.86063e-40
244	0x80014a86	-1.1857e-40
245	0x8001d1bc	-1.67074e-40
246	0x80015931	-1.23831e-40
247	0x0017fb21	2.202304e-39
248	0x800260e7	-2.18433e-40
249	0x8001c931	-1.6401e-40
250	0x00037f39	3.21145e-40
251	0x0005b56d	5.24261e-40
252	0xb9abb3b4	-0.0003274955
253	0x823eb740	-1.4011586e-37
254	0x8001fa2a	-1.81577e-40
255	0x8001cf46	-1.66191e-40

net.1.0.bias f4 [128]
0	0x3e752af2	0.23942164
1	0xbadc3bb0	-0.0016802456
2	0xbb680ea7	-0.0035409124
3	0xbb4e7cef	-0.0031507572
4	0x8da66a9e	-1.0256207e-30
5	0xa4af9b32	-7.615706e-17
6	0xb9940555	-0.00028232732
7	0x3f360dfc	0.7111509
8	0x3ea192e7	0.3155739
9	0xbab2660a	-0.0013610732
10	0xbb5f294f	-0.0034051721
11	0x3f1c5aab	0.6107585
12	0xbb0599fc	-0.0020385971
13	0xb99a2978	-0.00029404066
14	0xa4391fff	-4.0142582e-17
15	0xba6b0910	-0.0008965889
16	0x3fab1d9b	1.336841
17	0xba19e08c	-0.0005869947
18	0xbb367dcf	-0.0027845984
19	0xbb56d49c	-0.0032780534
20	0xb6ccaa0e	-6.0994707e-06
21	0x9f60b3b8	-4.7582505e-20
22	0xbb4b4bbf	-0.003102049
23	0x9c7dfcc7	-8.4037385e-22
24	0xb73516da	-1.0793761e-05
25	0xbb898c91	-0.004197665
26	0xbb66b22d	-0.0035201416
27	0xb9a21b76	-0.00030919508
28	0xbb3d2202	-0.0028859382
29	0x3f2b01e7	0.6679978
30	0xbb3e398a	-0.0029025995
31	0xba3967b7	-0.00070726447
32	0xb8c7f885	-9.53535e-05
33	0xadcecf59	-2.351157e-11
34	0xa78f0936	-3.970046e-15
35	0xab61f34b	-8.0273695e-13
36	0xba3414c1	-0.00068695477
37	0x3f496d81	0.78682715
38	0x3ee59108	0.44837213
39	0xb3efd4a4	-1.1167984e-07
40	0xb9e149cc	-0.00042970327
41	0xb2ad174f	-2.015045e-08
42	0xbb44d874	-0.0030036243
43	0x801eee39	-2.840523e-39
44	0xaa495fb4	-1.788559e-13
45	0x3e96ece0	0.29477596
46	0xbb38ef4c	-0.0028218804
47	0x3f313b98	0.6923156
48	0xbb2ab21a	-0.0026046098
49	0xb895b33f	-7.138261e-05
50	0x80239aa8	-3.269723e-39
51	0xbb159fbc	-0.0022830805
52	0xbb00072e	-0.001953553
53	0x3e951cd5	0.2912356
54	0xbb4036e3	-0.002932959
55	0x8f11d9eb	-7.1910214e-30
56	0xaf42847d	-1.7691267e-10
57	0xbaf3185f	-0.0018546692
58	0x99d846f3	-2.2362533e-23
59	0x97c52081	-1.2739032e-24
60	0x3e6ed4cc	0.23323363
61	0x3e93b689	0.288502
62	0x97590481	-7.0122166e-25
63	0xb89de2d5	-7.528594e-05
64	0xbb478608	-0.003044488
65	0xbb85abce	-0.0040793186
66	0x3fbbccc2	1.4671862
67	0x96a2579b	-2.6227798e-25
68	0x3e70c886	0.23513994
69	0xb98ad9af	-0.00026483598
70	0xbb7b690b	-0.003836217
71	0x3e9db997	0.30805656
72	0xaa74da28	-2.1747242e-13
73	0xabdd14c5	-1.5708759e-12
74	0x3e91d48e	0.2848248
75	0x3f46d190	0.77663517
76	0xb669c46f	-3.4834045e-06
77	0xbb6cdfad	-0.0036144063
78	0xae0b2302	-3.1636034e-11
79	0xb7987677	-1.8174977e-05
80	0xb9ca6243	-0.00038601653
81	0xbadcfcb4	-0.0016859979
82	0xa227f4aa	-2.2762244e-18
83	0xb987ceff	-0.0002590343
84	0xbb0080bc	-0.0019607982
85	0x9e7870b7	-1.31523196e-20
86	0xbb1f20a0	-0.002428092
87	0xbb0a10fe	-0.0021067257
88	0x3e61d2a2	0.22053006
89	0xbb0a9b53	-0.002114971
90	0xab5dffa8	-7.8869767e-13
91	0x3f6c1d99	0.9223266
92	0xba18ada5	-0.0005824215
93	0xb538453b	-6.8646085e-07
94	0xaaf74d42	-4.3929622e-13
95	0xbb4dfae3	-0.0031430058
96	0xbafabc1c	-0.0019129547
97	0xb7a29a1f	-1.9383673e-05
98	0x99012951	-6.6774875e-24
99	0xb286626e	-1.5644414e-08
100	0xb96bf89a	-0.00022503958
101	0xabfb3289	-1.7848649e-12
102	0xbb391c57	-0.0028245652
103	0xbab24787	-0.0013601639
104	0xbb628ba0	-0.0034568086
105	0x3f3355b0	0.70052624
106	0xbb403e83	-0.0029334135
107	0xbb47a60b	-0.003046396
108	0xb4ea7007	-4.3667407e-07
109	0xb714d71e	-8.871573e-06
110	0xb1e35174	-6.6158297e-09
111	0xbb6d07a1	-0.0036167877
112	0xba0d2e80	-0.0005385652
113	0x8bb08c2a	-6.800363e-32
114	0x800e181d	-1.294347e-39
115	0x3f51602f	0.8178739
116	0x3e926d7d	0.28599158
117	0x8019a8f5	-2.356498e-39
118	0xb7104b24	-8.600564e-06
119	0x3f10f022	0.56616414
120	0xba3719c5	-0.0006984736
121	0xac760030	-3.4958807e-12
122	0xba8dbdfb	-0.0010814065
123	0xa801014e	-7.161221e-15
124	0xb8126f9e	-3.4913064e-05
125	0xbb137437	-0.002249969
126	0x3e81786e	0.25287193
127	0x901ae7da	-3.0549757e-29

net.2.0.weight f4 [128, 128]
0	0xc05b37b3	-3.4252746
1	0xb86c7620	-5.6376797e-05
2	0xbb4441f7	-0.0029946545
3	0x8000958e	-5.365e-41
4	0x0001fefb	1.83305e-40
5	0x0264923d	1.6792763e-37
6	0x020a9dac	1.0183888e-37
7	0xbd728efc	-0.05921839
8	0xbfea07e3	-1.8283657
9	0xb96fdc38	-0.00022874854
10	0x8046fad0	-6.51846e-39
11	0xbef9acee	-0.48764747
12	0x01ee3af0	8.7511964e-38
13	0x0013135c	1.751819e-39
14	0x37882c56	1.6233109e-05
15	0x004689e2	6.477948e-39
16	0x3f5b7aaf	0.85734075
17	0x8049c137	-6.773304e-39
18	0xb5dabbd0	-1.6296926e-06
19	0xb8678d75	-5.5206434e-05
20	0x827e7915	-1.8695722e-37
21	0x80049af6	-4.22931e-40
22	0x8169c4c4	-4.2936514e-38
23	0x81d3dbf6	-7.782479e-38
24	0x0010b30d	1.533599e-39
25	0x82ae127a	-2.5577607e-37
26	0xbb3c75c2	-0.0028756713
27	0x00017f36	1.3747e-40
28	0xb9b0e6fb	-0.0003374143
29	0x3fb58b2d	1.4183098
30	0x3a06a39f	0.0005136076
31	0x003234c0	4.610698e-39
32	0x8003556d	-3.06151e-40
33	0x0011bd3c	1.629088e-39
34	0x800b2e69	-1.026839e-39
35	0x80012fdf	-1.09008e-40
36	0x81975590	-5.5591416e-38
37	0x3d243259	0.040087078
38	0xbf66f353	-0.90215033
39	0xb58e2a97	-1.059222e-06
40	0x00038b3c	3.25454e-40
41	0x80a47500	-1.5102993e-38
42	0x804863f3	-6.648011e-39
43	0x80068f10	-6.02334e-40
44	0x8075bc21	-1.0812241e-38
45	0xbfbf04c7	-1.4923333
46	0xbb1e347d	-0.0024140172
47	0xbe938dc9	-0.2881911
48	0x80081590	-7.42419e-40
49	0x0017ebac	2.19676e-39
50	0x80127fa0	-1.698822e-39
51	0xb96de9aa	-0.00022689128
52	0x1402c2e4	6.601758e-27
53	0xc008038e	-2.125217
54	0x81b9d478	-6.8263145e-38
55	0x816f87e0	-4.3994853e-38
56	0x00007d8a	4.5035e-41
57	0xb3023790	-3.0318517e-08
58	0x801b975b	-2.533855e-39
59	0x0001f1f7	1.78636e-40
60	0xc04bddfb	-3.1854236
61	0xc00e560c	-2.224002
62	0x000e847e	1.333226e-39
63	0x813b2794	-3.4374871e-38
64	0x96df4fd9	-3.6077984e-25
65	0xba546518	-0.00081022223
66	0x3f891dd5	1.0712229
67	0x8049fa92	-6.793879e-39
68	0xc039b5d5	-2.9017231
69	0x9f348178	-3.8223577e-20
70	0x803cbef7	-5.578635e-39
71	0xbfcb00de	-1.585964
72	0x801d46e7	-2.688664e-39
73	0x00001378	6.984e-42
74	0xc00fc5e4	-2.2464533
75	0x3e1dc651	0.15407683
76	0x00471139	6.526499e-39
77	0x2df29b30	2.7581132e-11
78	0x80057eb3	-5.04629e-40
79	0x0020abc9	3.000361e-39
80	0x8222b5c2	-1.1954042e-37
81	0x001ce204	2.652473e-39
82	0x8002c66e	-2.54854e-40
83	0x01b0fd52	6.5015686e-38
84	0x9f34dab8	-3.8297403e-20
85	0x01e88a48	8.5421764e-38
86	0x01b21182	6.5411996e-38
87	0x3a709081	0.0009176806
88	0xc0353f16	-2.8319755
89	0x01d6c728	7.889696e-38
90	0x000564e5	4.95372e-40
91	0x3ebe30e1	0.37146667
92	0x0180a46a	4.7255697e-38
93	0x00f80d44	2.2779962e-38
94	0x0003478c	3.01173e-40
95	0xb6eaa969	-6.9934654e-06
96	0x3a90933d	0.0011030209
97	0x8013dd6b	-1.824304e-39
98	0x8090a160	-1.3282202e-38
99	0x8212e0cb	-1.0790898e-37
100	0x0014114c	1.842915e-39
101	0x80052f78	-4.76206e-40
102	0x003a27b8	5.340707e-39
103	0xb20caaa3	-8.187871e-09
104	0xbb2c2374	-0.002626625
105	0xbe8650d1	-0.26233533
106	0x0179cf32	4.5882732e-38
107	0x3785c8e3	1.594838e-05
108	0x8133cee4	-3.3025544e-38
109	0x801061e1	-1.50448e-39
110	0x0013c376	1.814993e-39
111	0x398748df	0.000258035
112	0xb1b39984	-5.2270384e-09
113	0x8018c6cb	-2.275365e-39
114	0x00099708	8.80699e-40
115	0x3dc684f6	0.09693329
116	0xc00b58b7	-2.1772897
117	0x000f65cc	1.41405e-39
118	0x818b9156	-5.126908e-38
119	0xbf1e0c92	-0.6173793
120	0xbb38cf6f	-0.0028199812
121	0x00206f01	2.978557e-39
122	0x299fbeb1	7.094098e-14
123	0xa1d14766	-1.418129e-18
124	0x08feaeda	1.5328176e-33
125	0xb7f05dd1	-2.8653916e-05
126	0xc01b3d14	-2.425603
127	0x801595c7	-1.982275e-39
128	0x8011bc7f	-1.628823e-39
129	0x0001ef67	1.77717e-40
130	0x0005793b	5.02667e-40
131	0x80016792	-1.2899e-40
132	0x01543c80	3.8981657e-38
133	0x0197e7c0	5.5801185e-38
134	0x825df7b8	-1.6307608e-37
135	0x803f614c	-5.82054e-39
136	0x00411671	5.977358e-39
137	0x814ca100	-3.7584394e-38
138	0x000387fc	3.24288e-40
139	0x802f1167	-4.322511e-39
140	0x00348800	4.824233e-39
141	0x823300f8	-1.3151121e-37
142	0x8262f968	-1.6675434e-37
143	0x01c2ff80	7.163097e-38
144	0x0040c861	5.949354e-39
145	0x8056a3b8	-7.956584e-39
146	0x80018eac	-1.43017e-40
147	0x82579de0	-1.5841013e-37
148	0x8000caf8	-7.2811e-41
149	0x81aa9748	-6.2665215e-38
150	0x02232620	1.198629e-37
151	0x01be1348	6.9822644e-38
152	0x000111f6	9.8279e-41
153	0x0005d207	5.34521e-40
154	0x0004ec5f	4.52136e-40
155	0x82ff21d0	-3.748829e-37
156	0x01514580	3.84371e-38
157	0x800d4b9f	-1.220989e-39
158	0x80012810	-1.06207e-40
159	0x8002ec1f	-2.68375e-40
160	0x000ed2f0	1.361367e-39
161	0x800451de	-3.9671e-40
162	0x015abb80	4.01748e-38
163	0x023e7fa0	1.3995622e-37
164	0x80024849	-2.09602e-40
165	0x80250042	-3.398006e-39
166	0x00089574	7.88298e-40
167	0x8001642c	-1.2777e-40
168	0x02ae1960	2.5581567e-37
169	0x00466b00	6.466869e-39
170	0x80015600	-1.22686e-40
171	0x8125d680	-3.045961e-38
172	0x00026513	2.1993e-40
173	0x0036531c	4.988931e-39
174	0x821527c0	-1.0958199e-37
175	0x80474fb2	-6.54891e-39
176	0x001729b0	2.127171e-39
177	0x0001db74	1.7056e-40
178	0x004304d0	6.154705e-39
179	0x8159ee00	-4.0027362e-38
180	0x00a08900	1.4742826e-38
181	0x002b4870	3.974912e-39
182	0x8005bf6d	-5.27848e-40
183	0x8003a3b6	-3.34235e-40
184	0x000068e5	3.7629e-41
185	0x8008d936	-8.12605e-40
186	0x80053000	-4.76397e-40
187	0x8055fa00	-7.8957e-39
188	0x0001a978	1.5263e-40
189	0x002b5705	3.980143e-39
190	0x0006cbe9	6.24162e-40
191	0x81948e00	-5.4570374e-38
192	0x800044e9	-2.472e-41
193	0x80001eb5	-1.1016e-41
194	0x0002a3f1	2.42482e-40
195	0x00009e71	5.6838e-41
196	0x0001daa7	1.70273e-40
197	0x800233e0	-2.0228e-40
198	0x81dc0a40	-8.0829945e-38
199	0x0031673a	4.53697e-39
200	0x800007d8	-2.814e-42
201	0x8222efb9	-1.1970677e-37
202	0x0019749c	2.337719e-39
203	0x802bfb76	-4.039134e-39
204	0x823e0e70	-1.3963139e-37
205	0x02ae6e26	2.5630224e-37
206	0x81b3e500	-6.6082814e-38
207	0x02093780	1.0081098e-37
208	0x01786e4c	4.562954e-38
209	0x021beba0	1.1455223e-37
210	0x800aeba7	-1.002891e-39
211	0x01eac540	8.6241064e-38
212	0x02244b72	1.2070469e-37
213	0x81e0b400	-8.254289e-38
214	0x0004843a	4.14776e-40
215	0x0003c346	3.45557e-40
216	0x80207472	-2.980509e-39
217	0x01871cbc	4.96324e-38
218	0x023f5920	1.4058041e-37
219	0x8008abf0	-7.96364e-40
220	0x8002a6dd	-2.4353e-40
221	0x801c1ef9	-2.582505e-39
222	0x800517cd	-4.67716e-40
223	0x00060852	5.53998e-40
224	0x8001424f	-1.15623e-40
225	0x000353a2	3.05508e-40
226	0x025c8f20	1.6204122e-37
227	0x00011dfc	1.02592e-40
228	0x00017c75	1.36482e-40
229	0x01d16778	7.6922945e-38
230	0x81617f34	-4.1417237e-38
231	0x00047fdb	4.13208e-40
232	0x000316ee	2.83732e-40
233	0x803da724	-5.661924e-39
234	0x8226dac0	-1.2258532e-37
235	0x001adf30	2.467787e-39
236	0x00009768	5.4314e-41
237	0x8119dc00	-2.8259504e-38
238	0x800118a9	-1.00682e-40
239	0x80021a0d	-1.93016e-40
240	0x80000800	-2.87e-42
241	0x0068c980	9.623176e-39
242	0x81ed8040	-8.724408e-38
243	0x801f150f	-2.854455e-39
244	0x000436e0	3.87027e-40
245	0x00035472	3.058e-40
246	0x80987b00	-1.400312e-38
247	0x8026f35e	-3.577053e-39
248	0x00042112	3.79205e-40
249	0x0006d86d	6.28652e-40
250	0x00000404	1.44e-42
251	0x800448c9	-3.93452e-40
252	0x80010a1c	-9.5462e-41
253	0x812ca480	-3.1709434e-38
254	0x001d4be6	2.690457e-39
255	0x00010923	9.5113e-41

net.2.0.bias f4 [128]
0	0x3f8c2023	1.0947307
1	0x000e85e2	1.333725e-39
2	0x001a397b	2.408343e-39
3	0x800ff3c5	-1.46498e-39
4	0x8008d210	-8.1004e-40
5	0x3f8fda28	1.1238451
6	0x80001715	-8.28e-42
7	0x0004f927	4.56721e-40
8	0x3f8ddad5	1.1082407
9	0x00064f5f	5.79486e-40
10	0x3f8d089a	1.101825
11	0x3f8ea0db	1.1142839
12	0x801d2b95	-2.678864e-39
13	0x3f8f124c	1.1177459
14	0x8018b6f6	-2.269686e-39
15	0x00052620	4.72854e-40
16	0x001f9d01	2.903223e-39
17	0x800cc69b	-1.173272e-39
18	0x800e90ba	-1.337615e-39
19	0x000e9688	1.339697e-39
20	0x80035aa1	-3.08018e-40
21	0x3f8d7a1f	1.1052893
22	0x800d99c5	-1.249024e-39
23	0x0020afcd	3.001801e-39
24	0x801e401c	-2.778063e-39
25	0xb92b452d	-0.00016333601
26	0x800b2af3	-1.025598e-39
27	0x801ed6ef	-2.832169e-39
28	0x3f8d7fa9	1.1054584
29	0x00039517	3.2899e-40
30	0xac0a3076	-1.963788e-12
31	0x3f8fad39	1.1224738
32	0x3f827b54	1.0193887
33	0x801bd43e	-2.555697e-39
34	0x8016dec1	-2.10029e-39
35	0xbb33e186	-0.0027447655
36	0x3f98d62b	1.1940359
37	0x00056a1c	4.97242e-40
38	0x3f89fd12	1.0780356
39	0x3f9074f8	1.1285696
40	0xb5663db6	-8.577148e-07
41	0x8014caab	-1.909413e-39
42	0x80165ed5	-2.0544e-39
43	0x3f8613fd	1.047485
44	0xa6091463	-4.755905e-16
45	0xbb22a6d4	-0.0024818676
46	0x8018fde5	-2.295132e-39
47	0x3f9c3be7	1.2205781
48	0xb63f4d78	-2.850631e-06
49	0xbadff986	-0.0017087914
50	0x9c19a073	-5.083083e-22
51	0x000c7963	1.145571e-39
52	0x80029fc3	-2.40983e-40
53	0x3f8e2e77	1.110793
54	0xaa04fe7c	-1.1812247e-13
55	0x80029f00	-2.4071e-40
56	0x8016681d	-2.05773e-39
57	0x80011651	-9.9841e-41
58	0x80041851	-3.76065e-40
59	0xba16b624	-0.0005749187
60	0x8000b60e	-6.5309e-41
61	0x3f83de60	1.0302238
62	0x3f857d01	1.0428773
63	0x0048f8dc	6.70143e-39
64	0xa92983a8	-3.7639732e-14
65	0x3f95a9b7	1.1692418
66	0x3f8159df	1.0105551
67	0x3f9e4198	1.2363768
68	0x3f904ade	1.1272848
69	0x3f89df6e	1.077131
70	0xba10b76a	-0.0005520495
71	0x0031852c	4.547712e-39
72	0x0002e039	2.64107e-40
73	0x801d70a4	-2.703637e-39
74	0x0016189f	2.029213e-39
75	0x3f86fc8f	1.0545825
76	0x3f90eee3	1.1322902
77	0x80019138	-1.4393e-40
78	0x8003db1b	-3.54107e-40
79	0x0005f766	5.47927e-40
80	0x800d7ead	-1.239304e-39
81	0x3f8ec05f	1.1152457
82	0x3f6b0105	0.9179843
83	0x001ab89a	2.453945e-39
84	0xb90472f2	-0.00012631321
85	0xaef9bbf5	-1.1356597e-10
86	0x3f97154c	1.1803374
87	0x00286cf8	3.71251e-39
88	0xb97a1786	-0.00023850621
89	0x80007e93	-4.5406e-41
90	0xbb66f02c	-0.0035238368
91	0x3f5b5f53	0.8569233
92	0xb9ec9f63	-0.0004513218
93	0x800f3f10	-1.400155e-39
94	0x0000e386	8.162e-41
95	0x3f827647	1.0192345
96	0xb7632e1f	-1.3540993e-05
97	0x001fd9bb	2.925007e-39
98	0x3f99fed0	1.2030888
99	0xba5ba156	-0.0008378228
100	0x0004ecdd	4.52313e-40
101	0x000b0ee0	1.015527e-39
102	0x801b2dc8	-2.495982e-39
103	0xa0b188da	-3.0075527e-19
104	0x8015732b	-1.96986e-39
105	0x000575e0	5.01463e-40
106	0x3f947fa6	1.1601455
107	0x3f8c31e0	1.0952721
108	0x3f92022d	1.1406914
109	0x3f8d473c	1.1037364
110	0x3f848e9d	1.0356022
111	0x3f911ff5	1.1337878
112	0x3f8eec71	1.1165906
113	0x3f88b1f2	1.0679305
114	0xb999bd98	-0.00029323692
115	0x800b7717	-1.052912e-39
116	0x3f83b8e2	1.0290797
117	0x3f91dcda	1.1395524
118	0x3f90786c	1.128675
119	0xb21fc630	-9.300081e-09
120	0x002797f0	3.636089e-39
121	0x80194cf6	-2.323496e-39
122	0x80052fa9	-4.76275e-40
123	0x80022a68	-1.98883e-40
124	0x3f85f750	1.0466099
125	0x3f855a2a	1.0418141
126	0x3f908652	1.1290991
127	0x002e426c	4.24826e-39

net.3.0.weight f4 [128, 128]
0	0x00196d19	2.335024e-39
1	0x800462c6	-4.02775e-40
2	0x01c1985e	7.111564e-38
3	0x01b31068	6.5777757e-38
4	0x81b75fe8	-6.73612e-38
5	0x00198643	2.344051e-39
6	0x01316618	3.2583014e-38
7	0x8000d8e1	-7.7801e-41
8	0xb8193df9	-3.653576e-05
9	0x807505d8	-1.074685e-38
10	0x0018293a	2.218841e-39
11	0xb8299403	-4.0430587e-05
12	0x80044260	-3.91153e-40
13	0xb822a096	-3.8773367e-05
14	0x0003cd3d	3.49132e-40
15	0x000440b1	3.90549e-40
16	0x8000efd5	-8.6036e-41
17	0x80032a87	-2.90762e-40
18	0x007f1990	1.1672278e-38
19	0x8003f00b	-3.61618e-40
20	0x800444f6	-3.9208e-40
21	0xb805f2a3	-3.1935644e-05
22	0x80065a25	-5.83351e-40
23	0x823e33e0	-1.3973883e-37
24	0x80017718	-1.34558e-40
25	0x801f3423	-2.865604e-39
26	0x80079f38	-6.99965e-40
27	0x82050d00	-9.775028e-38
28	0x001a7bf5	2.43219e-39
29	0x02bebed0	2.8027512e-37
30	0x81b2bdc0	-6.565915e-38
31	0xb80bc326	-3.332193e-05
32	0x0018afc9	2.267112e-39
33	0x80049c19	-4.23339e-40
34	0x00b68300	1.6761054e-38
35	0x01d1db00	7.7088724e-38
36	0xb8287eee	-4.0172534e-05
37	0x0001c929	1.63998e-40
38	0x0016cef0	2.094616e-39
39	0xb80d1152	-3.363315e-05
40	0x8119b10c	-2.8228687e-38
41	0x0003191b	2.84513e-40
42	0x800097fd	-5.4523e-41
43	0x001817a9	2.21254e-39
44	0x8001b600	-1.57125e-40
45	0x8005b09d	-5.22534e-40
46	0x80012ff4	-1.09038e-40
47	0xb829817d	-4.0413335e-05
48	0x8001f99a	-1.81376e-40
49	0x812e7980	-3.2045925e-38
50	0x819a2800	-5.6628063e-38
51	0x000641b2	5.7458e-40
52	0x80070a77	-6.46603e-40
53	0xb8132aa7	-3.5087254e-05
54	0x01d9a934	7.9956005e-38
55	0x00066f92	5.91037e-40
56	0x80013296	-1.09982e-40
57	0x8044f6e0	-6.333376e-39
58	0x8004e469	-4.4928e-40
59	0x019961b4	5.634352e-38
60	0x8000e8f9	-8.3575e-41
61	0x001bd69b	2.556544e-39
62	0xb826fd48	-3.981337e-05
63	0x01b73260	6.729587e-38
64	0x8090bf00	-1.329283e-38
65	0xb821f201	-3.8610775e-05
66	0xb82a5eed	-4.0619565e-05
67	0xb833c914	-4.2864194e-05
68	0xb816daf9	-3.596672e-05
69	0x0015af90	1.991525e-39
70	0x016e95fc	4.3821305e-38
71	0x018f35dc	5.260719e-38
72	0x026b7e60	1.7301341e-37
73	0x80aaafa8	-1.5675048e-38
74	0x0005d91f	5.37066e-40
75	0x001a3759	2.407578e-39
76	0xb82cf159	-4.1232768e-05
77	0x80006b1c	-3.8424e-41
78	0x00016350	1.27462e-40
79	0x01cd30b0	7.537497e-38
80	0x803bfb4c	-5.508443e-39
81	0x001963f8	2.33175e-39
82	0x0015388e	1.948833e-39
83	0x012e9000	3.2062068e-38
84	0x000157f3	1.23386e-40
85	0x8000f735	-8.8681e-41
86	0xb81cc2f2	-3.7374855e-05
87	0x00434a00	6.179524e-39
88	0x000581b4	5.05706e-40
89	0x80016e23	-1.31345e-40
90	0x8001a816	-1.52133e-40
91	0xb7a3f035	-1.954297e-05
92	0x00ab8e18	1.5754843e-38
93	0x8002299e	-1.986e-40
94	0x80c40318	-1.8000867e-38
95	0xb8211802	-3.840775e-05
96	0x0149b700	3.7049166e-38
97	0x012d8700	3.187194e-38
98	0xb81c9936	-3.7335987e-05
99	0x8200c040	-9.459128e-38
100	0x8006d55f	-6.27556e-40
101	0x80011263	-9.8431e-41
102	0x0000dae6	7.8526e-41
103	0x826926a0	-1.7129221e-37
104	0x805976c0	-8.215959e-39
105	0x801a706f	-2.428056e-39
106	0xb8258d60	-3.947073e-05
107	0xb81e7095	-3.7774986e-05
108	0xb822de84	-3.8831044e-05
109	0xb820d657	-3.8346592e-05
110	0x00181c9a	2.214312e-39
111	0xb8152121	-3.5555222e-05
112	0xb80edbe8	-3.4060242e-05
113	0xb82a94a3	-4.0669587e-05
114	0x81242c00	-3.015361e-38
115	0x000011f5	6.442e-42
116	0xb81c33ab	-3.7241418e-05
117	0xb8294016	-4.0352425e-05
118	0x002a853d	3.904888e-39
119	0x8001cb85	-1.64845e-40
120	0x00017f15	1.37424e-40
121	0x8006870b	-5.99457e-40
122	0x00015b3c	1.24564e-40
123	0x800090ac	-5.1898e-41
124	0x00158bf6	1.978754e-39
125	0x0019ca5a	2.368477e-39
126	0x001d3a51	2.68415e-39
127	0x800245f4	-2.08765e-40
128	0xc046993c	-3.1031027
129	0x0004b827	4.33403e-40
130	0x00204620	2.963892e-39
131	0x00011b7c	1.01695e-40
132	0x8002b14f	-2.47277e-40
133	0xc04be633	-3.1859252
134	0x80022be6	-1.99419e-40
135	0x0009b2a3	8.90602e-40
136	0x3f511813	0.8167736
137	0x000366f9	3.12446e-40
138	0xc04c60f8	-3.1934185
139	0x3f50806e	0.8144597
140	0x8041411f	-5.992668e-39
141	0x3f425d3f	0.7592353
142	0x801d25a4	-2.676732e-39
143	0x0005e09c	5.39752e-40
144	0x000f1981	1.386682e-39
145	0x00165e86	2.05429e-39
146	0x00097c69	8.7115e-40
147	0x00458cf3	6.387212e-39
148	0x801fb5e5	-2.912152e-39
149	0x3f3f2546	0.7466625
150	0x800426fb	-3.81326e-40
151	0x003712c6	5.057687e-39
152	0x8003a5f6	-3.35042e-40
153	0x33bd3fd3	8.812608e-08
154	0x000c6d13	1.141154e-39
155	0x00031349	2.82425e-40
156	0xc043b2bc	-3.057784
157	0x001e5be3	2.788028e-39
158	0x00053ea8	4.81654e-40
159	0x3f4e554c	0.805989
160	0xc036c0a4	-2.8555079
161	0x800848d5	-7.60811e-40
162	0x00314e7b	4.528093e-39
163	0xba500c23	-0.0007936379
164	0x3f3f9420	0.74835396
165	0x8005b900	-5.25543e-40
166	0xc04af4ca	-3.1711907
167	0x3f4e8ce3	0.80683726
168	0x24109717	3.1353e-17
169	0x80113501	-1.580218e-39
170	0x800fd855	-1.455138e-39
171	0xc03cd727	-2.9506319
172	0x00018c74	1.4222e-40
173	0xbb3153c5	-0.0027057987
174	0x800c06e2	-1.104495e-39
175	0x3f3a6c3d	0.7282141
176	0xa90dc5ed	-3.1479963e-14
177	0x3a3b1fad	0.0007138204
178	0x800a7bf3	-9.6282e-40
179	0x8042e94d	-6.144835e-39
180	0x80001f23	-1.117e-41
181	0x3f4f4b63	0.80974406
182	0x0008164a	7.4268e-40
183	0x80035caa	-3.08748e-40
184	0x00149ce5	1.892993e-39
185	0x80107edf	-1.514881e-39
186	0x0002a423	2.42552e-40
187	0xba7757df	-0.0009435396
188	0x00311f7f	4.511238e-39
189	0xc0478e24	-3.1180506
190	0x3f53a2cc	0.82670283
191	0x8036eee4	-5.044815e-39
192	0x0f44e3a1	9.707386e-30
193	0x3f381f51	0.71922785
194	0x3f546b2b	0.82976025
195	0x3f3e7706	0.74400365
196	0x3f35c6e2	0.71006596
197	0xc04f362b	-3.2376812
198	0xb422a115	-1.5146027e-07
199	0x804704cf	-6.522045e-39
200	0x0009741e	8.68174e-40
201	0x00029c13	2.3966e-40
202	0x00286d15	3.712551e-39
203	0xc042d2c9	-3.0441153
204	0x3f498860	0.78723717
205	0x8014ddfa	-1.91634e-39
206	0x80194495	-2.32049e-39
207	0x8006af6c	-6.13942e-40
208	0x80093ea8	-8.48996e-40
209	0xc0498704	-3.1488657
210	0xc03a880f	-2.9145544
211	0x003a8a35	5.376038e-39
212	0x34c0c908	3.5909056e-07
213	0x11e390a0	3.5903417e-28
214	0x3f2ce753	0.6754047
215	0x801821e7	-2.216214e-39
216	0x34100042	1.3411139e-07
217	0x000cb7e3	1.167992e-39
218	0xbaa929c5	-0.0012906125
219	0x3f422eb8	0.7585254
220	0xba8c3468	-0.0010696771
221	0x8005bed0	-5.27628e-40
222	0x8034d9f4	-4.853633e-39
223	0x3f52c299	0.8232818
224	0x8002cbda	-2.56799e-40
225	0x800b6af1	-1.048554e-39
226	0x3f4a1ebf	0.78953165
227	0xb86bc40c	-5.621095e-05
228	0x0017210b	2.12407e-39
229	0x800cfd61	-1.192921e-39
230	0x0006465b	5.76252e-40
231	0x00033c3f	2.97119e-40
232	0x80143007	-1.853939e-39
233	0x00215c9f	3.063798e-39
234	0x3f420daf	0.7580213
235	0x3f51a148	0.8188672
236	0x3f5158f6	0.8177637
237	0x3f4fa177	0.8110575
238	0xc03dd3be	-2.9660487
239	0x3f42871b	0.75987405
240	0x3f2c16b3	0.67222136
241	0x3f52bae3	0.82316417
242	0x30d48066	1.5461523e-09
243	0x80081f3d	-7.4589e-40
244	0x3f5573c6	0.8337978
245	0x3f2e97e3	0.6820051
246	0xc02cbbb9	-2.6989577
247	0x346433d9	2.1253017e-07
248	0x8004331a	-3.85674e-40
249	0x800e26f2	-1.299668e-39
250	0x000a3767	9.3823e-40
251	0x00093185	8.44284e-40
252	0xc0431a9d	-3.0484993
253	0xc0498aec	-3.149104
254	0xc03abd3b	-2.9177997
255	0x001ae684	2.470416e-39

net.3.0.bias f4 [128]
0	0x88ad526e	-1.0431438e-33
1	0x3f2e867f	0.68173975
2	0x3f9fb291	1.2476369
3	0x3f2e2e1a	0.68039095
4	0x3eed18f4	0.463081
5	0x3f949144	1.1606832
6	0x800f0751	-1.380157e-39
7	0x80062323	-5.63618e-40
8	0xae40009c	-4.3656287e-11
9	0x801f3078	-2.864288e-39
10	0x800952f0	-8.56272e-40
11	0x3f9610da	1.1723893
12	0x3f6c0afb	0.92204255
13	0x3f9f11f4	1.2427354
14	0x3e98c6b8	0.2983911
15	0xb5108348	-5.383522e-07
16	0x8013af01	-1.807654e-39
17	0x802db678	-4.198055e-39
18	0xbba09941	-0.004901082
19	0x800577b3	-5.02117e-40
20	0x801914d8	-2.303365e-39
21	0x8003b5d7	-3.40738e-40
22	0xac0af86c	-1.9748881e-12
23	0xb4ce9a84	-3.8482915e-07
24	0x3eac1d57	0.33616135
25	0x800bada0	-1.072475e-39
26	0xb7e10dc1	-2.6828495e-05
27	0xbb3ee9b7	-0.0029131004
28	0xad1494fa	-8.445905e-12
29	0x8011eb57	-1.645627e-39
30	0x8009e578	-9.08837e-40
31	0x800e51cd	-1.315042e-39
32	0x8014ea42	-1.920746e-39
33	0x3f9427cd	1.1574646
34	0x3f8f09b2	1.1174834
35	0x8025a7de	-3.458133e-39
36	0x800daf6f	-1.256795e-39
37	0x3ebdd9ec	0.37080324
38	0x800bee98	-1.095782e-39
39	0xb2d30e78	-2.4570213e-08
40	0x3f901736	1.1257083
41	0x800a9139	-9.70451e-40
42	0xabd7607b	-1.5303448e-12
43	0x92961876	-9.472361e-28
44	0x3f8abb59	1.0838424
45	0x3f9c4c30	1.221075
46	0x3f8e6774	1.1125321
47	0x3f8ceb63	1.1009334
48	0x3f939489	1.1529704
49	0xbb94305f	-0.004522368
50	0x3f8ae7c9	1.0851985
51	0xb532ad64	-6.6562484e-07
52	0xb88e6d8f	-6.7914945e-05
53	0xb68bfe6a	-4.1721405e-06
54	0x801ef138	-2.841598e-39
55	0x800de3cb	-1.275578e-39
56	0x800df90d	-1.283204e-39
57	0x801c0a38	-2.57506e-39
58	0xa7adf571	-4.8283254e-15
59	0xbb3ce265	-0.0028821465
60	0x3f6aedde	0.91769207
61	0x3f2d8202	0.677765
62	0x8010e309	-1.550813e-39
63	0x3f9b7e49	1.2147914
64	0x3f916325	1.1358382
65	0x3f43368f	0.76255125
66	0x3fa1ab46	1.2630394
67	0x80171db1	-2.122868e-39
68	0x80223495	-3.14127e-39
69	0xbbacf60a	-0.0052783536
70	0x3f8fd0d9	1.123561
71	0xb6a078b3	-4.782423e-06
72	0x3f46ee72	0.7770759
73	0x3eca7bf6	0.395477
74	0x3f23ff4a	0.64061415
75	0x800f639c	-1.413266e-39
76	0x800eb097	-1.349045e-39
77	0xb8e44ed2	-0.000108865686
78	0xbb90822d	-0.0044100494
79	0x3fa3f393	1.2808708
80	0x80149901	-1.891597e-39
81	0x04916b08	3.418763e-36
82	0x8014254d	-1.850091e-39
83	0x9e35d542	-9.626161e-21
84	0xac43a4c5	-2.7802632e-12
85	0xbba6c008	-0.00508881
86	0x801071ae	-1.510149e-39
87	0x9624957b	-1.3294982e-25
88	0x3f2037fe	0.6258544
89	0x3f2b91f7	0.670196
90	0xa56436b8	-1.9794387e-16
91	0xb1a94291	-4.926115e-09
92	0x3f80e68b	1.0070356
93	0x3f21a06f	0.6313543
94	0xbb73eaee	-0.0037218886
95	0xbb537226	-0.0032264083
96	0x3ef4e626	0.4783184
97	0x801ef46b	-2.842746e-39
98	0x800f091b	-1.380799e-39
99	0x804334e8	-6.171957e-39
100	0x3f9143ba	1.1348794
101	0x3f2bfce9	0.67182785
102	0xbb8f9c97	-0.0043826806
103	0x3f64f04e	0.89429176
104	0x3f9cf1e0	1.2261314
105	0x80117f19	-1.606797e-39
106	0x3f964921	1.1741067
107	0x00023093	2.01096e-40
108	0x80398986	-5.283957e-39
109	0x3f95d79c	1.1706424
110	0x3eb2fbf7	0.3495786
111	0x80148a2a	-1.886274e-39
112	0x3f9b2f03	1.2123722
113	0xbbab4296	-0.0052264435
114	0xbaa4bfef	-0.0012569408
115	0x3fa654f9	1.2994682
116	0x3ebcb240	0.36854744
117	0x3f9a7d91	1.206957
118	0x3f9c0958	1.2190351
119	0x958442fa	-5.3420046e-26
120	0x800457a1	-3.98777e-40
121	0x00319548	4.553491e-39
122	0x3e78d6e0	0.24300718
123	0x3f37ee4d	0.71847993
124	0x952987bc	-3.4236354e-26
125	0x3f90888d	1.1291672
126	0xb832ad1a	-4.259972e-05
127	0x3fa51857	1.2898053

net.4.0.weight f4 [256, 128]
0	0x831912f6	-4.4984425e-37
1	0x3e94993b	0.29023156
2	0x3f0c7549	0.5486646
3	0x3ead61b1	0.33863595
4	0x3e8f206b	0.2795442
5	0x3f1e5dbe	0.6186179
6	0x0019dcca	2.375092e-39
7	0xb706c24a	-8.032259e-06
8	0x373fd1cb	1.1433333e-05
9	0x0007404f	6.65918e-40
10	0x35237b13	6.090133e-07
11	0x3f33aa9b	0.701822
12	0x3eb73239	0.35780504
13	0x3f3c7426	0.7361473
14	0x3d124c6c	0.035717413
15	0xbab4027f	-0.0013733654
16	0xb451fb6f	-1.9556113e-07
17	0x314b75f2	2.9607432e-09
18	0xba50da7b	-0.00079671264
19	0x001028dc	1.484026e-39
20	0x00076469	6.78869e-40
21	0xb00d346f	-5.1370014e-10
22	0xba677d89	-0.0008830657
23	0x000626c1	5.64915e-40
24	0x3cca751b	0.024714043
25	0x80026ec6	-2.23409e-40
26	0xb8484430	-4.774722e-05
27	0x3aeb783b	0.0017964909
28	0x2e2e4bd4	3.963037e-11
29	0x800f956c	-1.431135e-39
30	0x196d3491	1.22632285e-23
31	0x80164351	-2.04453e-39
32	0x1efc8ff3	2.6741074e-20
33	0x3f2684dd	0.65046483
34	0x3f2804ca	0.6563231
35	0x8007b9b7	-7.0947e-40
36	0x8430ab87	-2.0767462e-36
37	0x3cc55f0a	0.02409317
38	0xb0d3796c	-1.5386781e-09
39	0x80999c4f	-1.4106904e-38
40	0x3f1f2a07	0.62173504
41	0xb58c3ff6	-1.0449428e-06
42	0xb8165a11	-3.5846668e-05
43	0x364e288f	3.072e-06
44	0x3ee56dcd	0.44810334
45	0x3f481950	0.78163624
46	0x3f18fd66	0.59761655
47	0x3f1058c9	0.56385475
48	0x3f0db1e0	0.5534954
49	0x3895b407	7.138406e-05
50	0x3ee6188b	0.449406
51	0x2f11de85	1.3266728e-10
52	0xbab9ddfb	-0.0014180535
53	0xbaeba8e3	-0.0017979409
54	0x1fbc0edf	7.96457e-20
55	0x800288a8	-2.32694e-40
56	0x97964538	-9.710996e-25
57	0x80054b7d	-4.86258e-40
58	0x3ab92275	0.0014124649
59	0x34b3675f	3.341656e-07
60	0x3ede1d8e	0.43381923
61	0x3eb97e62	0.36229235
62	0xacc34226	-5.5495773e-12
63	0x3f568e90	0.83811283
64	0x3f13fe8e	0.57810295
65	0x3ea1bf14	0.31591094
66	0x3f3f157e	0.7464217
67	0x00135173	1.774093e-39
68	0x26c8b62d	1.3927167e-15
69	0xbb8aa4bb	-0.004231063
70	0x3f1d130f	0.61357206
71	0x3a2ae50d	0.00065191166
72	0x3ea8c635	0.3296372
73	0x3cafe892	0.021473203
74	0x3e9880e7	0.29785845
75	0x00152cbd	1.944594e-39
76	0x80006fe8	-4.0144e-41
77	0x3b88c2bc	0.004173605
78	0x3a3e4ee9	0.00072596833
79	0x3f6c00ef	0.92188925
80	0xb811c8b5	-3.4757617e-05
81	0x32337314	1.0445337e-08
82	0x8011932d	-1.614e-39
83	0xba237b57	-0.00062363356
84	0x3a42ab79	0.0007426064
85	0xbade36e0	-0.001695361
86	0x9db56e03	-4.802405e-21
87	0x3b087797	0.0020823234
88	0x3ead3649	0.3383048
89	0x3ea54bfe	0.3228454
90	0x3a423c21	0.00074094726
91	0xbab673e8	-0.0013920041
92	0x3edf02b5	0.43556753
93	0x3e9b1b6f	0.30294368
94	0x39baa34e	0.00035598356
95	0xbb90b049	-0.004415546
96	0x3e8b0cf5	0.27158323
97	0x3105e669	1.948502e-09
98	0x80021561	-1.9134e-40
99	0x00330730	4.686189e-39
100	0x3f10a963	0.56508464
101	0x3eadc3c3	0.33938417
102	0x3baa33c2	0.0051941583
103	0x3ed0dcbe	0.40793413
104	0x3f19a123	0.600115
105	0xa2a9533e	-4.5895678e-18
106	0x3f2eab8a	0.682305
107	0x0004f7b2	4.56198e-40
108	0x8009dd81	-9.0598e-40
109	0x3f29a3f1	0.6626578
110	0x3cb21388	0.021737829
111	0x0015290a	1.943267e-39
112	0x3f3571e1	0.7087689
113	0xbb71ccc4	-0.0036895731
114	0xbb1278ee	-0.0022349912
115	0x3f592f7b	0.84838074
116	0x3ce221a8	0.02760394
117	0x3f1790b2	0.5920516
118	0x3f5ecb51	0.87028986
119	0xb477984f	-2.3059077e-07
120	0x80088ad1	-7.84482e-40
121	0x00354772	4.892911e-39
122	0x3c8f3a87	0.017483963
123	0x3ea56e5e	0.32310766
124	0x383ab30f	4.4512617e-05
125	0x3f263fcb	0.6494109
126	0x39ba5d24	0.0003554608
127	0x3f1cbead	0.6122845
128	0x8285bd56	-1.9651267e-37
129	0x3e9c491b	0.30524525
130	0x3f0d8f29	0.5529657
131	0x3eb1fe3c	0.34764278
132	0x3e979170	0.29603148
133	0x3f1ed24e	0.6203965
134	0x0001dd6c	1.71267e-40
135	0x37b4a4d6	2.153443e-05
136	0xba2fb5e9	-0.0006702827
137	0x1035cdff	3.585465e-29
138	0xb48284fe	-2.4311151e-07
139	0x3f0d07a4	0.55089784
140	0x3f1dab30	0.61589336
141	0x3f02783a	0.509647
142	0xbcf9beb9	-0.030486451
143	0x3aee6fd9	0.0018191292
144	0xa303867f	-7.130005e-18
145	0x39e883c6	0.00044348667
146	0xbbc56f5c	-0.006025238
147	0x2a2293fa	1.443983e-13
148	0x0b341f48	3.4690272e-32
149	0x2e0115a6	2.9350432e-11
150	0x3a80dbd8	0.0009831144
151	0x2970068c	5.3296384e-14
152	0xbcb9c8ff	-0.02267885
153	0x8014215b	-1.848676e-39
154	0xbb65e805	-0.0035080921
155	0xbbd56834	-0.006512666
156	0x3a41511a	0.0007374451
157	0x00222877	3.136923e-39
158	0x80044297	-3.9123e-40
159	0x801941fc	-2.319558e-39
160	0xb4fdf809	-4.7305392e-07
161	0x3f073dcf	0.5282869
162	0x3f087423	0.5330221
163	0x9661fd8e	-1.8255363e-25
164	0x90fe5bac	-1.0032658e-28
165	0xbcd3e692	-0.02586678
166	0x346a51ad	2.1822662e-07
167	0x80f3fd22	-2.2406833e-38
168	0x3f137111	0.575944
169	0x34c70017	3.7066704e-07
170	0x3871421c	5.7520447e-05
171	0x3186713d	3.912787e-09
172	0x3f33a4fc	0.7017362
173	0x3ef1d1bc	0.47230327
174	0x3f40514e	0.7512406
175	0x3ef25e71	0.47337678
176	0x3f295a79	0.66153675
177	0x3baed53b	0.0053354776
178	0x3f31716f	0.6931371
179	0x3837a819	4.3787153e-05
180	0x3adc6322	0.0016814212
181	0x396e2d41	0.00022714307
182	0x131352ed	1.8594894e-27
183	0xa214a22c	-2.0143593e-18
184	0x0002e454	2.6558e-40
185	0x001adec0	2.46763e-39
186	0xb8776eec	-5.8992693e-05
187	0xb94ff029	-0.00019830525
188	0x3f0f0219	0.55862576
189	0x3ec1f043	0.37878618
190	0x13503843	2.628103e-27
191	0x3f16274c	0.5865371
192	0x3f0cd9ed	0.5502003
193	0x3e913694	0.28361952
194	0x3f2133e1	0.62969786
195	0x0001f048	1.78032e-40
196	0x317abac3	3.648595e-09
197	0xbb330eea	-0.0027322122
198	0x3f196638	0.599216
199	0xba031c02	-0.0005001427
200	0x3f1f61b6	0.6225847
201	0xbd0ea0f9	-0.034821484
202	0x3ec88e17	0.39170906
203	0x00090659	8.28797e-40
204	0x80137ea2	-1.790302e-39
205	0xbb613a0b	-0.0034366872
206	0x00083737	7.54491e-40
207	0x3f061d52	0.5238849
208	0xb505b386	-4.98076e-07
209	0xb5c8af51	-1.4952185e-06
210	0x80078682	-6.91101e-40
211	0x27007dec	1.783183e-15
212	0xb7f821d8	-2.9579664e-05
213	0xba451b08	-0.00075189816
214	0x911e9f2b	-1.251305e-28
215	0xb3e2ea08	-1.0566515e-07
216	0x3eb93a2c	0.36177194
217	0x3ecc9332	0.3995605
218	0xba436420	-0.00074535795
219	0xba2c9deb	-0.0006584811
220	0x3f04589d	0.51697713
221	0x3ec1d32d	0.37856427
222	0x3b0145f1	0.0019725526
223	0xbbb4db21	-0.0055192863
224	0x3e9587d6	0.29205197
225	0x32218620	9.40193e-09
226	0xab7d5427	-9.000044e-13
227	0xb7280325	-1.00143125e-05
228	0x3f0d1791	0.55114084
229	0x3ea4a218	0.32154918
230	0x3b2c6ea8	0.0026311073
231	0x3ed3eaa8	0.41389966
232	0x3f386337	0.7202639
233	0x1da7bf0e	4.4402078e-21
234	0x3f2f6ded	0.6852711
235	0x8001fe29	-1.83011e-40
236	0x00230469	3.215824e-39
237	0x3f546a41	0.8297463
238	0xbd04e0af	-0.032440837
239	0x8004c8ee	-4.39422e-40
240	0x3f57a731	0.8423949
241	0xbb00011d	-0.0019531914
242	0xbb3eb14b	-0.0029097374
243	0x3f1c79ac	0.61123157
244	0xbc824133	-0.01590023
245	0x3f4b5cad	0.79438287
246	0x3f32971f	0.6976184
247	0xb784ef78	-1.5847138e-05
248	0x800e7de1	-1.330854e-39
249	0x3412b555	1.3663278e-07
250	0xbd32f491	-0.043690268
251	0x3ebf157d	0.37321082
252	0x378f7c92	1.7104936e-05
253	0x3eed43e6	0.46340865
254	0xbb34f4ed	-0.0027611807
255	0x3f1d9afb	0.61564606
