swarm/minimax/model_0.25/Q-100000.pth (torch, 338387 bytes, 10 tensors)

net.0.0.weight f4 [128, 8]
0	0x0003e4ba	3.57558e-40
1	0x8042f457	-6.148795e-39
2	0x80406ffc	-5.917644e-39
3	0x803500d3	-4.867577e-39
4	0x0007ba44	7.09668e-40
5	0x802f28de	-4.330929e-39
6	0x803d531b	-5.631778e-39
7	0x800cf98c	-1.191547e-39
8	0x802b3dfd	-3.971164e-39
9	0x803d0acc	-5.605838e-39
10	0x80317cf4	-4.544764e-39
11	0x003975bc	5.276858e-39
12	0x803280c2	-4.637964e-39
13	0x800022da	-1.2502e-41
14	0x800843a4	-7.58949e-40
15	0x803370f4	-4.72413e-39
16	0x001162e8	1.596684e-39
17	0x80131deb	-1.755607e-39
18	0x8029a71c	-3.825203e-39
19	0x000f87d8	1.426264e-39
20	0x803ad46b	-5.40266e-39
21	0x8027aa96	-3.642779e-39
22	0x802fdced	-4.395522e-39
23	0x00094886	8.52536e-40
24	0x3da4d9d0	0.08049357
25	0x3dff825a	0.124760345
26	0x3df0c379	0.117560335
27	0x3e130d97	0.14360653
28	0x3de27a34	0.11058465
29	0x3d5569c1	0.052102808
30	0x3df666da	0.12031336
31	0x3db8c7db	0.090224944
32	0x0016bfd3	2.089194e-39
33	0x801bfd00	-2.570318e-39
34	0x803c0c85	-5.514621e-39
35	0x8008d615	-8.11482e-40
36	0x001f88ca	2.895971e-39
37	0x800f3750	-1.397375e-39
38	0x0020ac18	3.000471e-39
39	0x000ab65c	9.83773e-40
40	0x3e0bd882	0.1365681
41	0x3dda9a0d	0.10673914
42	0x3d5678dd	0.052361358
43	0x3df8f7dc	0.121566504
44	0x3e23a488	0.15980732
45	0x3de46e83	0.11153891
46	0x3dab7bc6	0.08373217
47	0x3dc6c76a	0.09706004
48	0x3d9567ce	0.0729519
49	0x3d9f7162	0.07785298
50	0x3e045c95	0.12925942
51	0x3d84bd32	0.06481399
52	0x3ddbd079	0.107331224
53	0x3e05e455	0.13075383
54	0x3e0ec4b7	0.13942228
55	0x3d5b6c82	0.053570278
56	0x3dc6539a	0.096839145
57	0x3d85c658	0.06531972
58	0x3d9020d4	0.070375115
59	0x3d591e5f	0.05300748
60	0x3de1c2c5	0.110234775
61	0x3db69628	0.08915359
62	0x3dcd7539	0.10032124
63	0x3db4e63b	0.088329755
64	0x807a9283	-1.1256489e-38
65	0x807049c9	-1.0312045e-38
66	0x803c2312	-5.52271e-39
67	0x8022d63d	-3.199261e-39
68	0x8039281a	-5.249009e-39
69	0x808c5819	-1.2888573e-38
70	0x801f1de0	-2.857618e-39
71	0x80794709	-1.1137578e-38
72	0x805dc005	-8.609585e-39
73	0x80279f30	-3.63869e-39
74	0x000f5275	1.407112e-39
75	0x807f816e	-1.1709539e-38
76	0x80437973	-6.196546e-39
77	0x003cea10	5.594096e-39
78	0x004c57e0	7.011021e-39
79	0x00511a51	7.448116e-39
80	0x800f4c09	-1.404809e-39
81	0x803db1ba	-5.665722e-39
82	0x803a9897	-5.381198e-39
83	0x80351e7d	-4.878218e-39
84	0x00172115	2.124084e-39
85	0x00303a33	4.428982e-39
86	0x80084408	-7.59089e-40
87	0x00394f2e	5.263028e-39
88	0x3d5635c9	0.052297387
89	0x3d5d16fc	0.053976998
90	0x3d5965a3	0.053075444
91	0x3d701604	0.058614746
92	0x3d59bd8b	0.053159278
93	0x3d571213	0.05250747
94	0x3d6dd906	0.058068298
95	0x3d58f768	0.05297032
96	0x802ba09c	-4.006542e-39
97	0x8040a892	-5.937943e-39
98	0x80181747	-2.212402e-39
99	0x803d687d	-5.639449e-39
100	0x0003bbf9	3.42938e-40
101	0x801ff205	-2.93372e-39
102	0x8019f930	-2.385279e-39
103	0x8039c9b1	-5.306977e-39
104	0x8002eda1	-2.68916e-40
105	0x80007fd9	-4.5863e-41
106	0x80139c6b	-1.800987e-39
107	0x80156a5e	-1.966703e-39
108	0x000ac27d	9.88124e-40
109	0x801e7d39	-2.799986e-39
110	0x80092bbf	-8.42213e-40
111	0x8015fbb8	-2.018845e-39
112	0x800b2a4b	-1.025362e-39
113	0x803721eb	-5.06312e-39
114	0x801b5276	-2.50914e-39
115	0x803870ed	-5.183298e-39
116	0x802a5e71	-3.89097e-39
117	0x0032346e	4.610583e-39
118	0x001ab750	2.453483e-39
119	0x802fbbfe	-4.383707e-39
120	0x3d6f2962	0.058389075
121	0x3d6489c0	0.05579543
122	0x3d7c2eb5	0.06156798
123	0x3dd28769	0.10279734
124	0x3da4cf2a	0.08047326
125	0x3d9a8279	0.07544417
126	0x3dc87bb5	0.0978922
127	0x3d5b4a82	0.053537853
128	0x001155ae	1.59194e-39
129	0x803874f4	-5.184743e-39
130	0x00032a75	2.90737e-40
131	0x001872db	2.245254e-39
132	0x000e6e98	1.32537e-39
133	0x000a8e80	9.69474e-40
134	0x8032e4ef	-4.673901e-39
135	0x803aefc8	-5.412476e-39
136	0x3d9bde2f	0.076107375
137	0x3dcd0b94	0.10011974
138	0x3db93070	0.09042442
139	0x3dbeb276	0.093113825
140	0x3dd3d1ae	0.103427276
141	0x3d7e2d34	0.062054828
142	0x3e05209e	0.13000724
143	0x3d6cfcc5	0.057858247
144	0x800c789f	-1.145297e-39
145	0x8001e632	-1.74414e-40
146	0x801f54f0	-2.87737e-39
147	0x00094981	8.52888e-40
148	0x0007dfe0	7.2316e-40
149	0x80001077	-5.906e-42
150	0x001d573b	2.694522e-39
151	0x8020c46d	-3.0092e-39
152	0x80678960	-9.508337e-39
153	0x80846944	-1.2160048e-38
154	0x8044bb73	-6.312058e-39
155	0x80055338	-4.89031e-40
156	0x804ebf3a	-7.231768e-39
157	0x807f6821	-1.1700462e-38
158	0x800faeeb	-1.440281e-39
159	0x801f4946	-2.873186e-39
160	0x3e02b2f3	0.12763576
161	0x3d1f65a7	0.038915303
162	0x3e1c04bb	0.1523618
163	0x3e3c0f62	0.18365243
164	0x3d7ce9be	0.06174635
165	0x3d0a35d7	0.033742752
166	0x3e052c8e	0.13005278
167	0x3e26443e	0.1623697
168	0x8051eeec	-7.524384e-39
169	0x801adb39	-2.466365e-39
170	0x807b7fae	-1.1341569e-38
171	0x807e8199	-1.1617763e-38
172	0x806f6591	-1.0230175e-38
173	0x00181791	2.212506e-39
174	0x805a772d	-8.307947e-39
175	0x80499e55	-6.76079e-39
176	0x3dee3f44	0.11633161
177	0x3e15e554	0.14638263
178	0x3d92dfb8	0.07171577
179	0x3e182fc6	0.14861974
180	0x3e010d2c	0.12602681
181	0x3dcbbf1b	0.0994856
182	0x3ddebfa9	0.108764
183	0x3d49f993	0.04931028
184	0x3e090be8	0.13383448
185	0x3d6bce16	0.057569586
186	0x3e3887ed	0.18020602
187	0x3e1290eb	0.14313094
188	0x3e0a980d	0.13534565
189	0x3e2f53b3	0.17121772
190	0x3defbb01	0.1170559
191	0x3d9f4ab5	0.07777921
192	0x8027e93f	-3.665257e-39
193	0x000823dd	7.47549e-40
194	0x8018aab4	-2.265289e-39
195	0x80151d20	-1.938994e-39
196	0x001282aa	1.699912e-39
197	0x001ffe0e	2.938038e-39
198	0x802611c8	-3.496128e-39
199	0x000c7557	1.14412e-39
200	0x3d5e195a	0.054223396
201	0x3d652a93	0.055948805
202	0x3d8a83d0	0.067634225
203	0x3d8a1506	0.06742291
204	0x3d7097d7	0.058738556
205	0x3d84296f	0.06453215
206	0x3d7766b8	0.060400695
207	0x3d7fa7be	0.06241583
208	0x3d5d5b06	0.054041885
209	0x3d8aba66	0.06773834
210	0x3da4a8d1	0.08040012
211	0x3dad33d0	0.08457148
212	0x3d90839b	0.07056352
213	0x3d903a0a	0.0704232
214	0x3d8076b5	0.062726416
215	0x3d620ff4	0.055190995
216	0x801da183	-2.721169e-39
217	0x8010f989	-1.558884e-39
218	0x0025aa11	3.458922e-39
219	0x802aa599	-3.916496e-39
220	0x80057986	-5.02772e-40
221	0x80204084	-2.96188e-39
222	0x8009adec	-8.88911e-40
223	0x0006d7f6	6.28485e-40
224	0x3dab855d	0.083750464
225	0x3de6f694	0.112775
226	0x3e0568ec	0.13028306
227	0x3d559e46	0.052152894
228	0x3db65b5c	0.08904144
229	0x3e1a1150	0.15045667
230	0x3e023137	0.12714086
231	0x3d855190	0.065096974
232	0x3e0d4679	0.13796414
233	0x3d0ea079	0.034821007
234	0x3dd8e9c6	0.10591464
235	0x3defb458	0.1170432
236	0x3dd2d648	0.10294777
237	0x3e0e3dc3	0.13890748
238	0x3df2729b	0.118382655
239	0x3d744c17	0.059642877
240	0x800d435d	-1.218027e-39
241	0x0008466b	7.59945e-40
242	0x80362af5	-4.974527e-39
243	0x80320dd0	-4.59673e-39
244	0x0002898f	2.33018e-40
245	0x80193c83	-2.317595e-39
246	0x802924a4	-3.7784e-39
247	0x803bbc9f	-5.485959e-39
248	0x8014d186	-1.911873e-39
249	0x80163eb0	-2.042869e-39
250	0x80091a7f	-8.36024e-40
251	0x80108f4a	-1.52077e-39
252	0x002782b7	3.628476e-39
253	0x8003ad20	-3.37612e-40
254	0x8002bcff	-2.5147e-40
255	0x001fb77a	2.91272e-39

net.0.0.bias f4 [128]
0	0x0008165d	7.42706e-40
1	0x8031a235	-4.558128e-39
2	0x801f67e9	-2.884176e-39
3	0x3e8d8ae9	0.27645043
4	0x8033aeb8	-4.746288e-39
5	0x3eba42e9	0.36379173
6	0x3ec2ba8c	0.3803295
7	0x3e489540	0.19588184
8	0x80406974	-5.915301e-39
9	0x8063f9d7	-9.18134e-39
10	0x801404d6	-1.838445e-39
11	0x3e246bc2	0.16056731
12	0x802151b4	-3.059881e-39
13	0x800ef09c	-1.372011e-39
14	0x800502e2	-4.60212e-40
15	0x3e895c92	0.26828438
16	0x80339e5e	-4.740422e-39
17	0x3ebac081	0.36474994
18	0x802f4976	-4.342621e-39
19	0x8032bb69	-4.659005e-39
20	0x3ea85790	0.32879305
21	0x8039077d	-5.23731e-39
22	0x3ec4f243	0.3846608
23	0x3e9c7e4f	0.30565116
24	0x8034092a	-4.778733e-39
25	0x3e58fba7	0.21189748
26	0x3dfaaa59	0.122395225
27	0x801fc8c1	-2.918917e-39
28	0x3eb53b74	0.35396922
29	0x3eb59909	0.3546832
30	0x80062f46	-5.67971e-40
31	0x8030de5b	-4.48787e-39
32	0x3ed55926	0.41669577
33	0x3e805dd0	0.25071573
34	0x3edbb582	0.42911917
35	0x8001e91c	-1.7546e-40
36	0x00237b7a	3.258537e-39
37	0x3ed296c1	0.4113064
38	0x3e5c99b3	0.21543007
39	0x3ed2fed7	0.41210052
40	0x00106da9	1.508707e-39
41	0x8017faf5	-2.202243e-39
42	0x3e12dacc	0.14341277
43	0x80087b74	-7.7897e-40
44	0x3e8efde9	0.27928093
45	0x3ec6f5e8	0.38859487
46	0x8046eba1	-6.513012e-39
47	0x8010c51c	-1.540077e-39
48	0x3e88f1fb	0.26747116
49	0x001d0317	2.664338e-39
50	0x3ee0b949	0.4389136
51	0x8025ad29	-3.460032e-39
52	0x801191d3	-1.613515e-39
53	0x8007cc70	-7.16187e-40
54	0x3ed7eeec	0.4217447
55	0x3e56d720	0.20980501
56	0x3e73c326	0.23804912
57	0x802e42d1	-4.248402e-39
58	0x3e574e5a	0.21025982
59	0x8015f042	-2.014734e-39
60	0x3e932610	0.28739977
61	0x3e9c1410	0.30484056
62	0x3e4584cf	0.19288944
63	0x3e0d7372	0.1381357
64	0x80269bed	-3.545684e-39
65	0x803dd20d	-5.677317e-39
66	0x801aad8d	-2.449981e-39
67	0x3eb19930	0.34687185
68	0x8029067d	-3.767583e-39
69	0x3eb47eee	0.3525309
70	0x803b3b3d	-5.439545e-39
71	0x0002066a	1.85972e-40
72	0x8034215d	-4.787414e-39
73	0x8024f876	-3.395209e-39
74	0x3e180528	0.14845717
75	0x3e0a017f	0.13477133
76	0x3e103ad0	0.14084935
77	0x00008e27	5.0995e-41
78	0x3edbad0b	0.4290546
79	0x3eb7b2da	0.3587864
80	0x804b5e0f	-6.921404e-39
81	0x3e8b1da6	0.27171057
82	0x80247ed1	-3.351571e-39
83	0x802d006f	-4.132753e-39
84	0x3e8a1663	0.26970205
85	0x3dea2278	0.11432356
86	0x8005fc37	-5.49655e-40
87	0x801e889b	-2.80407e-39
88	0x80172527	-2.125544e-39
89	0x3e8e911d	0.27845088
90	0x80257fef	-3.443807e-39
91	0x8001b246	-1.55788e-40
92	0x3e5498c7	0.20761405
93	0x80010083	-9.2019e-41
94	0x8012d365	-1.728873e-39
95	0x80112bce	-1.576918e-39
96	0x8054df33	-7.79425e-39
97	0x800dc3a9	-1.264051e-39
98	0x80279caa	-3.637785e-39
99	0x3e25997c	0.16171831
100	0x80312f24	-4.51685e-39
101	0x80321f40	-4.602985e-39
102	0x00153bc0	1.94998e-39
103	0x802ceb60	-4.125198e-39
104	0x3e959d97	0.29221794
105	0x801aaa53	-2.448824e-39
106	0x8018da51	-2.282369e-39
107	0x3eabfe47	0.33592436
108	0x3e417966	0.18893966
109	0x3ee424a6	0.4455921
110	0x805b33b0	-8.375572e-39
111	0x0003500b	3.0422e-40
112	0x3e0797b8	0.1324147
113	0x3e3ae44b	0.1825115
114	0x3ec8b660	0.3920164
115	0x8013abfe	-1.806574e-39
116	0x3dfde110	0.12396443
117	0x3e99b973	0.300243
118	0x80064f79	-5.79522e-40
119	0x002b6561	3.985294e-39
120	0x3ea6777b	0.3251303
121	0x00135735	1.776158e-39
122	0x3e1e31cd	0.15448685
123	0x800cd955	-1.17999e-39
124	0x3e6d736b	0.2318856
125	0x8016c51a	-2.091088e-39
126	0x3e9a2440	0.30105782
127	0x801291fd	-1.70541e-39

net.1.0.weight f4 [128, 128]
0	0x025c2e23	1.6176288e-37
1	0x01cef0fe	7.6018256e-38
2	0x8035d769	-4.944556e-39
3	0x0048ea9f	6.696322e-39
4	0x80027413	-2.2531e-40
5	0x80131c3e	-1.755006e-39
6	0x8046316c	-6.446214e-39
7	0x802b1668	-3.956964e-39
8	0x800aa010	-9.75775e-40
9	0x0014dcba	1.915892e-39
10	0x8025c129	-3.467206e-39
11	0x00138a62	1.794517e-39
12	0x000271da	2.24513e-40
13	0x00483be5	6.633642e-39
14	0x001195b5	1.614908e-39
15	0x0007bc55	7.10409e-40
16	0x000be205	1.091271e-39
17	0x8037982f	-5.105545e-39
18	0x8002e38e	-2.65302e-40
19	0x80014bb6	-1.18995e-40
20	0x8037198f	-5.060121e-39
21	0x0006cfd4	6.25568e-40
22	0x002f785e	4.359448e-39
23	0x800ef793	-1.37451e-39
24	0x000c665c	1.138746e-39
25	0x8039e561	-5.316909e-39
26	0x0019e125	2.376654e-39
27	0x8040beac	-5.945872e-39
28	0x00190086	2.296075e-39
29	0x80219b6f	-3.08633e-39
30	0x8044ab46	-6.306255e-39
31	0x8001d7b7	-1.6922e-40
32	0x8046af1d	-6.491304e-39
33	0x800bbd7d	-1.078166e-39
34	0x80056b3c	-4.97646e-40
35	0x8039b2d8	-5.29878e-39
36	0x8197d3da	-5.577263e-38
37	0x001e7e47	2.800365e-39
38	0x0011db75	1.63993e-39
39	0x0017ec16	2.196908e-39
40	0x002c88d0	4.089841e-39
41	0x80312c6b	-4.515873e-39
42	0x801df4be	-2.751026e-39
43	0x80454e27	-6.364685e-39
44	0x00140a9c	1.840516e-39
45	0x0000c8c9	7.2028e-41
46	0x803f4ebc	-5.813881e-39
47	0x8000e97b	-8.3757e-41
48	0x0006f479	6.38713e-40
49	0x0036e1cb	5.040116e-39
50	0x000b0a31	1.013846e-39
51	0x0005fc89	5.4977e-40
52	0x002182c5	3.077483e-39
53	0x002a7f42	3.902742e-39
54	0x0026dcb6	3.568925e-39
55	0x8005e046	-5.39632e-40
56	0x002777f0	3.62461e-39
57	0x800a0f39	-9.23816e-40
58	0x004879c8	6.655843e-39
59	0x0002dc4b	2.62697e-40
60	0x8031ce7c	-4.574012e-39
61	0x002b36f4	3.96864e-39
62	0x001b1fe5	2.491e-39
63	0x00088801	7.83473e-40
64	0x802d5fa6	-4.16691e-39
65	0x8024e125	-3.386845e-39
66	0x800648a1	-5.77067e-40
67	0x80375bdf	-5.08391e-39
68	0x802bc6ff	-4.020313e-39
69	0x802d462a	-4.157767e-39
70	0x001283fe	1.700389e-39
71	0x018b2f1e	5.1128146e-38
72	0x802aa7fa	-3.91735e-39
73	0x001f5489	2.877226e-39
74	0x000ad962	9.96337e-40
75	0x803ac899	-5.39842e-39
76	0x8013ff4b	-1.836456e-39
77	0x001387ba	1.793564e-39
78	0x80275cb9	-3.614847e-39
79	0x802b216b	-3.960914e-39
80	0x803f69ea	-5.823631e-39
81	0x00272670	3.595373e-39
82	0x00151efc	1.93966e-39
83	0x800327b5	-2.8975e-40
84	0x00195d8c	2.329446e-39
85	0x8037f2e9	-5.138092e-39
86	0x001d763a	2.705641e-39
87	0x001728af	2.126811e-39
88	0x00049270	4.19874e-40
89	0x00356627	4.903927e-39
90	0x8017c1d0	-2.181743e-39
91	0x002b0747	3.951537e-39
92	0x801ca7d6	-2.631602e-39
93	0x00303d05	4.429993e-39
94	0x80479550	-6.573883e-39
95	0x8009cb03	-8.99346e-40
96	0x81bdfccf	-6.97904e-38
97	0x8002fd2d	-2.74493e-40
98	0x01f6ce3a	9.066205e-38
99	0x80306328	-4.443674e-39
100	0x00496eff	6.743809e-39
101	0x8011eda0	-1.646447e-39
102	0x8046c9f7	-6.500936e-39
103	0x001b74a4	2.521401e-39
104	0x0009f3db	9.13998e-40
105	0x80267e83	-3.535133e-39
106	0x802c8dc5	-4.091619e-39
107	0x80218f11	-3.081894e-39
108	0x0046e8b8	6.511968e-39
109	0x801a0736	-2.39031e-39
110	0x80271fb0	-3.592952e-39
111	0x801824f1	-2.217304e-39
112	0x8019e193	-2.376808e-39
113	0x00316ca6	4.538915e-39
114	0x0013b5af	1.81005e-39
115	0x001c309f	2.588836e-39
116	0x003513e6	4.87442e-39
117	0x8017e0f9	-2.192921e-39
118	0x8043b5b6	-6.218164e-39
119	0x00417291	6.010406e-39
120	0x803d14d9	-5.609444e-39
121	0x00372df0	5.067432e-39
122	0x80129478	-1.7063e-39
123	0x002adc21	3.936058e-39
124	0x0041e0bc	6.049927e-39
125	0x8164ba3c	-4.2010603e-38
126	0x00125c76	1.686208e-39
127	0x8022441d	-3.146841e-39
128	0x803c08bb	-5.513262e-39
129	0x8008451d	-7.59477e-40
130	0x803400d2	-4.77574e-39
131	0x3d75c200	0.059999466
132	0x0032ee1e	4.677195e-39
133	0x3d874293	0.06604495
134	0x3d8617ff	0.06547546
135	0x3d508ec6	0.05091741
136	0x805604f1	-7.899625e-39
137	0x004bc298	6.957469e-39
138	0x8006a0de	-6.08721e-40
139	0x3d13c7ab	0.03607909
140	0x000398b4	3.30286e-40
141	0x8002a3ae	-2.42388e-40
142	0x001427f6	1.851045e-39
143	0x3d6d0de7	0.057874586
144	0x80112cfb	-1.57734e-39
145	0x3daf159a	0.08549042
146	0x803b3b89	-5.439651e-39
147	0x003a0b79	5.330574e-39
148	0x3d94aa59	0.07259054
149	0x80187795	-2.24695e-39
150	0x3d99d7c6	0.07511859
151	0x3db2d471	0.08731926
152	0x0018fbe9	2.29442e-39
153	0x3d377993	0.044793677
154	0x3d115293	0.03547914
155	0x0039fd20	5.325427e-39
156	0x3d82b338	0.063818395
157	0x3d858cce	0.06520997
158	0x803ea201	-5.751917e-39
159	0x80398237	-5.281336e-39
160	0x3da95fbf	0.08270215
161	0x3d5106c8	0.051031858
162	0x3dc4501c	0.09585592
163	0x00304172	4.431581e-39
164	0x80072238	-6.55124e-40
165	0x3d85b9cc	0.065295786
166	0x3d3a14f5	0.045430142
167	0x3da41238	0.080112875
168	0x002a4caf	3.8846e-39
169	0x800e8617	-1.3338e-39
170	0x3d2ebd81	0.042661194
171	0x80182684	-2.217869e-39
172	0x3d815cd3	0.06316533
173	0x3dd8460e	0.10560237
174	0x802091a7	-2.990986e-39
175	0x800b5e96	-1.044121e-39
176	0x3d750d53	0.05982716
177	0x00486433	6.6481e-39
178	0x3dc64e0a	0.096828535
179	0x00237d0f	3.259105e-39
180	0x0086d1b0	1.2381178e-38
181	0x001275c4	1.695285e-39
182	0x3dc6969e	0.09696697
183	0x3d810a7a	0.06300826
184	0x3d5c3c83	0.053768646
185	0x80254c0d	-3.425195e-39
186	0x3d3aad5b	0.04557548
187	0x8047ebdd	-6.604932e-39
188	0x3d95fab4	0.073232085
189	0x3d785782	0.06063033
190	0x3d2d8df3	0.0423717
191	0x3d1378a7	0.036003735
192	0x8005f3b8	-5.46607e-40
193	0x002a5697	3.888153e-39
194	0x8005288a	-4.7372e-40
195	0x3da49d4d	0.08037815
196	0x000cf73e	1.19072e-39
197	0x3d8d681b	0.06904622
198	0x80084291	-7.58563e-40
199	0x00329df4	4.648438e-39
200	0x0027660b	3.61819e-39
201	0x80349a18	-4.830724e-39
202	0x3d110cca	0.035412587
203	0x3d13992a	0.03603474
204	0x3d1ca56b	0.038243692
205	0x00022d4b	1.99919e-40
206	0x3dbe7a3b	0.09300657
207	0x3db62c3b	0.08895155
208	0x00628df4	9.050802e-39
209	0x3d7eaa55	0.06217416
210	0x0068e3f4	9.632666e-39
211	0x00199113	2.34793e-39
212	0x3da4b3c0	0.08042097
213	0x3cd3cc3c	0.025854222
214	0x0018664b	2.240748e-39
215	0x80423893	-6.081438e-39
216	0x0029b5e9	3.830512e-39
217	0x3d9213cf	0.071326844
218	0x0028f6a9	3.761905e-39
219	0x0032168f	4.599867e-39
220	0x3d4c88a8	0.049935013
221	0x002080a7	2.984888e-39
222	0x0019a8e5	2.356475e-39
223	0x804a052a	-6.797679e-39
224	0x802a4eae	-3.885316e-39
225	0x00070587	6.44831e-40
226	0x00168661	2.068587e-39
227	0x3d23ca34	0.039987758
228	0x800d47d4	-1.219629e-39
229	0x002babe4	4.010589e-39
230	0x00217ff4	3.076472e-39
231	0x0044ae9a	6.307449e-39
232	0x3d9a6f57	0.07540768
233	0x8014e829	-1.919993e-39
234	0x802c980e	-4.095309e-39
235	0x3da0e72d	0.07856593
236	0x3d2d2a96	0.04227694
237	0x3dbbcb11	0.09169591
238	0x80482613	-6.625814e-39
239	0x00003efa	2.2592e-41
240	0x3d0f7dfd	0.03503226
241	0x3d4589e2	0.0482272
242	0x3d80c612	0.06287779
243	0x800bbcaa	-1.07787e-39
244	0x3ced09fb	0.028935423
245	0x3d7cda2f	0.061731514
246	0x80064653	-5.7624e-40
247	0x0019fce3	2.386606e-39
248	0x3da2da25	0.07951764
249	0x0027dfc2	3.661854e-39
250	0x3d0dc8c1	0.034615282
251	0x0007265e	6.56612e-40
252	0x3d48dd2f	0.049039062
253	0x00211523	3.038154e-39
254	0x3d736884	0.059425846
255	0x8003a483	-3.34522e-40

net.1.0.bias f4 [128]
0	0x800baecd	-1.072897e-39
1	0x3e0e8624	0.13918358
2	0x3e1a163f	0.15047549
3	0x802377dc	-3.25724e-39
4	0x3ded7005	0.11593632
5	0x804d57d7	-7.102844e-39
6	0x80117ad6	-1.605269e-39
7	0x3e040b6d	0.12894984
8	0x3dd0b108	0.10190016
9	0x3e28dd83	0.1649075
10	0x002c4dcd	4.068671e-39
11	0x3dd753b5	0.10514013
12	0x8007125c	-6.49435e-40
13	0x00154632	1.953727e-39
14	0x3dcfd4e6	0.10148029
15	0x3e0fee90	0.14055848
16	0x3e03211c	0.12805599
17	0x8020b600	-3.004025e-39
18	0x3e0e560d	0.13900013
19	0x3d8cf198	0.06882018
20	0x3df72370	0.12067306
21	0x3deb9402	0.115028396
22	0x3dd0376e	0.101668224
23	0x003f585b	5.817332e-39
24	0x3df85b57	0.12126797
25	0x3dd2d761	0.102949865
26	0x800becee	-1.095185e-39
27	0x3cfb5437	0.030679805
28	0x3dd17534	0.10227433
29	0x802e175e	-4.232815e-39
30	0x3dd9e028	0.106384575
31	0x3deb118e	0.11477958
32	0x3dfc1d4c	0.123102754
33	0x3e048b35	0.12943728
34	0x3def459c	0.11683199
35	0x3d37fb17	0.044917192
36	0x3df44910	0.11927998
37	0x000ceea6	1.187637e-39
38	0x80110874	-1.564236e-39
39	0x000fb65b	1.442949e-39
40	0x801a9ebd	-2.444667e-39
41	0x800ccfa8	-1.176519e-39
42	0x80275e8e	-3.615504e-39
43	0x3dc4b2b9	0.09604401
44	0x80227b99	-3.166745e-39
45	0x000863dc	7.70507e-40
46	0x3db335c2	0.08750488
47	0x80253512	-3.416951e-39
48	0x3d9c689b	0.076371394
49	0x3e006f5b	0.12542479
50	0x0030da06	4.486316e-39
51	0x002967c1	3.802475e-39
52	0x0020634d	2.974358e-39
53	0x0004dbd9	4.46208e-40
54	0x3dc67cc5	0.09691767
55	0x001cec49	2.656157e-39
56	0x3dd73780	0.10508633
57	0x000aa587	9.77735e-40
58	0x0020fb3d	3.028863e-39
59	0x3de6fa0f	0.11278164
60	0x3dd595d5	0.10428969
61	0x3e0f59ec	0.13999146
62	0x0015e52b	2.010755e-39
63	0x3dcde540	0.100534916
64	0x3dcc48e3	0.099748395
65	0x3df3a9e4	0.118976384
66	0x3df52139	0.11969227
67	0x801ea76f	-2.815129e-39
68	0x8012ae5e	-1.71559e-39
69	0x3e2c5bae	0.16831848
70	0x3e1e5d2e	0.15465233
71	0x80214be7	-3.0578e-39
72	0x80323951	-4.612336e-39
73	0x3d99e801	0.07514954
74	0x003ff150	5.872203e-39
75	0x3e0b2bde	0.13590953
76	0x801f5806	-2.878477e-39
77	0x0005d2d2	5.34806e-40
78	0x3cf9ff58	0.030517265
79	0x3db717ac	0.08940062
80	0x003437cb	4.79546e-39
81	0x3e0d4d94	0.13799125
82	0x8028c90d	-3.745543e-39
83	0x80104b5a	-1.496399e-39
84	0x0019836f	2.343037e-39
85	0x8029e598	-3.847618e-39
86	0x800b4227	-1.033921e-39
87	0x3e2b6a83	0.1673985
88	0x3d5c7279	0.053820107
89	0x80085fae	-7.69007e-40
90	0x3dc49a8d	0.09599791
91	0x8007f390	-7.30222e-40
92	0x803254e2	-4.622225e-39
93	0x800ee88d	-1.36912e-39
94	0x8020a535	-2.998001e-39
95	0x000f1f30	1.38872e-39
96	0x3e1e0a91	0.15433718
97	0x800cb4a9	-1.166835e-39
98	0x3e2e7ec0	0.17040539
99	0x3dd45954	0.103686005
100	0x0014c4a7	1.907255e-39
101	0x3e127ef5	0.14306243
102	0x801f76cc	-2.889517e-39
103	0x8005ed92	-5.44402e-40
104	0x801662ea	-2.055865e-39
105	0x3dca7d8b	0.09887227
106	0x3dfa3ad5	0.122182526
107	0x001b6a6d	2.517737e-39
108	0x3dbd0f5d	0.09231446
109	0x3e0eea52	0.13956574
110	0x3df9b36c	0.12192425
111	0x3e0c6aaa	0.13712564
112	0x3dea5bde	0.114433035
113	0x000714a8	6.50259e-40
114	0x8032b80c	-4.657798e-39
115	0x801e7226	-2.796014e-39
116	0x3e0c83ab	0.13722102
117	0x80192cd0	-2.311963e-39
118	0x00164258	2.04418e-39
119	0x3e2fb080	0.17157173
120	0x3e14f6ce	0.14547274
121	0x3e295410	0.16535974
122	0x3e240705	0.16018303
123	0x801164d3	-1.597372e-39
124	0x3ddd938d	0.10819159
125	0x3d94c787	0.07264619
126	0x3de649e4	0.11244562
127	0x001a9c85	2.443872e-39

net.2.0.weight f4 [128, 128]
0	0x00203584	2.957934e-39
1	0x3db7dfc7	0.08978229
2	0x3ddf28ba	0.1089644
3	0x801f8915	-2.896076e-39
4	0x3dba4971	0.09096039
5	0x805218b6	-7.539375e-39
6	0x803d99ed	-5.657183e-39
7	0x3d8c5546	0.06852202
8	0x3d6a8bda	0.05726228
9	0x3e032b78	0.12809551
10	0x8019522b	-2.325364e-39
11	0x3d601835	0.054710586
12	0x803381b6	-4.730142e-39
13	0x80161c5e	-2.030557e-39
14	0x3dbdab4e	0.092611894
15	0x3dc160d9	0.094423
16	0x3da4b9bd	0.08043239
17	0x00046f63	4.073e-40
18	0x3d8a835b	0.06763335
19	0x3d224696	0.039618097
20	0x3db0a738	0.086256444
21	0x3da7ea87	0.081990294
22	0x3d9890e3	0.0744951
23	0x003616e4	4.967328e-39
24	0x3d8e6d62	0.06954457
25	0x3d690835	0.056892592
26	0x002edb02	4.302998e-39
27	0x3c944985	0.018101463
28	0x3d86eb06	0.06587796
29	0x800f26c9	-1.391446e-39
30	0x3db13f63	0.08654668
31	0x3db18e25	0.0866969
32	0x3d9f9d86	0.07793717
33	0x3dad6d94	0.08468166
34	0x3de23c01	0.11046601
35	0x3cdbafcc	0.026817225
36	0x3d9b64bd	0.07587574
37	0x002b6bbd	3.987576e-39
38	0x0034c43c	4.845841e-39
39	0x0042a7dc	6.12136e-39
40	0x8017fd31	-2.203044e-39
41	0x8006a56a	-6.10352e-40
42	0x80103701	-1.4891e-39
43	0x3d876d23	0.06612613
44	0x00041668	3.7538e-40
45	0x800bafe3	-1.073287e-39
46	0x3d552760	0.052039504
47	0x00161812	2.029016e-39
48	0x3d4074aa	0.04698626
49	0x3de5b616	0.11216371
50	0x000bfefa	1.101659e-39
51	0x00252953	3.412738e-39
52	0x8007d448	-7.19e-40
53	0x803e09cc	-5.697315e-39
54	0x3d553f42	0.05206228
55	0x0005d0ee	5.34127e-40
56	0x3d898712	0.06715216
57	0x801ecc3f	-2.828335e-39
58	0x0028e4e4	3.75553e-39
59	0x3da2a12b	0.079408966
60	0x3db3e88d	0.0878459
61	0x3dc9cc28	0.09853393
62	0x803e8e26	-5.744794e-39
63	0x3dcfcf2e	0.10146938
64	0x3d8af760	0.06785464
65	0x3da12d00	0.07869911
66	0x3dd0d259	0.10196371
67	0x00140318	1.83782e-39
68	0x0023f375	3.301578e-39
69	0x3d9fda77	0.07805341
70	0x3de983a4	0.114020616
71	0x0006d30e	6.26725e-40
72	0x002ca449	4.099696e-39
73	0x3d37a196	0.044831835
74	0x003e6507	5.730043e-39
75	0x3db18713	0.086683415
76	0x802b4082	-3.972067e-39
77	0x8009ef7e	-9.12433e-40
78	0x3c943f7f	0.018096684
79	0x3d8279a3	0.063708566
80	0x002d6311	4.168136e-39
81	0x3da5a7d9	0.08088655
82	0x8015ef28	-2.014339e-39
83	0x8010659e	-1.505821e-39
84	0x800ca2a8	-1.160376e-39
85	0x002314ac	3.221658e-39
86	0x000ce2d4	1.183397e-39
87	0x3dae514a	0.085115984
88	0x3d091990	0.033471644
89	0x002fd83f	4.393843e-39
90	0x3d84dbdf	0.064872496
91	0x00156ee0	1.96832e-39
92	0x801f98ba	-2.901688e-39
93	0x00013870	1.12081e-40
94	0x000a944d	9.71555e-40
95	0x8034b34b	-4.839764e-39
96	0x3db7f46f	0.08982169
97	0x003444cd	4.800127e-39
98	0x3da7e94e	0.08198796
99	0x3dc2659e	0.09492038
100	0x80333783	-4.703524e-39
101	0x3dab0bc6	0.08351855
102	0x000be0ed	1.090879e-39
103	0x0036c99f	5.031445e-39
104	0x00248dbf	3.356927e-39
105	0x3d52c038	0.051452845
106	0x3d8fe4ca	0.0702606
107	0x800d6e04	-1.233328e-39
108	0x3d88c98a	0.066790655
109	0x3db8052c	0.089853615
110	0x3d82e512	0.06391348
111	0x3db94723	0.090467714
112	0x3db5ed0e	0.08883105
113	0x000fad80	1.439773e-39
114	0x0013cb52	1.817812e-39
115	0x8017e2ea	-2.193618e-39
116	0x3d8f1de2	0.069881216
117	0x0004f154	4.53914e-40
118	0x802a4292	-3.880972e-39
119	0x3daf0877	0.085465364
120	0x3dba085b	0.09083625
121	0x3daaf9ee	0.083484516
122	0x3de10aa4	0.10988358
123	0x0014bd6c	1.904662e-39
124	0x3d7cebca	0.061748303
125	0x3d3e556d	0.046468187
126	0x3d9d8651	0.076916344
127	0x8002b8d1	-2.4997e-40
128	0x80410c46	-5.97371e-39
129	0x3d5f6c1c	0.05454646
130	0x3d743ae7	0.059626486
131	0x80321939	-4.600823e-39
132	0x3d864958	0.06556958
133	0x80661a4e	-9.376657e-39
134	0x000102d7	9.2854e-41
135	0x3d5a397b	0.053277474
136	0x3d27a623	0.040929925
137	0x3d9ef90a	0.07762344
138	0x800a1250	-9.24924e-40
139	0x3d272e4c	0.040815637
140	0x002cc317	4.110747e-39
141	0x8023a861	-3.274645e-39
142	0x3d8f22a1	0.06989027
143	0x3d74d767	0.059775736
144	0x3d6937f1	0.056938116
145	0x0023fcb3	3.304894e-39
146	0x3d618924	0.055062428
147	0x3ce2cbfd	0.02768516
148	0x3d7db2aa	0.061937965
149	0x3d529540	0.051411867
150	0x3d5d07b6	0.05396243
151	0x80316775	-4.537053e-39
152	0x3d500661	0.050787333
153	0x3d28b23c	0.041185603
154	0x00282e3c	3.690006e-39
155	0x3c4ee9de	0.0126290005
156	0x3d33b5f2	0.04387469
157	0x8037b96c	-5.117469e-39
158	0x3d5c789b	0.053825956
159	0x3d6a878b	0.05725817
160	0x3d4fb527	0.05070987
161	0x3d82d768	0.06388742
162	0x3d7a639f	0.061130162
163	0x3c998703	0.018741136
164	0x3d7f96b9	0.0623996
165	0x0036639c	4.99485e-39
166	0x800a9aa4	-9.7383e-40
167	0x001848fb	2.230232e-39
168	0x8033b28b	-4.74766e-39
169	0x001a5158	2.416904e-39
170	0x80226e97	-3.162079e-39
171	0x3d3e9a77	0.046534028
172	0x8021d917	-3.108449e-39
173	0x000e4dac	1.31356e-39
174	0x3d179099	0.037003133
175	0x003aa7d3	5.386663e-39
176	0x3d061789	0.03273729
177	0x3d8fab23	0.070150636
178	0x800550b0	-4.88123e-40
179	0x8041d64d	-6.046184e-39
180	0x0013dbe7	1.82376e-39
181	0x0026b4b3	3.554572e-39
182	0x3d187afe	0.03722667
183	0x8015a426	-1.987431e-39
184	0x3d4a329b	0.049364667
185	0x000b8af9	1.060044e-39
186	0x803ed08f	-5.768617e-39
187	0x3d531c41	0.051540617
188	0x3d660f29	0.0561668
189	0x3d69961b	0.057027917
190	0x80306818	-4.445446e-39
191	0x3d746a08	0.05967143
192	0x3d47c46e	0.048771314
193	0x3d45319f	0.048143025
194	0x3d9a4aa4	0.07533768
195	0x800837f8	-7.54762e-40
196	0x001750f9	2.141264e-39
197	0x3d893b10	0.067007184
198	0x3d6db9a4	0.05803837
199	0x80249456	-3.359291e-39
200	0x0019fcbc	2.386551e-39
201	0x3d0046a9	0.031317387
202	0x80285fc5	-3.707775e-39
203	0x3d596d30	0.053082645
204	0x802fa12e	-4.374089e-39
205	0x802f176d	-4.324672e-39
206	0x3c4ed728	0.012624539
207	0x3d388b47	0.0450547
208	0x0011026e	1.562075e-39
209	0x3d6096bd	0.054831255
210	0x8009b842	-8.92619e-40
211	0x0007ee0c	7.28244e-40
212	0x001a5479	2.418026e-39
213	0x001b572d	2.510831e-39
214	0x001a0972	2.391111e-39
215	0x3d83e9a5	0.064410485
216	0x3cbf7c32	0.02337465
217	0x002a0f83	3.862655e-39
218	0x3d2e3015	0.042526323
219	0x001bec58	2.564343e-39
220	0x8024dcdc	-3.385307e-39
221	0x002c0216	4.04151e-39
222	0x000a5edb	9.52383e-40
223	0x002a9924	3.912027e-39
224	0x3d844dc8	0.06460148
225	0x8009ade1	-8.88895e-40
226	0x3da8139d	0.08206866
227	0x3d7135aa	0.05888907
228	0x0041c3af	6.039505e-39
229	0x3d6840ae	0.05670231
230	0x0035f545	4.955267e-39
231	0x003417b0	4.783943e-39
232	0x8017aa17	-2.173233e-39
233	0x3d17d7a7	0.037070896
234	0x3d59fc47	0.053219106
235	0x80308b36	-4.458043e-39
236	0x3d37fe51	0.04492027
237	0x3d56f03e	0.052475207
238	0x3d565856	0.052330337
239	0x3d66b018	0.05632028
240	0x3d5f17c2	0.054466017
241	0x8006ba96	-6.17947e-40
242	0x00271af8	3.591259e-39
243	0x0010d870	1.547011e-39
244	0x3d660af0	0.056162775
245	0x002fee6e	4.401801e-39
246	0x001e11fa	2.761514e-39
247	0x3d912fbd	0.070891835
248	0x3d5a85c2	0.053350218
249	0x3d67721f	0.05650532
250	0x3d866e19	0.06563968
251	0x001bc101	2.548795e-39
252	0x3d41c1cb	0.047303956
253	0x3d04aa31	0.03238887
254	0x3d5d8511	0.05408198
255	0x802487c7	-3.354786e-39

net.2.0.bias f4 [128]
0	0x3d7be757	0.06149992
1	0x3d1ea63d	0.038732756
2	0x802f96d7	-4.37038e-39
3	0x800ab8d8	-9.84664e-40
4	0x3d84fd65	0.06493644
5	0x3d8adb69	0.067801304
6	0x3d6aaf1a	0.057295896
7	0x8016d10f	-2.095377e-39
8	0x80237274	-3.2553e-39
9	0x804fb289	-7.31905e-39
10	0x3ce0b80c	0.02743151
11	0x80089d13	-7.91032e-40
12	0x3d7d9aa6	0.061915062
13	0x802fe169	-4.39713e-39
14	0x80127335	-1.694367e-39
15	0x00212562	3.043982e-39
16	0x3d317a3b	0.04332946
17	0x3d393640	0.045217752
18	0x001820ea	2.215859e-39
19	0x3d0442c1	0.032290224
20	0x802a7633	-3.899493e-39
21	0x3d39d893	0.045372557
22	0x3cd60344	0.026124604
23	0x80365b5b	-4.991889e-39
24	0x8038895b	-5.192062e-39
25	0x3d60fb04	0.054926887
26	0x80197979	-2.339464e-39
27	0x80178ab9	-2.161981e-39
28	0x3c6877cd	0.014188719
29	0x3d5d749f	0.054066297
30	0x802c7918	-4.084202e-39
31	0x3d0cdfb8	0.034393042
32	0x3d19d5c4	0.03755738
33	0x804632e6	-6.446744e-39
34	0x8009b9fd	-8.9324e-40
35	0x801241e9	-1.676683e-39
36	0x3c8fcc30	0.017553419
37	0x3d0cc973	0.034371804
38	0x3d1915c7	0.037374284
39	0x0007637f	6.78541e-40
40	0x8022e4ac	-3.204439e-39
41	0x80113530	-1.580284e-39
42	0x3d3419fc	0.043970093
43	0x3c9a4660	0.018832386
44	0x803199ec	-4.555156e-39
45	0x3cc138ae	0.023586597
46	0x801e1b26	-2.764804e-39
47	0x802c2b6c	-4.056339e-39
48	0x3d270628	0.040777355
49	0x3d27fb82	0.04101134
50	0x8033f28e	-4.770623e-39
51	0x800a0f99	-9.2395e-40
52	0x801a969b	-2.44175e-39
53	0x3d56a818	0.0524064
54	0x8013f14f	-1.83144e-39
55	0x802259cd	-3.154621e-39
56	0x3d23e996	0.040017687
57	0x80117731	-1.603961e-39
58	0x3d4e7811	0.050407473
59	0x803772dc	-5.092156e-39
60	0x80376d02	-5.090057e-39
61	0x3d87b96c	0.06627163
62	0x8030c97c	-4.480383e-39
63	0x3d1ba9ed	0.03800385
64	0x00058972	5.08484e-40
65	0x3cf9d9ba	0.030499328
66	0x3ce988d4	0.028507628
67	0x3ce14a7b	0.027501335
68	0x3d19b341	0.037524465
69	0x8025b5c6	-3.463121e-39
70	0x3d826fa3	0.06368949
71	0x000eeab8	1.369898e-39
72	0x3cbaebd5	0.022817532
73	0x8033dd10	-4.762913e-39
74	0x803c091f	-5.513402e-39
75	0x3d3d3e6f	0.04620212
76	0x3c123155	0.0089228945
77	0x000bc258	1.079908e-39
78	0x3c417939	0.011808687
79	0x3d26a379	0.040683243
80	0x80259716	-3.452113e-39
81	0x3d030663	0.031988513
82	0x3d864538	0.06556171
83	0x80285753	-3.704746e-39
84	0x3d710d64	0.05885066
85	0x3d4bc600	0.049749374
86	0x00144e41	1.864782e-39
87	0x3d52284b	0.051307958
88	0x80085d2d	-7.68109e-40
89	0x3d2677cf	0.040641602
90	0x80329623	-4.645634e-39
91	0x3d20f496	0.039295755
92	0x80422240	-6.07343e-39
93	0x3ce82e3d	0.02834236
94	0x3d5823da	0.052768566
95	0x3d46b89b	0.048515897
96	0x803483fb	-4.822791e-39
97	0x3d760e6c	0.060072348
98	0x3c6661bd	0.014061389
99	0x3d151db8	0.036405295
100	0x3d35cfaa	0.044387497
101	0x3d2e8ae6	0.042612933
102	0x803b1424	-5.42552e-39
103	0x800bd00d	-1.084825e-39
104	0x801c2629	-2.585083e-39
105	0x3d6cf04c	0.057846352
106	0x80291258	-3.771836e-39
107	0x8005046e	-4.60767e-40
108	0x3d7a99d8	0.061181873
109	0x3c702e15	0.014659424
110	0x803c01dd	-5.510798e-39
111	0x3d0ba139	0.0340893
112	0x8018ea7b	-2.288168e-39
113	0x802a4fde	-3.885742e-39
114	0x800eee66	-1.371218e-39
115	0x801df507	-2.751129e-39
116	0x801f3700	-2.86663e-39
117	0x3d410294	0.0471216
118	0x3d38bc55	0.045101482
119	0x803f1212	-5.792119e-39
120	0x80244570	-3.330987e-39
121	0x8013018b	-1.745428e-39
122	0x8018abd8	-2.265698e-39
123	0x801e22ea	-2.76759e-39
124	0x3d89e815	0.06733719
125	0x3c022d72	0.007945405
126	0x8000af37	-6.2855e-41
127	0x3d462109	0.04837135

net.3.0.weight f4 [128, 128]
0	0x3dcd30de	0.10019086
1	0x3d844331	0.06458128
2	0x802f2077	-4.327915e-39
3	0x8040584a	-5.909144e-39
4	0x3dfd93ee	0.12381731
5	0x3dc1f6e6	0.0947092
6	0x3dc36b7b	0.09541985
7	0x000f41db	1.401157e-39
8	0x8008030d	-7.35778e-40
9	0x801d45d8	-2.688285e-39
10	0x3d378259	0.044802044
11	0x00052177	4.71182e-40
12	0x3df30257	0.11865681
13	0x801a1344	-2.394634e-39
14	0x001f84f8	2.8946e-39
15	0x800ac6c0	-9.89653e-40
16	0x3db3eb19	0.08785076
17	0x3da5ce5e	0.08096002
18	0x0023e223	3.295365e-39
19	0x3d5ac767	0.05341282
20	0x803cfe5c	-5.601377e-39
21	0x3d87dfd5	0.066344894
22	0x3d387d73	0.045041513
23	0x00218f8c	3.082066e-39
24	0x801e7943	-2.798565e-39
25	0x3d9e560b	0.07731255
26	0x80221316	-3.129254e-39
27	0x0034c9d4	4.847848e-39
28	0x3cd38aea	0.025823075
29	0x3dc4bb5c	0.096060485
30	0x80111139	-1.567382e-39
31	0x3d74f3bb	0.059802752
32	0x3d6960d1	0.056977097
33	0x8022958f	-3.176058e-39
34	0x0013119f	1.751196e-39
35	0x801fc331	-2.916922e-39
36	0x3d016389	0.031589065
37	0x3d6fa36c	0.05850546
38	0x3d7a265d	0.061071742
39	0x002efe0e	4.31557e-39
40	0x800c66ed	-1.138949e-39
41	0x003454e8	4.805904e-39
42	0x3d8c51c2	0.068515316
43	0x3d0a112f	0.033707794
44	0x002d4b0c	4.159519e-39
45	0x3d26d63c	0.040731654
46	0x000ba279	1.068475e-39
47	0x80281126	-3.679572e-39
48	0x3d826bcc	0.06368217
49	0x3d7906f7	0.060797658
50	0x0009b771	8.92326e-40
51	0x80135e94	-1.778803e-39
52	0x002a5746	3.888399e-39
53	0x3d9057c7	0.07047992
54	0x001c72ad	2.612532e-39
55	0x8014deaa	-1.916587e-39
56	0x3d85de9c	0.065366
57	0x000f1193	1.383837e-39
58	0x3db95c79	0.09050841
59	0x8029100e	-3.771015e-39
60	0x80334f2f	-4.712016e-39
61	0x3da4ac04	0.08040622
62	0x00357e9e	4.912703e-39
63	0x3d84f9cf	0.0649296
64	0x002c68cb	4.078354e-39
65	0x3d45881e	0.048225515
66	0x3d5065ae	0.05087822
67	0x3d3ef3b4	0.046619132
68	0x3d83a994	0.06428829
69	0x80242c96	-3.322072e-39
70	0x3dd37758	0.103254974
71	0x8003b677	-3.40963e-40
72	0x3d23be8f	0.039976653
73	0x0030e5b0	4.4905e-39
74	0x80333918	-4.704092e-39
75	0x3db2433b	0.087042294
76	0x3c886cf0	0.016653508
77	0x00069ac8	6.06538e-40
78	0x3cb1fc72	0.02172682
79	0x3d7cb56f	0.061696466
80	0x802f84f9	-4.36397e-39
81	0x3d5af31b	0.0534545
82	0x3dba93ab	0.09110197
83	0x8013db6c	-1.823588e-39
84	0x3d908b2a	0.070577934
85	0x3dbf0bec	0.09328446
86	0x003755f2	5.081784e-39
87	0x3db83c25	0.08995847
88	0x00374ec6	5.079211e-39
89	0x3d832492	0.064034596
90	0x8029a359	-3.823853e-39
91	0x3d88055a	0.06641646
92	0x80129be7	-1.708966e-39
93	0x3d4b7b21	0.04967797
94	0x3d7df0d8	0.061997265
95	0x3d92fb10	0.071767926
96	0x0027c353	3.651653e-39
97	0x3ddac7b5	0.10682622
98	0x3cd1a70b	0.025592348
99	0x3d608d63	0.054822337
100	0x3dab58db	0.08366557
101	0x3d85e2d9	0.065374084
102	0x80302717	-4.422127e-39
103	0x0038270c	5.156795e-39
104	0x800afbb7	-1.008653e-39
105	0x3dda1d50	0.10650122
106	0x00161374	2.02736e-39
107	0x803c2171	-5.522126e-39
108	0x3d9f93a4	0.07791832
109	0x3cda19f7	0.02662371
110	0x000f3ca2	1.399283e-39
111	0x3d55ed29	0.052228127
112	0x001f9525	2.900403e-39
113	0x003aa027	5.38391e-39
114	0x803dd4d7	-5.678318e-39
115	0x0013295a	1.759709e-39
116	0x000290bf	2.35596e-40
117	0x3d800e0e	0.06252681
118	0x3da8959d	0.082316615
119	0x80210e8f	-3.035794e-39
120	0x000de4f8	1.276e-39
121	0x0000fcb2	9.065e-41
122	0x002a6be8	3.8958e-39
123	0x000f469a	1.40286e-39
124	0x3da54b25	0.08070973
125	0x3c743fe6	0.014907813
126	0x8017691f	-2.149927e-39
127	0x3db713e8	0.08939344
128	0x3d9b49ce	0.075824365
129	0x3d370c45	0.044689436
130	0x80147b0e	-1.880854e-39
131	0x8015754e	-1.970626e-39
132	0x3da08fc0	0.07839918
133	0x3d8a2784	0.06745818
134	0x3d8d366f	0.06895148
135	0x001846a6	2.229396e-39
136	0x80205daf	-2.972343e-39
137	0x804eee88	-7.248738e-39
138	0x3d0e0e3e	0.03468155
139	0x0033b6cf	4.74919e-39
140	0x3d7995f4	0.060934022
141	0x801cf803	-2.660364e-39
142	0x802fe781	-4.399316e-39
143	0x80511501	-7.44621e-39
144	0x3d5b5a77	0.05355307
145	0x3d4572e1	0.04820526
146	0x802f31d3	-4.334142e-39
147	0x3d2782f6	0.04089638
148	0x8001e42c	-1.73688e-40
149	0x3d4597ae	0.048240356
150	0x3d0ca69a	0.03433857
151	0x80071503	-6.50386e-40
152	0x000ec9f3	1.358143e-39
153	0x3d634484	0.055485263
154	0x80358e03	-4.918226e-39
155	0x8054c128	-7.783473e-39
156	0x3ca208cb	0.019779583
157	0x3d8ec5b7	0.06971305
158	0x00157176	1.969248e-39
159	0x3d32e1c8	0.043672353
160	0x3d4c02e1	0.049807433
161	0x8037a61a	-5.110538e-39
162	0x80286715	-3.710399e-39
163	0x80121837	-1.661726e-39
164	0x3cc52eeb	0.024070224
165	0x3d3bb1fc	0.045824036
166	0x3d37106f	0.044693407
167	0x8020f085	-3.025018e-39
168	0x001eb310	2.8193e-39
169	0x801d969d	-2.717259e-39
170	0x3d73b99d	0.059503186
171	0x3cd21fb3	0.025649881
172	0x0002d147	2.58746e-40
173	0x3d013723	0.031546723
174	0x80021ab5	-1.93252e-40
175	0x0007dca7	7.22004e-40
176	0x3d45d370	0.048297346
177	0x3d4b103e	0.049576037
178	0x000f492f	1.403786e-39
179	0x00220f44	3.127883e-39
180	0x00148a14	1.886243e-39
181	0x3d80b224	0.06283978
182	0x00413858	5.98952e-39
183	0x001c78eb	2.614771e-39
184	0x3d5374b1	0.051624957
185	0x00284611	3.698555e-39
186	0x3d8fd462	0.07022931
187	0x002719b3	3.590803e-39
188	0x8037287e	-5.065478e-39
189	0x3da5abb8	0.080893934
190	0x001ad3a5	2.463647e-39
191	0x3d36d706	0.044638656
192	0x001c5c66	2.60454e-39
193	0x3d1d421c	0.038393125
194	0x3d1c9efa	0.03823755
195	0x3d1245d5	0.03571113
196	0x3d2ab9f2	0.041681238
197	0x80221221	-3.12891e-39
198	0x3da5c895	0.080948986
199	0x0015ef26	2.014336e-39
200	0x3cf9744a	0.030450959
201	0x801aafc6	-2.450779e-39
202	0x801183da	-1.608503e-39
203	0x3d73295d	0.05936562
204	0x3c512c34	0.0127668865
205	0x803e7b38	-5.738003e-39
206	0x3c88715f	0.016655622
207	0x3d454a16	0.048166357
208	0x80171551	-2.119863e-39
209	0x3d2e80a0	0.042603135
210	0x3d94f791	0.07273782
211	0x002e26a2	4.238292e-39
212	0x3d9dcb08	0.07704741
213	0x3d7f7d6c	0.06237547
214	0x0011fcd8	1.651907e-39
215	0x3d4b9ec1	0.049711946
216	0x0018cba2	2.277102e-39
217	0x3d5158f6	0.05111023
218	0x00161b02	2.03007e-39
219	0x3d4ff289	0.05076841
220	0x000c5b0d	1.134689e-39
221	0x3d1943cc	0.03741817
222	0x3d947b59	0.07250089
223	0x3d74ce06	0.05976679
224	0x00378180	5.097408e-39
225	0x3d92774a	0.07151659
226	0x3ca0a82f	0.019611446
227	0x3d37df9c	0.044890985
228	0x3d587109	0.052842174
229	0x3d645cc0	0.055752516
230	0x002f9eb2	4.373197e-39
231	0x00039c3e	3.31556e-40
232	0x80179359	-2.165075e-39
233	0x3db600ff	0.08886909
234	0x00246504	3.342315e-39
235	0x80391860	-5.243367e-39
236	0x3da57101	0.080781944
237	0x3ca70645	0.020388732
238	0x8033e54c	-4.765867e-39
239	0x3d2fda8c	0.042933032
240	0x800ed740	-1.362914e-39
241	0x000e0171	1.286214e-39
242	0x000885a7	7.8263e-40
243	0x801b28f0	-2.494244e-39
244	0x8000d99e	-7.8066e-41
245	0x3d4b529f	0.04963934
246	0x3d4f8584	0.05066444
247	0x8033145d	-4.690915e-39
248	0x00166073	2.05498e-39
249	0x001cff6c	2.663022e-39
250	0x8009ca94	-8.99191e-40
251	0x002c103a	4.046583e-39
252	0x3db9fe39	0.09081692
253	0x3c3b2ef4	0.011424769
254	0x003e336c	5.712247e-39
255	0x3d71a3d3	0.058994126

net.3.0.bias f4 [128]
0	0x3c3e5a10	0.011618152
1	0x3c0e2aad	0.008677167
2	0x3406bc47	1.2548217e-07
3	0x3c464733	0.012101936
4	0x3c11b9d8	0.008894406
5	0x3c06f4bb	0.008237059
6	0x3bdae336	0.0066799177
7	0x3c064607	0.008195407
8	0xb5f626e7	-1.833975e-06
9	0xb09a7d64	-1.1240613e-09
10	0x3c3ee434	0.011651088
11	0x3c2d4c52	0.010577278
12	0x33b92012	8.6205674e-08
13	0x3bc8cec1	0.0061281626
14	0x3c2cead7	0.010554037
15	0x3c350e02	0.011050703
16	0x3c275777	0.010213724
17	0x32aab946	1.9874857e-08
18	0x3beea597	0.0072829234
19	0x3c0c57df	0.008565872
20	0x3c239f03	0.009986642
21	0x3187199b	3.931928e-09
22	0x2a4b7db1	1.807363e-13
23	0x33859792	6.2208656e-08
24	0x3bbafe1f	0.005706563
25	0x3be9242d	0.007114908
26	0x3c0225d6	0.007943591
27	0x3bcebb7f	0.0063089724
28	0x3c036aec	0.008021098
29	0x2ec0a0d2	8.7597166e-11
30	0x3c425566	0.011861181
31	0x31c1af39	5.63696e-09
32	0x3c45a6f7	0.012063733
33	0x3b697698	0.0035623666
34	0x3bc2b4da	0.0059419693
35	0x34998640	2.859615e-07
36	0x3c0308c3	0.007997694
37	0x2d6d3656	1.3483955e-11
38	0x3b973713	0.0046147197
39	0x3bfb75a5	0.0076739364
40	0xb31223fe	-3.402601e-08
41	0x33d3c598	9.861395e-08
42	0x3c30d969	0.010794022
43	0x30bcafab	1.3728728e-09
44	0x2e051383	3.025803e-11
45	0x3bb789df	0.0056011523
46	0x3c0a2e9b	0.008433963
47	0x3bfdf9de	0.0077507338
48	0x3c0b4ade	0.008501736
49	0x3c004b35	0.007830431
50	0xb9d060f5	-0.0003974509
51	0x3c283419	0.010266327
52	0xb4618270	-2.1002211e-07
53	0x3bd7132e	0.0065635657
54	0x3bef92b1	0.007311188
55	0x33accf84	8.047121e-08
56	0x319c30f3	4.5457624e-09
57	0x3bc926a0	0.0061386377
58	0xb3068cd0	-3.1327374e-08
59	0x3c399780	0.011327624
60	0x3c0103ba	0.007874424
61	0x3c0d9728	0.0086419955
62	0x3bc7b5b6	0.0060946597
63	0x3c0ce775	0.0086001055
64	0x3bf0d6ff	0.0073498483
65	0x3c14bf1c	0.009078767
66	0x398f8a4b	0.00027378122
67	0x3c5dee8d	0.0135456445
68	0x3c0fd3dd	0.0087785395
69	0x3c23c1e2	0.009994956
70	0x3bbb0980	0.0057079196
71	0xb4b0da5a	-3.2941426e-07
72	0x3bd5cbe7	0.006524551
73	0x3c10d496	0.008839747
74	0xb2111919	-8.445817e-09
75	0x3c1a1de7	0.009406543
76	0x3b0d142c	0.0021526916
77	0x3520246c	5.9657646e-07
78	0x2de7a66d	2.6335567e-11
79	0x330263db	3.03588e-08
80	0x3bd2d7b1	0.006434404
81	0x3b9e30e1	0.004827604
82	0x3c1b6789	0.009485134
83	0x3c423d9e	0.011855511
84	0x3bcc82f3	0.0062411963
85	0xb67f06c0	-3.800189e-06
86	0x3c1da2fa	0.009621376
87	0xb58720f0	-1.006787e-06
88	0x3c0aec82	0.008479239
89	0x33f8cb10	1.1585337e-07
90	0xb2d8724f	-2.5197691e-08
91	0x3c14b8d4	0.00907727
92	0x3c09a53b	0.00840121
93	0x3c1b75fd	0.00948858
94	0x3bcd1b89	0.006259386
95	0x3c08ff24	0.0083616115
96	0x3c4c88bf	0.012483775
97	0x3c3fcf50	0.011707142
98	0x3c05be37	0.0081630265
99	0x3b8d7493	0.0043168752
100	0x3bad1071	0.005281501
101	0xb37a1106	-5.8223144e-08
102	0x3c1a7e0a	0.009429464
103	0x3c10d352	0.008839445
104	0x3c262c0d	0.010142338
105	0x3bed432d	0.007240674
106	0x3c17ce1f	0.009265452
107	0xb115bba2	-2.178901e-09
108	0x3beeab44	0.0072836
109	0x3bcbf1dc	0.0062239002
110	0x3c4483e7	0.011994339
111	0x2ecc4515	9.2891174e-11
112	0x3c332627	0.010934389
113	0x32ed919d	2.7656649e-08
114	0x3c11cbec	0.008898716
115	0x3c18b3b6	0.00932019
116	0x3be83502	0.007086397
117	0xb5ef6338	-1.7835764e-06
118	0x3bbba0a4	0.005725937
119	0x353373c3	6.685115e-07
120	0x34014202	1.2038075e-07
121	0x3c0fd0f9	0.00877785
122	0x2f74e6d9	2.2273684e-10
123	0x3c0559fd	0.008139131
124	0xb3e2270c	-1.0531048e-07
125	0x3c17b119	0.009258532
126	0x31bb0865	5.4433706e-09
127	0x3579ddbf	9.308241e-07

net.4.0.weight f4 [256, 128]
0	0x3d0c66ae	0.03427761
1	0x3ce66585	0.02812458
2	0xb1a5f05f	-4.829459e-09
3	0x3d0fb354	0.03508313
4	0x3cef1cbb	0.029188504
5	0x3cdf1213	0.027230298
6	0x3cad5e89	0.021163242
7	0x3cd2b90d	0.025723005
8	0x39e71f82	0.0004408323
9	0xb06cfa28	-8.6211793e-10
10	0x3d22da2e	0.039758854
11	0x3d0fbd1e	0.035092466
12	0x31ba3d7f	5.4203038e-09
13	0x3c9e0fe0	0.01929468
14	0x3d0ea587	0.034825828
15	0x3d094edf	0.033522483
16	0x3d071f18	0.032988638
17	0xb12b7150	-2.4948186e-09
18	0x3cb94f59	0.022620844
19	0x3ce351fe	0.027749058
20	0x3cf6924d	0.030099059
21	0xb085f8d3	-9.747744e-10
22	0xa93aa11d	-4.144004e-14
23	0x31915735	4.2299697e-09
24	0x3c981adc	0.018567495
25	0x3cb62388	0.02223374
26	0x3cca18e0	0.024670064
27	0x3ca4b624	0.020106383
28	0x3cca2ba4	0.024679013
29	0x2ec241be	8.833777e-11
30	0x3d0cfaec	0.034418985
31	0xaee28cb5	-1.0302285e-10
32	0x3d057330	0.032580554
33	0x3c48b8d7	0.0122511005
34	0x3c9b6e0b	0.018973371
35	0xb47da649	-2.3622955e-07
36	0x3ccc3c95	0.024931232
37	0xac6b21aa	-3.3414196e-12
38	0x3c78ef6a	0.0151937995
39	0x3cc2f9ad	0.023800695
40	0xb3217f2d	-3.76014e-08
41	0xb2f633cb	-2.8661722e-08
42	0x3d0e2f5e	0.03471314
43	0xacf41e64	-6.938271e-12
44	0x2c7cca99	3.5923818e-12
45	0x3c94fca9	0.018186884
46	0x3cdfbe72	0.027312491
47	0x3cda8e43	0.026679164
48	0x3cd34298	0.02578859
49	0x3cc6a2ca	0.024247546
50	0x3a7b25db	0.0009580531
51	0x3d031d56	0.0320104
52	0x338f9534	6.686096e-08
53	0x3ca75d90	0.020430356
54	0x3cbb9b4d	0.022901202
55	0x33a197f0	7.524784e-08
56	0xb00dab6b	-5.15391e-10
57	0x3ca13cf3	0.019682383
58	0xb2ad9aba	-2.0210212e-08
59	0x3d0be259	0.03415141
60	0x3cc779e0	0.024350107
61	0x3cdae3a7	0.026719881
62	0x3c9d392a	0.019192297
63	0x3ceae56a	0.028673846
64	0x3cbb3b5a	0.02285545
65	0x3cd9f194	0.026604451
66	0x3b54c2ab	0.0032464664
67	0x3d0c4a6c	0.03425066
68	0x3cd8e410	0.026475936
69	0x3cff3c8e	0.031156804
70	0x3c961e62	0.018325035
71	0x3272af16	1.4126064e-08
72	0x3ca98943	0.020695334
73	0x3cdf96b1	0.027293535
74	0xb19240c8	-4.256524e-09
75	0x3ce94b2c	0.028478228
76	0x3c098ae8	0.008394934
77	0xb4f621e1	-4.584572e-07
78	0xac77b84d	-3.5203119e-12
79	0x301b4204	5.6482485e-10
80	0x3ca74598	0.020418927
81	0x3c80bf54	0.015716232
82	0x3ceb2090	0.02870205
83	0x3d3202e3	0.043459784
84	0x3ca3059a	0.019900132
85	0xb4dd7712	-4.1251093e-07
86	0x3cf3125b	0.029671839
87	0x33a0b305	7.483144e-08
88	0x3cd21ba9	0.025647955
89	0xb224e22b	-9.597481e-09
90	0xb2a9e0e2	-1.9776454e-08
91	0x3ce9a033	0.028518772
92	0x3ccf7118	0.025322482
93	0x3d0ef4f4	0.034901574
94	0x3ca37ca9	0.019956904
95	0x3cd3f98d	0.025875831
96	0x3d06b087	0.032883193
97	0x3d085c39	0.033291075
98	0x3cce9a58	0.025220081
99	0x3c6ee4c5	0.01458091
100	0x3c8ad249	0.016945975
101	0xb408e4f1	-1.2749275e-07
102	0x3cf9b05a	0.030479599
103	0x3cfeaaeb	0.03108736
104	0x3cf5b610	0.02999404
105	0x3cca182a	0.024669725
106	0x3ce9c506	0.02853633
107	0xb1a38e5c	-4.7601088e-09
108	0x3cbace41	0.022803428
109	0x3ca1f1f3	0.01976869
110	0x3d0d7432	0.03453464
111	0x2f01110f	1.1738542e-10
112	0x3d06c168	0.03289929
113	0xaf458f02	-1.7967852e-10
114	0x3cebd941	0.028790118
115	0x3cdef527	0.027216507
116	0x3cb6c91b	0.022312691
117	0xb3a721c2	-7.782684e-08
118	0x3c966ee1	0.018363418
119	0xb5240b4e	-6.111121e-07
120	0xb30253cc	-3.0344196e-08
121	0x3cd0f909	0.025509374
122	0x2d8d1a22	1.604145e-11
123	0x3cce0e13	0.025153195
124	0xb2ce220d	-2.399704e-08
125	0x3cf3fc1d	0.029783303
126	0x2eb42e5d	8.193688e-11
127	0xb4dd27fc	-4.119355e-07
128	0x3d8c961b	0.06864568
129	0x3c3d8483	0.011567238
130	0x33e54c3a	1.0677509e-07
131	0x3ca49210	0.02008918
132	0x3cc2d53a	0.023783315
133	0x3d51e7fd	0.051246632
134	0x3b8d6db0	0.0043160543
135	0x3d254003	0.04034425
136	0xb954d076	-0.00020295553
137	0x3147a743	2.9053389e-09
138	0x3d8fa13a	0.070131734
139	0x3cf4a4a9	0.029863672
140	0x31eac32b	6.8324844e-09
141	0x3c88a41d	0.016679818
142	0x3c282d35	0.010264684
143	0x3d53bb3b	0.05169223
144	0x3bc98e0a	0.0061509656
145	0x3436a28c	1.7009205e-07
146	0x3cf0e79b	0.029407313
147	0x3c8602b5	0.016358713
148	0x3d312557	0.0432485
149	0x2fb55968	3.2987235e-10
150	0xa929e5e4	-3.7724937e-14
151	0x3171a441	3.5163483e-09
152	0x3cd6f0b6	0.026237827
153	0x3c8750b5	0.016517976
154	0x3cb5a330	0.02217254
155	0x3ca1800e	0.019714382
156	0x3cf9f118	0.03051047
157	0x2f058bbc	1.2145923e-10
158	0x3d0aec84	0.033916965
159	0x30bfe421	1.3961917e-09
160	0x3cbb84f8	0.022890553
161	0x3c6c95cd	0.014440012
162	0x3cc316fd	0.023814673
163	0x3516faf6	5.624455e-07
164	0x3c169467	0.009190655
165	0xad006a54	-7.299567e-12
166	0x3c730d5b	0.014834727
167	0x3d092804	0.033485427
168	0x32eaf1ff	2.7351232e-08
169	0x32c9144a	2.3408706e-08
170	0x3c499501	0.012303592
171	0x2fe052ae	4.080411e-10
172	0x2cbb1e6f	5.3182385e-12
173	0x3c51900e	0.012790693
174	0x3d00293a	0.031289317
175	0x3d0aa686	0.033850215
176	0x3d3044ed	0.043034483
177	0x3cc2ffc8	0.023803607
178	0xb88660b4	-6.40763e-05
179	0x3cd2f117	0.025749726
180	0xb5eb5bc8	-1.7535576e-06
181	0x3cb9fd23	0.022703713
182	0x3cb3dc6a	0.021955688
183	0x3244da5b	1.145835e-08
184	0x30e05f84	1.6325292e-09
185	0x3c716517	0.014733574
186	0xb1b226b5	-5.1848823e-09
187	0xbba64fbe	-0.005075424
188	0x3d1dd7d2	0.0385359
189	0x3ccbad01	0.024862768
190	0x3c4afae6	0.01238892
191	0x3d18ee72	0.037336774
192	0x3cf5d3d2	0.03000823
193	0xbaf67020	-0.0018801726
194	0x3b5d6477	0.0033781806
195	0x3d9d39cf	0.07677042
196	0x3c0b3acd	0.008497906
197	0x3ca65020	0.020301878
198	0x3c930cb0	0.017950386
199	0x3337ab47	4.2763784e-08
200	0x3c9de084	0.019272096
201	0x3d0adf3c	0.0339043
202	0xb13f7f75	-2.786661e-09
203	0x3c9a89d8	0.018864557
204	0x3c0e9b54	0.008704025
205	0xb7e2b729	-2.702659e-05
206	0x2c8a9330	3.938537e-12
207	0x32a11b4c	1.875528e-08
208	0x3c9fbc23	0.01949889
209	0x3c2ece79	0.010669344
210	0x3c92f70d	0.017940069
211	0x3d9c9d76	0.07647221
212	0x3c9b59ae	0.018963661
213	0xb3a92b10	-7.877509e-08
214	0x3d5206c2	0.051275976
215	0x3404ad81	1.2356578e-07
216	0x3bdb32b2	0.006689393
217	0x32097038	7.999965e-09
218	0x3266c999	1.34336e-08
219	0x3aac3b7a	0.0013140284
220	0x3ca218d8	0.019787237
221	0x3d232091	0.03982598
222	0x3c4d05cb	0.012513588
223	0x3ce17864	0.027523227
224	0x3cab0395	0.020875731
225	0x3d2487ec	0.040168688
226	0x3cb781e5	0.022400806
227	0x3c6fd56b	0.014638285
228	0x3c9f4892	0.019443784
229	0x3384760f	6.168204e-08
230	0x3b7f59eb	0.0038963507
231	0x3d16d791	0.036826674
232	0x3d284372	0.041079946
233	0x3b744231	0.0037270898
234	0x3d5a1ac7	0.053248193
235	0x32410c47	1.123687e-08
236	0x3cb21ba7	0.021741701
237	0x3c489399	0.012242221
238	0x3d350913	0.044198107
239	0x2d572d59	1.2231404e-11
240	0x3d51e7c0	0.051246405
241	0xb0d55bf0	-1.552392e-09
242	0x3d2b5e0d	0.04183774
243	0x3cdfcab0	0.027318329
244	0x3cc1456e	0.023592677
245	0x3562cc51	8.448888e-07
246	0x3c900af6	0.017583352
247	0x3423d318	1.5257353e-07
248	0x3383e620	6.1420224e-08
249	0x3d0ee995	0.03489073
250	0x2df03485	2.7308164e-11
251	0x3cce8808	0.02521135
252	0xb0f77fd4	-1.8007946e-09
253	0x3c3886ba	0.01126259
254	0x30a5a144	1.2051165e-09
255	0x3524d95f	6.141108e-07
